well_drilling/anfis.pth (torch, 2868 bytes, 6 tensors)

memberships.0.mu f4 [3]
0.21652803 0.39142275 0.8159408
00000000: 86b9 5d3e 9068 c83e 7fe1 503f

memberships.0.sigma f4 [3]
0.38804144 0.37772974 0.406973
00000000: 5ead c63e cb65 c13e c45e d03e

memberships.1.mu f4 [3]
-0.0060055046 0.5876308 1.0043582
00000000: d3c9 c4bb f96e 163f cf8e 803f

memberships.1.sigma f4 [3]
0.43003953 0.37409014 0.43445987
00000000: 242e dc3e be88 bf3e 8671 de3e

consequents.linear.weight f4 [9, 2]
-1.1225417 -0.38942528 0.044452578 -0.1236896 1.0805598 0.39244035 1.9441472 -0.354125
0.062546186 0.51766586 2.0143678 -1.3177253 -1.0507857 -0.87716025 -0.48044282 0.9537824
-0.4921537 0.036555346
00000000: 72af 8fbf c062 c7be e813 363d f950 fdbd
00000010: c94f 8a3f f1ed c83e d1d9 f83f df4f b5be
00000020: 3718 803d c085 043f 67eb 0040 39ab a8bf
00000030: 2580 86bf 938d 60bf 9afc f5be 152b 743f
00000040: 92fb fbbe 0fbb 153d

consequents.linear.bias f4 [9]
-0.82895035 1.1376277 0.84198 0.6106625 -0.95177627 -1.6671796 -0.124622226 0.9026784
2.0323474
00000000: 1736 54bf c99d 913f 008c 573f 6154 1c3f
00000010: 9ca7 73bf 2466 d5bf f039 ffbd ee15 673f
00000020: fb11 0240
