wavefunction_approximation/ann.pt (torch, 12704 bytes, 5 tensors)

weight f4 [64, 2]
00000000: 8ebb b73e 0ef6 733d 7a99 9a3e fcf2 1cbf
00000010: 6341 c9bd 896b f33e 8d67 e8be ce7b ca3e
00000020: 839f 2b3f 407a d9bd 04b9 c2be b8cd e73d
00000030: 0104 993e c312 f23e 1620 1ebe 0796 b43e
00000040: 7b2f 183e 5e65 1fbf e38d f03e 1463 bc3e
00000050: 86bd f7be 4470 ebbd f209 86be 098c 6a3f
00000060: 2c2a e93e bd80 a23e 9743 203f 7add 2a3e
00000070: 1e3f 8a3e 2299 5e3f cb7d abbd 8382 0ebf
00000080: b5fb 323e ecee 78bd 2d59 1b3e 57d1 c53e
00000090: 3a65 ea3e d053 62be ab37 b63d cc3f 213f
000000a0: 640a b4bd a46f 2d3f a813 e0be bac0 7f3e
000000b0: 739f b7bd 6415 8b3e 6679 9f3e 0534 7fbe
000000c0: e94c ca3e 4a1e 8c3f 9294 f13e 9c37 be3e
000000d0: 0d7a b33c fc88 453e 16b6 08bf 945d babe
000000e0: 2f80 2f3f 03d7 3a3f 968e 2abf c3db 003f
000000f0: da37 093f 77f0 12bf 997f 16bf 295a c0be
00000100: 971f 873e f34e b53e 5e58 9e3d a225 11bf
00000110: 3aa6 803e 1c15 1a3f 821d 3ebf 4ff9 b03b
00000120: 14f7 abbe c2b8 7a3e 849d 7d3c fb1a 193f
00000130: 1c8a ca3e 85ff 91be 93ce 523e 2ecf 8abe
00000140: 05c0 19bd 0f20 233c fc01 2d3e 6c26 163f
00000150: 7090 1fbf 7f9a 943e 7f63 5b3e 8d9f 873f
00000160: 2fca 89be d377 16bf 728c 6dbe 323a 123f
00000170: 6c34 8a3e 6dd4 26be 5dc0 a4be be32 163f
00000180: 3a02 06bf 59b3 bd3c 2ace cbbc 08f6 083f
00000190: f937 d4be 47ae 6b3f 1a1f 12bf d402 02bf
000001a0: 2646 a9be 2448 11bf fcf8 efbe b79b 9abe
000001b0: 854f ffbc 7e85 6f3e b7ee 0cbe 2989 233f
000001c0: f1f4 2fbe fee8 b5be 8f48 6dbe 86f9 39bf
000001d0: 3833 1f3f e6ae f7bd 2b98 debd 7b0e fbbd
000001e0: 7e3b 953e f90f a33e b04d ca3c dfe2 a33e
000001f0: 25e6 59be df9e cdbe 2470 59ba beca 693f
0.3588528 0.059560828 0.30195218 -0.61308265 -0.09826925 0.4754298 -0.45391503 0.3954758
0.6704027 -0.106190205 -0.3803178 0.113185346 0.29885867 0.4727994 -0.15441927 0.35270712
0.14861862 -0.6226405 0.4698325 0.3679434 -0.48386782 -0.11496022 -0.26179463 0.91619927
0.45539987 0.31738845 0.62603134 0.16686049 0.2700128 0.8695241 -0.083736025 -0.55667895
0.17478831 -0.06077473 0.15170737 0.38636276 0.45780355 -0.22102284 0.088973366 0.6298797
-0.08791044 0.67748475 -0.43764997 0.24975863 -0.089659594 0.27164757 0.31147307 -0.24922188
0.39511803 1.0946743 0.47183663 0.37151802 0.021908784 0.19290537 -0.5340284 -0.3639952
0.6855497 0.7298433 -0.6662382 0.5033533 0.5360085 -0.5739817 -0.5878845 -0.37568787
0.2639129 0.35411796 0.077316985 -0.5669805 0.2512682 0.6018846 -0.74263775 0.0054008137
-0.33586943 0.24484542 0.015479449 0.59806794 0.39558494 -0.28515258 0.20586614 -0.2711119
-0.03753664 0.009956374 0.16895288 0.5865238 -0.6232977 0.2902412 0.21424673 1.0595566
-0.26912066 -0.5877659 -0.23198107 0.5712005 0.2699312 -0.16291972 -0.32178012 0.58671176
-0.5234715 0.023156809 -0.02487858 0.53500414 -0.41448954 0.920628 -0.5707871 -0.50785565
-0.33061332 -0.567507 -0.46869648 -0.30196926 -0.031165848 0.23390767 -0.13762937 0.63881165
-0.17183281 -0.3552932 -0.2317221 -0.7264637 0.6218753 -0.12093906 -0.108688675 -0.12258621
0.2914695 0.31848124 0.024695247 0.32009026 -0.212792 -0.40160272 -0.00082946033 0.91324985

bias f4 [64]
00000000: 0ed3 393f a7f6 183f c61d c53e b22a e0be
00000010: e0ec acbf 5cc2 3abf 405c 0cbe 3b8d a03e
00000020: 99f7 8a3e 73f0 6dbf db4b 7ebf 495d 0a3f
00000030: 3c55 7fbe 0bb1 a0bf fc46 0cbf 1a36 693e
00000040: 66fc ea3e 161a 913e 08e5 5e3f 52e7 413f
00000050: 4547 07be 4e32 603f 1a14 453e 015e 24bf
00000060: ef8d 44bf 4cbb 6ebf 3041 f8bd 9ced cabf
00000070: 0e20 b43f 2564 a4bf 38e4 8abf 6fd0 9abf
00000080: b554 093f 9389 f4bd c257 fcbe 4ae7 423e
00000090: 59f0 2d3f 1108 6abc cbf8 8cbf 5ad2 d5be
000000a0: 6d4d ec3d 8a57 363f 5711 9abe ac6f af3e
000000b0: 0985 523d 13f4 c1be e762 06bf 98e3 85be
000000c0: 927c 84bf 29cd 6c3e 5884 4ebf d988 8dbf
000000d0: ac92 acbd 25ea 50be 9a62 5dbf 3598 3abf
000000e0: f46d c23e 6fdd e13e 8fad a8be f495 c3bd
000000f0: d6d7 04bd 0268 793f 5f16 e73e b98a 31bb
0.7258767 0.5975136 0.38499278 -0.43782574 -1.3509789 -0.7295282 -0.13707066 0.3135775
0.27142027 -0.9294502 -0.99334496 0.5404859 -0.24934858 -1.2554029 -0.54795814 0.22774544
0.4589569 0.28340214 0.87068224 0.7574359 -0.13210781 0.8757676 0.1924595 -0.6420594
-0.76779073 -0.9325454 -0.121218085 -1.5853763 1.4072282 -1.2843062 -1.0850897 -1.2094859
0.5364488 -0.11940303 -0.49285704 0.19033542 0.67944866 -0.01428415 -1.1013426 -0.41762048
0.11538205 0.71227324 -0.30091354 0.34264886 0.051396403 -0.37881526 -0.52494663 -0.26150203
-1.0350516 0.23125137 -0.8067069 -1.1057388 -0.08426413 -0.20401819 -0.8647858 -0.728885
0.37974513 0.44114253 -0.32944915 -0.09550086 -0.0324324 0.9742433 0.45134255 -0.0027090742

weight f4 [32, 64]
00000000: 35f7 9dbb dab2 2cbe c925 02be 3cd2 14bd
00000010: e848 cdbd a8ea d73d 8b27 2e3d c495 6bbd
00000020: 3dee 6abc 284d d9bd fce6 2abd 88d6 53bd
00000030: 4192 acbd 3afc bbbd acdf 1fbd 2a69 333d
00000040: 998c d2bd 0602 b6bd 6315 13be 7b70 f63c
00000050: cb4e bdbd 400d 06be e2d8 33be 5cb3 56bd
00000060: 56e4 c1bc 658c 53bd 4459 ba3d a89a 87bd
00000070: 0025 903c 8021 a23b 64df 1bbe 902c 44bd
00000080: 0f26 21be 8ee3 98bd 4826 c63d d2be db3d
00000090: f104 00bd b300 12be 7a0e c8bd 00c0 813a
000000a0: 3249 62bc 1ed8 993d e44b 95bd 1e03 f53c
000000b0: 3c6e 193d 88b0 2dbd b3a4 92bd e058 18bc
000000c0: 0480 273d d8a2 02be 3098 40bc 78aa 343d
000000d0: 80ee e4bc 781e 013d e046 a2bb 9597 c2bc
000000e0: 22e4 ccbd f8fb f6bd 076e 063d 0873 7b3d
000000f0: 0d08 19bd ee0f 10be f220 b9bd 80d9 9d3a
00000100: 2450 dfbd c391 10be fe22 a2bd 8b68 81bd
00000110: a830 1fbe 74a4 b1bd b52f 6cbc 0622 e9bd
00000120: 90e0 363d cdee f1bd 9cd4 08bd ff80 323d
00000130: 1e6c a8bd 665c 453c 1ef8 67bd 16c1 d2bb
00000140: d408 7abd 124b 0ebe 6b77 b5bd 7a9b 51bd
00000150: 5074 343d a293 823c ca99 20be d697 bab8
00000160: 1f65 11be 6341 b2bd 2537 07be dc42 ecbc
00000170: 539a 02be d2f6 57bd 29d5 9e3c c957 01bb
00000180: 7334 53bc 45bb 833d c21d 2fbe 1200 a8bb
00000190: c958 d7bd a514 c73c 15a2 aebc e72b 693d
000001a0: 850d a1bd fea5 1abe 5408 00be 330c d83c
000001b0: 0c4f 3bbc 0aa9 2ebe d395 e4bc be02 33be
000001c0: 86a5 023d 1937 28be c2a4 013b 3873 13be
000001d0: b535 f1bd c05e 7fbd 0587 1d3d 43bf e1bd
000001e0: 935c ddbc ad37 11be c838 c4bd aa4e 313d
000001f0: 750e 1abe ffd8 25bb 566d 8dbd 7620 cebd
00000200: 7674 853c 582b f6bd 874b 28bd 2c0f 823d
00000210: 0f43 813d d853 08be b855 363d 16b3 2fbd
00000220: d838 f13c 695c 4fbd a419 8d3d 1f88 adbd
00000230: 2462 91bd 6375 f4bc 80b0 24be 7a84 5ebd
00000240: e9c1 00be 3479 86bc a3b4 ecbd aadb 823c
00000250: f223 2fbe 0b58 22bd 821e 3c3d e008 27be
00000260: 70d3 9d3c a30c a2bd 2b9c e5bd c0a1 0bbc
00000270: a60d 0dbe 11f6 40be 4e1f acbd 837b 1cbe
00000280: 2dd3 34bc 0be2 29be 29d2 debc 0b48 753c
00000290: 6096 25be 1545 12be 3a79 1b3d 1707 953c
000002a0: ad6e f3bc cf4d ddbc eb83 b6bd 9b83 2fbe
000002b0: 4d9f 783d f245 51bd e032 dbbc f635 fabc
000002c0: e351 c6bd bbfc 38bd 024f c2bd b1ad 373d
000002d0: 8e8b 12be d6b6 24bb 0146 723d 0de9 91bc
000002e0: 14cb 0ebe b617 273c 7c89 83bd 0400 2bbe
000002f0: a137 e7bd 7b25 0abe b04f 4a3d 4a29 1fbd
00000300: 1c7c b4bd 5831 873c c7b7 43ba 38d9 c2bd
00000310: c0f4 8ebc 59eb 203d 181c 4cbd 6598 8dbc
00000320: 08dd c73d 74c6 f63d 9acd 4abb 9e5d 45bd
00000330: f298 74bd c7f7 ffbd f643 673d e8db 51bd
00000340: 61d1 523d 0d12 c8bd e0c8 d2bd 95b4 aabd
00000350: 6a29 b53b 9396 c23b c35c 813c 68a7 dd3c
00000360: 4cf6 2dbe 6abe 97bd e870 4abd c8b3 383d
00000370: ef09 f4bd 94b1 b6bd 9cd8 cd3d 4224 a4bd
00000380: 6b45 9ebd 0877 b53c 74d7 cdbd a6d2 30be
00000390: 229d 3abe f7d6 2fbe f80c b3bd 401b f8bd
000003a0: 18d3 1b3c 89d4 08be eb17 8dbd 4c57 44bd
000003b0: 54bf 5d3d ddcd 893b c088 50bc 5c37 8cbd
000003c0: 7457 2fbc a18a 14be d556 313d 5065 1d3d
000003d0: 3509 04be 9294 44bd f145 07bd 97b0 05be
000003e0: 6038 3dbe 0b88 22be 6408 73bd dbd1 0e3c
000003f0: a7bd a0bd 65ee 17bd d276 0fbe 01df 03be
-0.004820729 -0.16865101 -0.12709726 -0.036333308 -0.100236714 0.10542804 0.04251818 -0.057515875
-0.014339027 -0.106104195 -0.04172419 -0.051718265 -0.08426333 -0.09178968 -0.03903167 0.043801464
-0.10280723 -0.08887105 -0.14363627 0.030082932 -0.09243544 -0.13090992 -0.17563203 -0.052417144
-0.02366845 -0.051647563 0.09099057 -0.06621295 0.017595768 0.004947841 -0.15221936 -0.04789406
-0.15737174 -0.074652776 0.0967527 0.107297555 -0.031254712 -0.14258079 -0.09768386 0.0009899139
-0.013811396 0.07511924 -0.072898656 0.029908713 0.037458643 -0.04240468 -0.0716032 -0.009298533
0.04089357 -0.12757432 -0.011755034 0.044107884 -0.027945757 0.031523198 -0.0049522966 -0.02375392
-0.100044504 -0.12059778 0.032819774 0.061389 -0.037361193 -0.14068577 -0.09039487 0.001204297
-0.109039575 -0.14118104 -0.079168305 -0.06318768 -0.15545905 -0.08673945 -0.014415671 -0.113834426
0.044647753 -0.11813126 -0.033405885 0.04358005 -0.08223747 0.012045955 -0.056633107 -0.006431709
-0.061043575 -0.13895825 -0.08860668 -0.051173665 0.044056237 0.015939537 -0.15683666 -8.897453e-05
-0.14198731 -0.08703878 -0.1320463 -0.028840475 -0.12754183 -0.05272562 0.019388752 -0.0019736162
-0.012890923 0.06432203 -0.17101195 -0.0051269615 -0.10514981 0.024301836 -0.021317521 0.056926634
-0.07863907 -0.15102383 -0.12503177 0.026373005 -0.01143242 -0.17056671 -0.027903473 -0.17481515
0.031896137 -0.16427268 0.0019782041 -0.14399421 -0.11777822 -0.06234622 0.038458843 -0.110228084
-0.027021682 -0.14181395 -0.09581143 0.04328791 -0.15044577 -0.0025306342 -0.0690562 -0.10064785
0.016290884 -0.12019986 -0.041087653 0.0635055 0.063116185 -0.13313234 0.04451534 -0.0428954
0.02944605 -0.05062524 0.06889656 -0.08473229 -0.07098797 -0.02984113 -0.16082954 -0.05432556
-0.12573971 -0.016415216 -0.11557891 0.015973885 -0.17103556 -0.039634746 0.045927532 -0.1631198
0.01926586 -0.079125665 -0.11211427 -0.008522451 -0.13774738 -0.18843867 -0.084044084 -0.15281491
-0.011036676 -0.16590135 -0.027199822 0.01497079 -0.16170645 -0.14284165 0.037957408 0.018191857
-0.02971586 -0.027014641 -0.0891188 -0.17140047 0.060698796 -0.051092096 -0.026757658 -0.030543309
-0.096835874 -0.045162898 -0.09487726 0.04484338 -0.14311048 -0.0025133393 0.059148792 -0.017811323
-0.13944656 0.010198524 -0.064227074 -0.16699225 -0.11289907 -0.1349086 0.049392402 -0.038857736
-0.088127345 0.016503021 -0.00074660446 -0.095140874 -0.01745069 0.039286945 -0.04983148 -0.017284581
0.09758955 0.12049571 -0.0030945302 -0.048184983 -0.059716173 -0.12498432 0.056461297 -0.05123511
0.05146921 -0.09769068 -0.1029222 -0.083352245 0.0055286186 0.00593836 0.015791303 0.027057365
-0.16988486 -0.074093655 -0.049424082 0.045093328 -0.11915957 -0.08920589 0.100510806 -0.08014728
-0.07728084 0.022151485 -0.1005086 -0.17267856 -0.18224004 -0.17171846 -0.08742708 -0.121145725
0.009510778 -0.13362326 -0.068893276 -0.047934815 0.054137543 0.004205449 -0.012727916 -0.068464965
-0.010702003 -0.14506008 0.0432957 0.038426697 -0.12894137 -0.04799325 -0.033025686 -0.13055645
-0.18478537 -0.15872209 -0.059334174 0.008717026 -0.07848673 -0.037092585 -0.1401017 -0.12878038

bias f4 [32]
00000000: aa4d 4ebd 578c 26be 3f0c 683d 9234 febd
00000010: 943a 563d 1381 ee3d 9778 93bd 6a12 0cbe
00000020: eaeb 503d f8e7 f63c 3602 06be c8a5 36bd
00000030: a68e f6bd 150a 92bd 85b2 843b 3440 343c
00000040: d53e 093e d518 29be 6e30 11be 9450 1fbd
00000050: 0c01 30bd 2c5f 8abd 99d7 3f3d f1e7 ffbd
00000060: 37e2 94bd 58cd f2bc cccc 99bd 3d1b dcbd
00000070: b6ca 983e e92a bfbd c523 0dbe 497e 99bc
-0.050367035 -0.16264473 0.056652304 -0.12412371 0.05230196 0.11645713 -0.07200735 -0.136789
0.051006235 0.030139908 -0.13086781 -0.044591695 -0.12038927 -0.07130829 0.0040496015 0.011001635
0.13402875 -0.16513379 -0.1417863 -0.038895205 -0.04296975 -0.06756434 0.04683647 -0.12495411
-0.072697096 -0.029638931 -0.07509765 -0.10747383 0.29842156 -0.09334356 -0.13783176 -0.018736975

weight f4 [1, 32]
00000000: 0fa5 e8bd 99fa c0bb cfa0 03bc cc1e 28bd
00000010: 6f8a 633c 944c db3d bdd0 06bd 31b4 84bd
00000020: 7770 8bba c81e 84bd c0d3 f13c 69bd 603d
00000030: 93d4 4e3d ec15 5f3d 390b bc3d a71b a7bd
00000040: 26e1 8fbd 4d87 47bb 9de9 c7bd cf7f 8b3d
00000050: 27c4 90bd dbac 503c b890 493e 3bc8 ed3d
00000060: 9b6c 053c 8022 e63b bfda a63e 7872 15bd
00000070: cf91 e63d 5a54 073c 6134 05bd 58f1 b2bd
-0.113596074 -0.0058892486 -0.008033945 -0.041044995 0.013887986 0.107079655 -0.032913912 -0.06479681
-0.0010638376 -0.064511836 0.029519916 0.054868136 0.050495695 0.054464266 0.09181828 -0.08159571
-0.070253655 -0.0030445636 -0.09761355 0.06811487 -0.07068663 0.012736524 0.19684112 0.116104566
0.008143569 0.0070231557 0.32588765 -0.03648612 0.112582795 0.008259857 -0.032520656 -0.08737439
