covid_forecasting/cumulative/best_models/anfis.pth (torch, 2697 bytes, 4 tensors)

memberships.0.mu f4 [5]
00000000: 1ecb 28b7 f32e ebba a878 02bd d003 ba3c
00000010: 0d87 579d
-1.0060872e-05 -0.0017943069 -0.031853348 0.022706896 -2.8524833e-21

memberships.0.sigma f4 [5]
00000000: 36cb 593e 97e5 7b3e ecf6 533e ac5a 89a2
00000010: a5ba 14a0
0.21268925 0.245993 0.20699662 -3.7229927e-18 -1.2597843e-19

consequents.linear.weight f4 [5, 1]
00000000: ed41 803f ac51 7a3f 9e66 763f ea4e 0480
00000010: 366d 4238
1.0020119 0.9778087 0.9625033 -3.95651e-40 4.6354915e-05

consequents.linear.bias f4 [5]
00000000: d543 663b b87e e83c 00bc 8dbc 8a61 1286
00000010: 5b2c 6cbd
0.0035135646 0.028380737 -0.01730156 -2.7531208e-35 -0.05765949
