covid_forecasting/cumulative/best_models/bigru.pth (torch, 341029 bytes, 9 tensors)

gru.weight_ih_l0 f4 [351, 1]
0	0xbcb7abc4	-0.022420771
1	0xbc930619	-0.017947244
2	0x3c12bb43	0.0089557795
3	0xbd1466ce	-0.036230855
4	0x3e57eceb	0.21086471
5	0x3d4398cb	0.047753137
6	0xbdd22031	-0.10260046
7	0xbe577d6e	-0.21043941
8	0xbd35c0ea	-0.04437343
9	0x3b6cbadd	0.0036122121
10	0xbdf2dbe8	-0.1185835
11	0xbc1e92d2	-0.009678559
12	0xbd4b9a09	-0.049707446
13	0xbe030164	-0.12793499
14	0xbc73bef6	-0.014877072
15	0x3d63533f	0.05549931
16	0xbe5339bf	-0.20627497
17	0xbd514973	-0.051095437
18	0x3c877aa1	0.016537966
19	0xbd4d5273	-0.050127458
20	0xbd64ad17	-0.055829134
21	0x3d2189d7	0.039438095
22	0xbe6012ee	-0.21882221
23	0xbdd89195	-0.105746426
24	0x3d494204	0.049135223
25	0xbde7d3a2	-0.11319663
26	0xbca1cdb1	-0.019751402
27	0x3cee165c	0.029063396
28	0xbe004510	-0.12526345
29	0xbb04bd08	-0.0020254273
30	0x3d0e4cd4	0.034741238
31	0xbe2a5c30	-0.16636729
32	0xbddad41f	-0.1068499
33	0xbdc33317	-0.09531229
34	0xbd8225f5	-0.06354896
35	0x3c6eafc5	0.014568274
36	0xbe557cbe	-0.20848367
37	0x3cbdea9a	0.023183156
38	0x3cd1744f	0.025568156
39	0xbd889843	-0.066696666
40	0x3af5760e	0.00187272
41	0xbe1b1bb2	-0.15147284
42	0xbd096f21	-0.033553246
43	0x3d8bf049	0.0683294
44	0x3d5347d9	0.05158219
45	0xbdaf5044	-0.08560231
46	0x3db9d0ab	0.090730034
47	0x3d100b27	0.035166886
48	0xbe07d046	-0.13263044
49	0x3f0db9a0	0.55361366
50	0x3c647ec5	0.01394624
51	0x3d59f353	0.053210568
52	0xbd084697	-0.033270445
53	0xbe1b7ccf	-0.1518433
54	0x3d96538f	0.07340156
55	0x3d09f71b	0.033682924
56	0xbdee4d82	-0.11635877
57	0xbc807027	-0.015678478
58	0x3dbf52b4	0.09341946
59	0xbd58d270	-0.052935064
60	0x3d61bb3a	0.055110194
61	0xbdeaf160	-0.1147182
62	0xbc327574	-0.010892261
63	0xbe16bed7	-0.14721237
64	0xbda4323a	-0.080173925
65	0xbdb9cdbd	-0.090724446
66	0xbc0e873e	-0.008699236
67	0xbe081690	-0.13289857
68	0xbe3c353f	-0.18379687
69	0xbdde8100	-0.108644485
70	0xbd363150	-0.04448062
71	0x3d901f0b	0.07037171
72	0xbc288d49	-0.010287591
73	0xbdcf636e	-0.101263866
74	0xbe830bcc	-0.25594938
75	0xbbe05364	-0.0068458784
76	0x3d2c4459	0.04205737
77	0x3d8185f1	0.063243754
78	0xbdf70222	-0.12060954
79	0xbd4148eb	-0.04718868
80	0xbe43d97c	-0.19125932
81	0xbe3fa105	-0.18713768
82	0xbd80710e	-0.062715635
83	0xbe604a87	-0.2190343
84	0xbd845b0f	-0.064626805
85	0x3e08fd42	0.1337786
86	0xbd35de8f	-0.0444017
87	0xbd905627	-0.07047682
88	0x3e1b5902	0.15170673
89	0x3d6237a4	0.055228844
90	0xbb4d335c	-0.003131113
91	0xbd31af54	-0.043380097
92	0xbdc969c1	-0.09834624
93	0x3d5ffabd	0.054682482
94	0x3c9fb512	0.01949552
95	0xbe8f0a41	-0.2793751
96	0xbdcf6842	-0.101273075
97	0xbd8105cb	-0.06299933
98	0x3e4a0a19	0.19730414
99	0xbe1bcb7a	-0.15214339
100	0xbe14cd50	-0.14531446
101	0xbd814e68	-0.06313783
102	0xbd9e787b	-0.077378236
103	0xbe02b789	-0.12765326
104	0x3c9814c1	0.018564584
105	0xbe1655c8	-0.1468116
106	0xbe9d4989	-0.30720165
107	0x3d8b72e4	0.06809023
108	0xbe4ce9c0	-0.20011044
109	0x3e1a60b0	0.15075946
110	0xbe22671f	-0.1585965
111	0xbd4a0c9e	-0.04932844
112	0xbe642606	-0.2228013
113	0x3dcf9678	0.101361215
114	0xbe20b6c5	-0.15694721
115	0xbd9b1356	-0.075720474
116	0xbe1ffab8	-0.15622985
117	0x3d6b70fd	0.0574808
118	0xbeb992a3	-0.36244687
119	0xbef9b76c	-0.48772752
120	0x3de13208	0.10995871
121	0x3cd4660b	0.025927564
122	0x3df761f2	0.120792285
123	0x3df010d2	0.11721958
124	0x3c0b8f49	0.008518049
125	0x3e35c1d8	0.17749727
126	0xbf999619	-1.1998931
127	0x3e7553f9	0.23957814
128	0x3d89cb54	0.06728235
129	0x3e76867e	0.24074742
130	0x3e431f63	0.19054942
131	0x3e03cd20	0.12871218
132	0xbdbe75f2	-0.0929984
133	0x3e631750	0.22176862
134	0x3d39b1df	0.045335647
135	0x3e8b26ed	0.27178136
136	0x3e1a4f65	0.15069349
137	0x3e04e687	0.12978564
138	0x3e90b4ad	0.28262845
139	0x3ef68e2c	0.48155344
140	0xbe4b23db	-0.19837897
141	0x3d7c810d	0.06164651
142	0x3e27699c	0.1634888
143	0xbe158064	-0.14599758
144	0x3d6adb3d	0.05733799
145	0xbb331614	-0.0027326392
146	0xbda4770a	-0.080305174
147	0x3e0c8a35	0.13724597
148	0x3d048311	0.032351557
149	0xbf071f83	-0.5278246
150	0x3c9b0787	0.018924488
151	0x3d5240e6	0.051331423
152	0x3d6da006	0.05801394
153	0x3e8b4762	0.27202898
154	0xbe942113	-0.28931484
155	0xbedaa94d	-0.4270729
156	0x3ea7d1ba	0.32777196
157	0xbcfed979	-0.031109558
158	0xbce290b0	-0.027656883
159	0x3d673154	0.056443527
160	0x3d84204f	0.06451475
161	0x3e8993dd	0.26870623
162	0x3e2012df	0.15632199
163	0x3e28320d	0.16425343
164	0x3edcf619	0.43156508
165	0xbddd1eb7	-0.10796874
166	0xbd412607	-0.047155406
167	0x3e16c93c	0.14725202
168	0x3e456b08	0.1927911
169	0x3cd84a8d	0.026402736
170	0x3d5c36df	0.053763267
171	0xbe975cea	-0.29563075
172	0x3e8f891f	0.28034303
173	0x3da34c46	0.079735324
174	0x3da294b7	0.07938521
175	0x3e137a27	0.14402066
176	0xbd7819d0	-0.06057149
177	0xbf24316d	-0.6413792
178	0x3c422779	0.011850231
179	0x3dfd10b8	0.123567045
180	0x3e8ca441	0.27469066
181	0x3e82e4f3	0.255653
182	0xbd96906c	-0.07351765
183	0x3e2cfbb3	0.1689289
184	0x3d14d90c	0.036339805
185	0xbee177f4	-0.4403683
186	0x3dd7e1ec	0.10541138
187	0xbeca4153	-0.39502963
188	0x3e06fde1	0.13182785
189	0xbd2589c8	-0.0404146
190	0x3df1d67a	0.11808486
191	0xbdb9c396	-0.09070508
192	0xbeb0ed48	-0.3455603
193	0x3e28093e	0.16409776
194	0x3eb091cc	0.34486234
195	0xbdc34eb2	-0.09536494
196	0x3e848294	0.25880873
197	0x3d8e64f4	0.06952849
198	0xbcfa99de	-0.030590948
199	0xbde31cf7	-0.11089509
200	0xbe0a4a27	-0.1350485
201	0xbbbce745	-0.005764874
202	0xbf7226bb	-0.9459035
203	0xbd1d616f	-0.038422998
204	0xbd871d2b	-0.0659736
205	0x3ea317cd	0.31854096
206	0xbd4b9818	-0.049705595
207	0xbcf38dfb	-0.029730788
208	0xbc16963c	-0.009191092
209	0x3bbc076c	0.0057381894
210	0xbcc74836	-0.024326425
211	0x3e691e54	0.22765476
212	0xbed6e81c	-0.4197396
213	0xbdc78db2	-0.09743823
214	0x3da7030e	0.081548795
215	0xbea8483f	-0.3286762
216	0x3d30bf0a	0.04315094
217	0x3e4cd641	0.20003606
218	0xbec1d168	-0.37855077
219	0x3dd00f7b	0.10159203
220	0xbf59257f	-0.8482284
221	0x3e21c32f	0.15797113
222	0xbd876f76	-0.06613056
223	0xbe5bf1b7	-0.21478926
224	0xbf0bd5be	-0.5462302
225	0xbe91aaf1	-0.2845073
226	0x3de19b2b	0.11015924
227	0x3cdc3960	0.026882827
228	0xbdc18fce	-0.09451257
229	0x3db2c934	0.08729783
230	0xbd75b0c7	-0.05998304
231	0xbdb17b9f	-0.08666157
232	0xbd00b718	-0.03142461
233	0xbd9f7f5b	-0.07787963
234	0xbdf097f2	-0.11747731
235	0x3e300422	0.17189077
236	0xbe3bfcb3	-0.18358116
237	0x3dd74248	0.10510689
238	0xbeb7097a	-0.35749418
239	0xbd0b9551	-0.034077946
240	0x3ccc4128	0.024933413
241	0x3e675100	0.22589493
242	0x3d46b1f4	0.048509553
243	0x3eb03e7c	0.34422672
244	0x3df9c79b	0.12196275
245	0xbe16c39c	-0.14723057
246	0xbe02f0d4	-0.12787181
247	0xbd2c3bc1	-0.042049173
248	0xbe1f3ff2	-0.15551737
249	0x3e00a436	0.12562642
250	0xbdb467a8	-0.08808833
251	0xbe3b2bea	-0.1827847
252	0x3c3242a5	0.010880147
253	0xbda95e46	-0.08269934
254	0xbda57b01	-0.08080102
255	0xbd826f23	-0.06368854

gru.weight_hh_l0 f4 [351, 117]
0	0x3d9a30dc	0.075288504
1	0x3c175774	0.009237159
2	0xbc99eb66	-0.018789005
3	0x3c9abe41	0.018889548
4	0x3d17b515	0.037037928
5	0x3caffead	0.021483744
6	0x3c643393	0.013928312
7	0xbd30f764	-0.04320468
8	0xbd06f0ac	-0.032944366
9	0xbd9bba86	-0.07603936
10	0xbcf9d992	-0.030499253
11	0x3cb97501	0.0226388
12	0xbcefbbe1	-0.029264392
13	0xbc2631c2	-0.010143699
14	0x3dba527f	0.09097766
15	0x3d1a8c22	0.037731297
16	0xbd94ee1c	-0.07271978
17	0xbc632357	-0.013863406
18	0x3d50f3ab	0.05101363
19	0xbd93e5aa	-0.07221539
20	0x3d48973b	0.04897235
21	0xbdef8da3	-0.11696937
22	0xbccb9dd5	-0.024855534
23	0x3d7686fc	0.060187325
24	0xbd1144d9	-0.03546605
25	0x3c1dde81	0.009635569
26	0x3d98fcd1	0.07470096
27	0x3b251455	0.002518912
28	0xbd9b2ab0	-0.07576501
29	0xbdb4e0e8	-0.0883196
30	0x3cb2bc8d	0.021818424
31	0xbdb225a0	-0.08698583
32	0x3d8fe2d1	0.07025684
33	0x3d61c56f	0.055119928
34	0x3d8fd4d0	0.07023013
35	0x3d808d80	0.06276989
36	0xbd22e9a4	-0.0397736
37	0x3d4979d9	0.04918847
38	0xbddf8666	-0.10914306
39	0x3d91eb1b	0.07124921
40	0x3c288cc5	0.010287468
41	0xbbdf583f	-0.0068159397
42	0xbd0cabf1	-0.034343664
43	0xbc5c9124	-0.013462339
44	0x3de228c3	0.11042931
45	0xbd8bab68	-0.068198025
46	0xbdda277f	-0.106520645
47	0xbd26f712	-0.04076297
48	0xbcfc9a05	-0.030835161
49	0xbdabe3ec	-0.08393082
50	0xbbcccb09	-0.0062497896
51	0x3d61e66a	0.05515138
52	0x3d5f61b7	0.054536548
53	0x3d8caf1c	0.06869337
54	0xbd340771	-0.04395241
55	0xbcd21994	-0.025646962
56	0x3ddfb477	0.10923093
57	0x3d826ef2	0.063688174
58	0xbd556dda	-0.052106716
59	0xbd4ee5cc	-0.05051212
60	0x3d201a58	0.039087623
61	0xbda8b845	-0.082382716
62	0xbd79b551	-0.060963932
63	0x3d48f5ba	0.049062468
64	0xbbb0646d	-0.0053830654
65	0x3d6a158c	0.057149455
66	0x3d9aee1b	0.07564946
67	0xbc732e15	-0.01484253
68	0xbd984283	-0.07434561
69	0xbd14c7bb	-0.03632329
70	0xbd81cb06	-0.06337552
71	0xbd8e2061	-0.069397695
72	0x3cbda880	0.023151636
73	0xbd1046cf	-0.03522378
74	0x3d15eef3	0.036604833
75	0x3dedbcaa	0.116082504
76	0xbcf88529	-0.030336933
77	0xbd50e14f	-0.05099612
78	0xbd8a9d52	-0.06768288
79	0xbda28d80	-0.07937145
80	0xbce32479	-0.027727352
81	0x3d7c48f5	0.061593015
82	0xbc97a2c0	-0.018510222
83	0xbd63ff30	-0.055663288
84	0xbdba4bf7	-0.090965204
85	0x3c7889e1	0.015169592
86	0x3d8eb866	0.06968765
87	0xbd6329a9	-0.055459652
88	0xbdd39ce1	-0.10332657
89	0x3dc3ceeb	0.09560951
90	0xbd49390b	-0.049126666
91	0x3dc510fd	0.09622381
92	0xbdb35bc4	-0.08757737
93	0x3dc31008	0.09524542
94	0x3c3252f5	0.010884036
95	0xbe09324b	-0.13398091
96	0x3d6c9789	0.057761703
97	0x3d0a0881	0.033699516
98	0xbdbab104	-0.09115794
99	0xbdaa68da	-0.0832078
100	0xbc8c6c25	-0.017141411
101	0x3db4b517	0.08823603
102	0xbd1f440b	-0.03888325
103	0x3d4b3906	0.04961493
104	0x3b6a6952	0.0035768342
105	0x3ca4c624	0.020114012
106	0xbc8a8759	-0.016910242
107	0x3c96fd88	0.01843144
108	0xbd06a1db	-0.0328692
109	0x3dfe9918	0.12431544
110	0x3d37212a	0.044709362
111	0x3d549a8c	0.0519052
112	0x3c385477	0.011250607
113	0xbd0ca074	-0.034332708
114	0xbd46c0ad	-0.048523594
115	0x3d551109	0.0520182
116	0x3d95ebf2	0.073203936
117	0x3d9bafbe	0.076018795
118	0xb970e60d	-0.00022973884
119	0xbc1a51c5	-0.009418909
120	0x3da15fa0	0.07879567
121	0xbd9f919b	-0.07791444
122	0x3c993690	0.018702775
123	0x3d491deb	0.049100798
124	0xbb7ba83c	-0.0038399836
125	0x3dab4d88	0.08364397
126	0xbe0134a2	-0.12617734
127	0xbdaddea7	-0.08489733
128	0xbd741d70	-0.059598386
129	0xbdb0de45	-0.086361445
130	0x3da9fd76	0.08300297
131	0xbd20837b	-0.03918789
132	0xbdfb130e	-0.12259494
133	0x3da25d5a	0.07927962
134	0xbdc0b2fc	-0.094091386
135	0x3cf993cb	0.030465981
136	0xbc7b678d	-0.015344513
137	0xbcd6b837	-0.026210887
138	0x3d2a38e8	0.041558176
139	0x3d3bfe04	0.045896545
140	0xbd0a984a	-0.03383664
141	0x3cf2ef80	0.029655218
142	0xbdaf1b4a	-0.08550127
143	0xbc4b4fa3	-0.012409124
144	0x3c902f70	0.017600745
145	0xbdaf6db5	-0.08565847
146	0xbe28dabc	-0.1648969
147	0x3d92f326	0.07175283
148	0x3d7af6e4	0.06127061
149	0x3e5f3c8d	0.21800442
150	0x3dcf1913	0.101122044
151	0x3d8db6d7	0.069196396
152	0xbcb04acc	-0.02152004
153	0xbdbfa70c	-0.093580335
154	0xbe01f4d1	-0.12691046
155	0x3d53a488	0.05167058
156	0xbda668e7	-0.08125477
157	0x3e009115	0.12555344
158	0xbda4eea8	-0.080533326
159	0xbcb79345	-0.02240909
160	0x3cbb876c	0.022891723
161	0x3d284b65	0.041087527
162	0xbd10d251	-0.035356823
163	0xbbde75dc	-0.0067889523
164	0xbd38e18d	-0.045136977
165	0xbc12b142	-0.008953394
166	0x3dba3e76	0.09093945
167	0xbe44b14c	-0.19208258
168	0x3d93b372	0.07211961
169	0xbdd4c14d	-0.10388432
170	0xbcd706ec	-0.026248418
171	0xbe07f705	-0.13277824
172	0xbd760e68	-0.060072333
173	0xbd74bf56	-0.059752785
174	0x3cd967e2	0.026538793
175	0x3d6d9873	0.058006715
176	0x3d5858a6	0.052818917
177	0x3df04b18	0.11733073
178	0xbd13836a	-0.036013998
179	0xbe4d4830	-0.20047069
180	0x3acfa634	0.0015842379
181	0x3daba2c5	0.08380655
182	0x3e0f655d	0.14003511
183	0xbda89979	-0.082323976
184	0xbb3dd2b7	-0.0028964707
185	0xbdd526e2	-0.10407807
186	0x3d3b58a9	0.04573885
187	0xbe10e464	-0.14149624
188	0xbddc7c84	-0.10765937
189	0x3d2ecd4b	0.04267625
190	0xbdac9fac	-0.084288925
191	0x3c8aebb8	0.016958103
192	0x3d0dffcc	0.034667775
193	0xbda19ff7	-0.07891839
194	0xbdaf2456	-0.085518524
195	0x3dac48d3	0.084123276
196	0xbe0ec53d	-0.13942428
197	0x3d8192ba	0.06326814
198	0x3cf537d8	0.029933855
199	0xbe1c0252	-0.1523526
200	0x3d4f5ceb	0.050625723
201	0x3d1a57a6	0.037681244
202	0xbd35ffc2	-0.044433363
203	0x3dc79513	0.097452305
204	0xbd8149c0	-0.06312895
205	0xbd427835	-0.04747792
206	0x3db437e3	0.08799722
207	0x3c9b97f4	0.018993355
208	0x3cb98d37	0.022650344
209	0x3cbfbd35	0.02340565
210	0x3d18456c	0.03717558
211	0x3e0485a7	0.1294161
212	0xbe0ec44d	-0.1394207
213	0xbc9e879b	-0.019351771
214	0x3da04277	0.07825177
215	0xbac0d448	-0.0014711702
216	0xbdac51ed	-0.084140636
217	0x3d11da98	0.035608858
218	0x3db1e058	0.08685368
219	0xbc9d7ebc	-0.01922547
220	0x3e447e4c	0.19188803
221	0x3ce506a1	0.027957262
222	0x3a3481dd	0.0006885806
223	0x3df12571	0.117747195
224	0x3e013dc3	0.12621216
225	0xbe199111	-0.14996745
226	0x3cc24413	0.023714101
227	0x3d920e48	0.0713163
228	0xbd4030d7	-0.046921577
229	0x3d84352d	0.06455455
230	0x3dfe64a0	0.124215364
231	0x3e1e1fc0	0.15441799
232	0x3cbf6942	0.02336562
233	0xbc777be9	-0.015105226
234	0x3d810988	0.06300646
235	0x3d3d4dfe	0.046216957
236	0x3d772af3	0.060343694
237	0x3e0ea2fa	0.13929358
238	0x3db5c1d8	0.088748634
239	0xbd117052	-0.035507508
240	0x3bfa9bb7	0.007647957
241	0x3de506fd	0.111829735
242	0xbd9638e3	-0.07335069
243	0xbdddbe6b	-0.10827335
244	0xbd02329f	-0.031786557
245	0x3d0cf30b	0.03441147
246	0xbca81468	-0.020517543
247	0x3dc38f90	0.09548867
248	0xbcb66daf	-0.022269098
249	0xbe2bc5dc	-0.16774696
250	0x3cbb9d79	0.022902237
251	0xbc073214	-0.008251686
252	0x3d3d6c61	0.046245936
253	0xbd8e42bc	-0.06946322
254	0x3d3a43b0	0.045474708
255	0x3ca1c41c	0.019746833

gru.bias_ih_l0 f4 [351]
0	0xbdb75549	-0.08951814
1	0xbe468f63	-0.19390635
2	0xbe07ccbd	-0.13261695
3	0xbe6113d5	-0.21980222
4	0xbdad8a2f	-0.08473622
5	0xbdc2c040	-0.09509325
6	0xbce68456	-0.028139275
7	0xbe550e63	-0.2080627
8	0xbda4cc63	-0.08046796
9	0xbe886ae8	-0.26644063
10	0xbe197dc4	-0.14989382
11	0xbe0eda49	-0.13950457
12	0xbc7a9efe	-0.015296696
13	0xbe0b7bb4	-0.13621408
14	0xbdd8cea3	-0.10586288
15	0xbdce88ae	-0.10084663
16	0xbdae6040	-0.08514452
17	0xbe29be04	-0.16576391
18	0xbdd0b62c	-0.101909965
19	0xbcabd7ac	-0.020976864
20	0xbdcbb478	-0.09946531
21	0xbd932aef	-0.07185923
22	0xbe39abfc	-0.18132013
23	0xbd9e5710	-0.077314496
24	0xbdf0ecfa	-0.1176395
25	0xbe05e79b	-0.13076632
26	0xbdb59581	-0.08866406
27	0xbda68036	-0.08129923
28	0x3d936256	0.071964905
29	0xbe36454f	-0.17799877
30	0xbe0bfb0c	-0.13669986
31	0x3d907f72	0.07055558
32	0xbd6d71d6	-0.05796989
33	0xbe2d2830	-0.16909862
34	0x3b8e412f	0.0043412666
35	0xbe2be00a	-0.16784683
36	0xbd22d5f8	-0.039754838
37	0xbdd5089f	-0.10402035
38	0xbd59d8b8	-0.053185195
39	0xbc3a852f	-0.0113842925
40	0xbe3fa0cb	-0.18713681
41	0xbceed3b9	-0.029153692
42	0xbe0f7278	-0.1400851
43	0xbd929ebc	-0.071591824
44	0xbdc4f41a	-0.09616871
45	0xbccf2cc1	-0.025289895
46	0xbe05774e	-0.13033792
47	0xbdaba7f3	-0.08381643
48	0xbda19f54	-0.078917176
49	0xbe625998	-0.2210449
50	0xbe59700a	-0.21234146
51	0xbc5fa5c3	-0.0136503605
52	0x3c41db9b	0.011832143
53	0xbd49eab5	-0.0492961
54	0xbe5aa585	-0.21352203
55	0xbd0b0667	-0.033941653
56	0xbe10f78d	-0.14156933
57	0xbdedb614	-0.11606994
58	0x3acb7158	0.001552145
59	0xbe028467	-0.1274582
60	0xbcdd4eae	-0.027015056
61	0xbd8375b7	-0.06418937
62	0xbdf2f899	-0.118638225
63	0xbd32433a	-0.043521143
64	0x3b332606	0.0027335896
65	0xbe5fd400	-0.21858215
66	0xbe3a0c9b	-0.18168871
67	0xbb2b5868	-0.0026145224
68	0xbc22b4eb	-0.0099308295
69	0xbcf330cf	-0.02968636
70	0xbcfef318	-0.031121776
71	0xbe6256c7	-0.22103415
72	0xbe6f3ee6	-0.23363838
73	0xbde50d11	-0.11184133
74	0xbe4d3013	-0.2003787
75	0xbdf5494e	-0.119768724
76	0xbc9149d6	-0.017735403
77	0xbc801e1d	-0.01563936
78	0xbd729167	-0.059220698
79	0xbe62d820	-0.22152758
80	0xbcb2f216	-0.021843951
81	0xbdb693e7	-0.08914929
82	0xbe697736	-0.22799382
83	0xbd95e038	-0.07318157
84	0xbdec9eb5	-0.115537085
85	0xbdbc6140	-0.091982365
86	0x3cdc72c2	0.02691019
87	0xbca11254	-0.01966206
88	0x3e0437e3	0.12911944
89	0xbe25a0af	-0.16174577
90	0xbe01f8f1	-0.1269262
91	0xbe0a80e0	-0.13525724
92	0x3cccf901	0.025021078
93	0xbd5320fc	-0.05154513
94	0xbde6a692	-0.112622395
95	0xbcd7c665	-0.02633972
96	0x3cacc5df	0.021090446
97	0xbd5a79b9	-0.05333874
98	0xbc4dabcc	-0.012553167
99	0xbdd02476	-0.10163204
100	0xbd9a7048	-0.07540947
101	0xbeddd2b4	-0.43324816
102	0xbdc22c17	-0.09481066
103	0x3ac2dbd0	0.0014866535
104	0xbdd9b26f	-0.10629737
105	0x3c833e1c	0.016020827
106	0xbdb07876	-0.08616726
107	0xbe216a7a	-0.15763274
108	0xbd796def	-0.060895856
109	0xbdfef63b	-0.124493085
110	0xbe986f34	-0.2977234
111	0xbe47d6aa	-0.19515482
112	0xbe4b7bd3	-0.19871454
113	0xbe23041e	-0.1591954
114	0xbd9bfc61	-0.07616497
115	0xbdec7c7f	-0.11547183
116	0xbd9d9a4c	-0.076954454
117	0xbc576b27	-0.013148106
118	0x3daf3002	0.08554079
119	0xbef4f3c9	-0.47842243
120	0x3ea44f6a	0.32091838
121	0xbf3800c8	-0.7187619
122	0x3e940565	0.28910366
123	0x3ea2bfca	0.31786948
124	0x3d85f5c8	0.0654102
125	0x3e933452	0.28750855
126	0xbf3d93f4	-0.74053884
127	0x3e197fbe	0.14990136
128	0x3e6e6226	0.23279628
129	0x3e5ba566	0.21449813
130	0x3e82a03c	0.25512874
131	0x3e7aba54	0.24485141
132	0xbe8d8e73	-0.27647743
133	0x3e2d7bb2	0.16941717
134	0x3dfb7c58	0.12279576
135	0x3eb152ed	0.3463358
136	0x3e91d90f	0.28485915
137	0x3e9ff317	0.3124015
138	0x3ea82247	0.32838652
139	0x3eea1e6e	0.4572634
140	0x3e137f1a	0.14403954
141	0x3e87d1e1	0.26527312
142	0x3d908af0	0.0705775
143	0xbe52a634	-0.20571214
144	0x3e8350a2	0.25647455
145	0xbeb4533a	-0.35219747
146	0x3d6fc8e9	0.058541212
147	0x3e276c7b	0.16349976
148	0x3c8c6bb5	0.017141202
149	0xbec80734	-0.39067996
150	0x3e344458	0.17604196
151	0x3e8c7e3e	0.27440065
152	0x3e84d1ac	0.25941217
153	0x3eb1187f	0.34589002
154	0xbee47e3b	-0.44627556
155	0xbed61b92	-0.4181791
156	0x3dfc22c9	0.12311322
157	0xbd9a438b	-0.07532414
158	0x3e44a8c3	0.19205002
159	0x3de94475	0.1139001
160	0x3e7982e8	0.24366343
161	0xbe066d5d	-0.13127656
162	0x3e79c8fc	0.24393076
163	0x3e929459	0.28628805
164	0x3eb2d5c7	0.34928724
165	0xbe160775	-0.14651282
166	0xbcb67b39	-0.022275554
167	0x3e39b04f	0.18133663
168	0x3e831b81	0.2560692
169	0x3e84adc9	0.25913838
170	0x3e308a25	0.17240198
171	0xbee69202	-0.4503327
172	0x3e96fae1	0.2948828
173	0x3e10712b	0.1410567
174	0x3ea54906	0.32282275
175	0x3e680f98	0.22662199
176	0x3de2e45d	0.11078713
177	0xbccc8e90	-0.024970323
178	0xbf2ff333	-0.6873047
179	0x3e5296e0	0.20565367
180	0x3ecb058f	0.39652678
181	0x3e8d5b75	0.2760884
182	0x3c96007e	0.018310782
183	0x3e8d6e21	0.27623084
184	0xbdb23592	-0.08701624
185	0xbe70ec16	-0.2352756
186	0x3eb5cd29	0.35508087
187	0xbf5b980e	-0.8577889
188	0x3e5a45f7	0.21315752
189	0x3db9482d	0.090469696
190	0x3e77cb62	0.24198678
191	0xbe4a2b9b	-0.19743197
192	0xbd140579	-0.03613803
193	0x3e8319be	0.25605577
194	0x3ca06571	0.019579621
195	0xbe160836	-0.1465157
196	0x3ec4cc53	0.38437137
197	0x3e90d3bd	0.28286543
198	0xbd50889a	-0.050911523
199	0x3d8774c2	0.06614067
200	0xbbc10db2	-0.005891525
201	0x3dfbe618	0.12299746
202	0xbf7f616b	-0.99758023
203	0x3e7506a2	0.23928311
204	0x3e07bd51	0.13255812
205	0x3eba7535	0.36417547
206	0xbe8c418a	-0.27393752
207	0x3e1e99ab	0.15488307
208	0x3d1a9c6f	0.037746843
209	0x3e31c020	0.17358446
210	0x3d07f142	0.033189066
211	0x3e9ab40b	0.30215487
212	0xbf2901c7	-0.66018337
213	0xbedb316e	-0.4281115
214	0x3ee217a8	0.44158673
215	0xbee62a97	-0.44954368
216	0x3cfe45ec	0.0310392
217	0x3ed5b43b	0.41739067
218	0xbde9154b	-0.113810144
219	0x3e40daa2	0.18833402
220	0xbfa3e841	-1.2805253
221	0x3ea180ae	0.31543487
222	0x3e33f6ad	0.17574568
223	0xbe018afb	-0.12650673
224	0xbe733d9e	-0.23753974
225	0xbf3dee24	-0.741915
226	0x3e4cdd03	0.20006184
227	0xbd9341e0	-0.07190299
228	0x3d85c8c0	0.06532431
229	0xbcfabb7d	-0.03060698
230	0xbed89544	-0.4230138
231	0xbd8ea991	-0.06965936
232	0x3e22cee5	0.15899237
233	0x3e55ef36	0.20892033
234	0xbc1c28e6	-0.009531235
235	0xbaf2ac8d	-0.0018514559
236	0x3c47f871	0.012205229
237	0xbba74a61	-0.005105302
238	0x3d06258a	0.032750644
239	0xbc1ee4a2	-0.009698065
240	0xbcc121bf	-0.023575662
241	0xbb8fb541	-0.004385621
242	0x3c145b62	0.0090549905
243	0x3d378323	0.044802796
244	0x3cce9b85	0.025220642
245	0x3d11ca4b	0.035593312
246	0x3cfcc1c2	0.03085411
247	0x3ba311f7	0.004976507
248	0xbc0285aa	-0.007966438
249	0xbd1b4b8f	-0.037913855
250	0xbd100548	-0.035161287
251	0x3cd40bff	0.025884626
252	0x3c15ab91	0.009135143
253	0x3c08a27a	0.008339519
254	0x3ccd1e3c	0.025038831
255	0xbb48e479	-0.0030653758

gru.bias_hh_l0 f4 [351]
0	0xbde5b0c0	-0.11215353
1	0xbe5c0378	-0.21485698
2	0xbdca9426	-0.09891538
3	0xbdc56c4a	-0.09639795
4	0xbce2098f	-0.027592449
5	0xbde8c0a2	-0.11364867
6	0xbcb48531	-0.022036167
7	0xbe152bb1	-0.14567448
8	0xbdfd915c	-0.12381241
9	0xbe205efb	-0.15661232
10	0xbd9383b4	-0.07202855
11	0xbc9b06ee	-0.018924203
12	0xbc0b6287	-0.0085073775
13	0xbd33599c	-0.04378663
14	0xbd85a531	-0.065256484
15	0x3ce727a0	0.028217137
16	0xbc24ec91	-0.010066167
17	0xbe06ca94	-0.13163215
18	0xbe273248	-0.16327775
19	0xbdfa7a7b	-0.122303925
20	0xbca39412	-0.019968066
21	0xbe60aee1	-0.21941711
22	0xbe004a3c	-0.12528318
23	0xbcd5a022	-0.026077334
24	0xbe2624b3	-0.16224937
25	0x3c766596	0.015038868
26	0xbd2ae286	-0.041719936
27	0xbe38ce5f	-0.18047474
28	0xbd8eca23	-0.06972148
29	0xbe6f01d2	-0.23340538
30	0xbd0ced8d	-0.034406234
31	0x3d2cf3d8	0.042224735
32	0xbe2b13de	-0.16706797
33	0xbe544c21	-0.20732166
34	0xbe15ad23	-0.14616828
35	0xbca67105	-0.020317564
36	0xbdc1e80e	-0.09468089
37	0xbd2c75d1	-0.042104546
38	0xbd830384	-0.06397155
39	0x3d0bcbd0	0.034129918
40	0xbe014959	-0.12625636
41	0xbd82f63f	-0.06394624
42	0xbd8a2ca1	-0.067467935
43	0xbda5d937	-0.08098071
44	0xbd8df199	-0.06930847
45	0x3c39e9c2	0.011347236
46	0xbc881131	-0.01660976
47	0xbde60291	-0.11230958
48	0xbe255a5d	-0.16147752
49	0xbde4cec4	-0.1117225
50	0xbe257e24	-0.161614
51	0xbe1362bd	-0.14393134
52	0xbd6f27f2	-0.058387704
53	0xbcf23c7c	-0.029569857
54	0xbe1acaa9	-0.15116371
55	0xbdda2292	-0.10651125
56	0xbe3e0a47	-0.18558608
57	0xbd4727f3	-0.048622083
58	0xbc1818c2	-0.0092832465
59	0xbdecd6c3	-0.115644
60	0xbdb6f757	-0.08933895
61	0xbd8de726	-0.06928854
62	0xbde79b51	-0.11308921
63	0xbd825185	-0.06363205
64	0xbd82a062	-0.06378247
65	0xbec874ef	-0.39151713
66	0xbd8bae69	-0.068203755
67	0xbd455da3	-0.048185002
68	0xbdae8280	-0.08520985
69	0x3a7656ff	0.00093971187
70	0x3bdd9450	0.006762065
71	0xbe2821f2	-0.16419199
72	0xbe6728e3	-0.22574191
73	0xbd1c0ce8	-0.038098246
74	0xbe052a52	-0.13004425
75	0xbde20b39	-0.11037297
76	0xbdb80121	-0.0898459
77	0x3c309c0a	0.01077939
78	0xbdb491e8	-0.08816892
79	0xbe51827a	-0.20459929
80	0xbda0c178	-0.07849401
81	0xbd4a362b	-0.049368065
82	0xbe3049be	-0.1721563
83	0xbddc12be	-0.10745762
84	0xbe725972	-0.23666933
85	0xbd97fdcd	-0.074214555
86	0xbd8dd48b	-0.06925305
87	0x3d87f8fe	0.06639288
88	0x3d250263	0.04028548
89	0xbe339c2d	-0.17540045
90	0xbdc9a1c8	-0.098453104
91	0xbdd24d16	-0.10268609
92	0xbced2d3f	-0.02895224
93	0xbe2c0dbd	-0.16802116
94	0x3bc75137	0.0060826796
95	0xbe0bdd5e	-0.13658664
96	0xbd66973d	-0.056296576
97	0x3c368a08	0.011141308
98	0xbd8d2072	-0.06890954
99	0xbde07dfc	-0.109615296
100	0xbcf82a1e	-0.03029352
101	0xbed7c9de	-0.421462
102	0x3ceecad1	0.029149445
103	0xbc766c06	-0.015040403
104	0xbd707084	-0.058701053
105	0xbc8a97c4	-0.01691807
106	0xbe0fc4eb	-0.14039962
107	0xbe606d1e	-0.21916625
108	0xbe36e444	-0.17860514
109	0xbe391cf1	-0.18077447
110	0xbe79a2e2	-0.24378541
111	0xbe4dcfd4	-0.20098811
112	0xbdba3016	-0.09091203
113	0xbd04b434	-0.032398418
114	0xbe29a297	-0.1656593
115	0xbdc3d079	-0.095612474
116	0xbdab5dbc	-0.08367488
117	0x3e04b750	0.12960553
118	0x3db28f9b	0.08718797
119	0xbedb62db	-0.42848858
120	0x3e97925b	0.29603848
121	0xbf36068d	-0.71103746
122	0x3e82809d	0.2548875
123	0x3e975556	0.29557294
124	0x3de88f56	0.11355464
125	0x3ebb4a00	0.36579895
126	0xbf1adcae	-0.6049298
127	0x3e384cc5	0.17998035
128	0x3e08729a	0.13324967
129	0x3ea41f30	0.32055044
130	0x3eb5ef0e	0.35533947
131	0x3e73ddb8	0.23815048
132	0xbe8c823e	-0.27443117
133	0x3e3e48ad	0.18582411
134	0x3df340f2	0.11877622
135	0x3e9bc260	0.30421734
136	0x3e98cf61	0.29845718
137	0x3eb704b2	0.3574577
138	0x3eb3adc2	0.35093504
139	0x3ecacffc	0.39611804
140	0x3e0b4739	0.13601388
141	0x3e4aa3b2	0.19789007
142	0x3e328c73	0.1743639
143	0xbe3194bc	-0.17341894
144	0x3e974c38	0.29550338
145	0xbe85da19	-0.26142958
146	0xbdde961d	-0.108684756
147	0x3e0fa902	0.14029315
148	0xbc03bfd9	-0.0080413455
149	0xbf033963	-0.5125944
150	0x3e0869cf	0.13321613
151	0x3e466d65	0.19377668
152	0x3e947747	0.2899725
153	0x3e82e340	0.25564003
154	0xbeb6a4f8	-0.35672736
155	0xbec7cb88	-0.3902247
156	0x3e16e2a9	0.14734901
157	0xbdec9366	-0.115515515
158	0x3e718876	0.23587212
159	0x3dfdea88	0.12398249
160	0x3ebdbd8f	0.37058684
161	0xbdbe00c7	-0.09277492
162	0x3e54e695	0.20791085
163	0x3ed3ffd8	0.4140613
164	0x3ef1b3f1	0.47207597
165	0xbdd5ae94	-0.10433689
166	0xbde7519c	-0.11294863
167	0x3e269b6b	0.16270225
168	0x3eb2753f	0.34855077
169	0x3e7bb656	0.24581274
170	0x3e2da9f4	0.16959363
171	0xbf0b96b7	-0.5452685
172	0x3e608a19	0.2192768
173	0x3e523f40	0.2053194
174	0x3e437ff2	0.19091776
175	0x3e868bf2	0.26278645
176	0xbc63ade3	-0.013896438
177	0xbe1d4a47	-0.15360366
178	0xbf3a5491	-0.7278529
179	0x3e09edba	0.13469592
180	0x3edbff07	0.42968008
181	0x3e0b70bf	0.13617228
182	0xbcc800d8	-0.024414465
183	0x3e6a2cf4	0.22868711
184	0xbd79ba31	-0.06096858
185	0xbe9790ed	-0.29602757
186	0x3e9d6b8b	0.3074611
187	0xbf825ae2	-1.0183985
188	0x3e7c9a6b	0.24668281
189	0xbd9072ac	-0.07053122
190	0x3e4b7317	0.19868122
191	0xbe2937fc	-0.16525263
192	0xbd23cfab	-0.03999297
193	0x3e863f40	0.2622013
194	0xbb077e6e	-0.0020674723
195	0xbe0f4b0a	-0.13993469
196	0x3e94f38b	0.2909206
197	0x3e71dcda	0.23619404
198	0x3dbc6239	0.09198422
199	0x3db5316d	0.08847318
200	0x3d04d30b	0.03242783
201	0x3d87dd7f	0.06634044
202	0xbf8ed6ac	-1.1159263
203	0x3e75409f	0.23950432
204	0x3dcf8737	0.10133212
205	0x3e93fac3	0.28902254
206	0xbdfba648	-0.12287575
207	0x3e1356b7	0.14388548
208	0x3dac75e1	0.08420921
209	0x3e81ec3c	0.25375545
210	0x3dbc0c73	0.09182062
211	0x3e95ed45	0.29282585
212	0xbf22c818	-0.6358657
213	0xbf177b55	-0.59172565
214	0x3f011cf8	0.5043483
215	0xbedde238	-0.43336654
216	0x3e3e8d5c	0.18608612
217	0x3ef0f26e	0.4705996
218	0xbe0b788c	-0.13620204
219	0x3e9ae875	0.30255476
220	0xbf9380ee	-1.1523721
221	0x3e6a756f	0.2289636
222	0x3e89dd0b	0.26926455
223	0xbdd4cb36	-0.10390322
224	0xbe8da6c7	-0.27666304
225	0xbf3d0d7e	-0.7384871
226	0x3e1d903e	0.15387055
227	0xbdc0bb04	-0.094106704
228	0xbdaadc0a	-0.0834275
229	0xbb1df0e8	-0.002409989
230	0xbeee4ee2	-0.46544558
231	0xbda27c56	-0.079338714
232	0x3c1aad9d	0.009440807
233	0x3ec23ab3	0.3793541
234	0x3d1b339f	0.037891027
235	0x3c8b2c73	0.016988968
236	0xbcec40f1	-0.02883956
237	0xbd1b5661	-0.037924174
238	0x3cc00716	0.023440879
239	0x3d171e2d	0.036894012
240	0x3d31f1f7	0.043443646
241	0xbd0f80e4	-0.03503503
242	0xbc75ff1b	-0.015014435
243	0xbcb0f334	-0.021600343
244	0xbd825587	-0.06363969
245	0xbd819702	-0.063276306
246	0xbd7fd18e	-0.062455706
247	0x3bd17f92	0.0063933814
248	0x3c9e2edf	0.01930946
249	0x3d3304c0	0.0437057
250	0x3d94e572	0.07270326
251	0xbc57f7b6	-0.0131816175
252	0xbd161991	-0.036645476
253	0x3b4c940f	0.003121618
254	0xbd3da69f	-0.04630148
255	0x3cf526fd	0.029925818

gru.weight_ih_l0_reverse f4 [351, 1]
0	0x3d953788	0.07285982
1	0xbc32510e	-0.010883583
2	0xbe587e11	-0.2114184
3	0xbd38e437	-0.045139518
4	0x3c45187e	0.012029765
5	0xbddbaa1b	-0.107258044
6	0x3c2406fc	0.010011431
7	0xbd3b1560	-0.04567468
8	0x3b6b3507	0.003588976
9	0xbdbf66a6	-0.093457505
10	0xbd199fb4	-0.03750582
11	0xbb8dea70	-0.0043309256
12	0xbcb16899	-0.021656321
13	0xbdee3116	-0.11630456
14	0x3cb3056e	0.021853175
15	0xbdabd3c7	-0.08390003
16	0x3c689980	0.0141967535
17	0xbe17e9fe	-0.14835355
18	0xbd73af3b	-0.059493285
19	0xbe07f1c1	-0.13275816
20	0xbd47fa39	-0.048822615
21	0x3d5cd7a7	0.0539166
22	0xbb4d553e	-0.0031331326
23	0xbd5db8d1	-0.054131333
24	0xbdac4004	-0.084106475
25	0x3d2eddb9	0.04269192
26	0x3cc7ad45	0.024374614
27	0xbbba0cfb	-0.005677817
28	0xbd94a869	-0.07258684
29	0xbe987f9a	-0.29784852
30	0x3cf308fc	0.02966737
31	0xbe46a784	-0.1939984
32	0xbe209767	-0.15682755
33	0xbd837e55	-0.0642058
34	0x3d04c7c5	0.032417078
35	0xbdb5a049	-0.088684626
36	0x3cf28f97	0.029609485
37	0xbdef5fdd	-0.11688206
38	0xbd5979e4	-0.05309476
39	0x3c87792a	0.016537268
40	0xbd06fd91	-0.032956664
41	0xbd6e5017	-0.05818185
42	0xbc35aeed	-0.011089069
43	0xbe0e0d30	-0.13872218
44	0xbdf3796c	-0.11888394
45	0xbd8e9b50	-0.06963217
46	0xbc6e8eb2	-0.014560388
47	0xbd6667b8	-0.056251258
48	0xbb8165b0	-0.0039488897
49	0xbe0fb222	-0.14032796
50	0xbc4cc371	-0.012497769
51	0xbe07746f	-0.1322801
52	0x3db78e0c	0.0896264
53	0xbd9ce3f7	-0.07660668
54	0x3e4f93cd	0.20271225
55	0xbe067259	-0.13129558
56	0x3d9c4047	0.076294474
57	0xbe7c48ab	-0.24637096
58	0x3d6f358f	0.058400687
59	0xbe12d83e	-0.14340302
60	0xbdb78d96	-0.08962552
61	0x3d85f380	0.065405846
62	0x3d23cbfa	0.03998945
63	0xbdb4bd89	-0.088252135
64	0xbce012fb	-0.0273528
65	0xbb4b6d70	-0.0031040572
66	0xbd08118c	-0.03321986
67	0x3cfaa6e4	0.030597158
68	0x3d199b18	0.037501425
69	0x3da4368b	0.08018216
70	0xbeb35670	-0.35026884
71	0xbc9daa1b	-0.019246152
72	0x3cb304e3	0.021852916
73	0x3bcaa1a1	0.0061838184
74	0x3da7c467	0.08191758
75	0x3cb18824	0.021671362
76	0x3e9d1753	0.30681857
77	0xbe2925d8	-0.16518342
78	0x3e0129f0	0.12613654
79	0xbd8c3e2b	-0.06847795
80	0xbda49650	-0.08036482
81	0x3ce5a65f	0.028033433
82	0xbe4defcf	-0.20111011
83	0xbdadd0ee	-0.08487116
84	0x3d59279c	0.05301629
85	0xbd2680c6	-0.04065015
86	0xbdd75b43	-0.10515454
87	0x3cd423c7	0.025895966
88	0xbc045a23	-0.008078131
89	0xbd652a68	-0.055948645
90	0x3cb5b8aa	0.022182781
91	0xbda726ec	-0.08161721
92	0xbdb21fd7	-0.08697479
93	0xbb5b3b15	-0.0033451964
94	0xbce1eb95	-0.027578155
95	0x3e579759	0.21053828
96	0xbc48de1b	-0.012259985
97	0xbcb440c5	-0.02200354
98	0x3ccdd2ae	0.025124874
99	0xbd5d0a19	-0.053964708
100	0xbd9f000c	-0.07763681
101	0xbdc2042f	-0.09473454
102	0xbd34889d	-0.044075597
103	0x3dad5b3e	0.08464669
104	0x3da088fc	0.07838628
105	0xbd0819a6	-0.033227585
106	0x3d823ee0	0.06359649
107	0x3c24c7b7	0.010057381
108	0x3d0a113e	0.03370785
109	0xbdd63f61	-0.10461307
110	0x3ef6fc8d	0.48239556
111	0xbe753d8e	-0.23949262
112	0xbcede5e6	-0.029040288
113	0xbdb0bd63	-0.08629873
114	0xbad28519	-0.0016061395
115	0x3c3a8978	0.011385314
116	0x3c134077	0.008987538
117	0x3cbf24cb	0.023332974
118	0xbdcd070d	-0.100111105
119	0xbe94bf6c	-0.29052293
120	0x3dc2f80d	0.09519968
121	0xbcf2832c	-0.029603563
122	0x3df3952a	0.11893685
123	0xbd225ec8	-0.03964117
124	0xbb376548	-0.0027983952
125	0x3d3f6363	0.046725642
126	0x3e729709	0.23690428
127	0x3e19376a	0.14962545
128	0xbc339c3c	-0.010962542
129	0xbf131447	-0.57452816
130	0x3e48ab68	0.19596636
131	0x3e32a535	0.17445834
132	0x3d6af17d	0.057359207
133	0x3e129792	0.14315632
134	0xbd12fe84	-0.035887256
135	0x3e7a4f3d	0.2444429
136	0x3e943e31	0.28953698
137	0x3e387160	0.18011999
138	0xbe859a76	-0.26094407
139	0xbd87ca02	-0.06630327
140	0xbd8e2898	-0.069413364
141	0x3d32143f	0.04347634
142	0x3e52f74d	0.2060215
143	0x3d98310d	0.07431231
144	0x3d999958	0.07499951
145	0x3dc7be39	0.09753079
146	0xbe1b2648	-0.15151322
147	0xbd996d28	-0.07491523
148	0xbd23bec2	-0.039976843
149	0xbf078fe6	-0.52953947
150	0xbf5fcfbf	-0.8742637
151	0xbef8e49c	-0.48611915
152	0x3d031f2c	0.03201215
153	0x3daad210	0.083408475
154	0xbd8f3bb5	-0.0699381
155	0xbf1a75ea	-0.6033617
156	0xbecfc20b	-0.4057773
157	0xbd606597	-0.054784384
158	0x3e1e3d74	0.1545313
159	0x3dfab109	0.12240798
160	0x3e5c3052	0.21502808
161	0x3be8340b	0.007086282
162	0x3e661ba6	0.22471485
163	0xbe493613	-0.19649534
164	0x3e96e019	0.29467848
165	0x3dcb1868	0.099167645
166	0x3dc866b8	0.09785217
167	0xbee88d93	-0.45420513
168	0x3e1f578e	0.15560743
169	0x3d894658	0.0670287
170	0xbcc6bfd6	-0.024261396
171	0x3dcb184c	0.09916744
172	0xbe509be8	-0.20371974
173	0xbed5f99b	-0.41791996
174	0xbe189fcb	-0.14904706
175	0x3e5761e1	0.21033432
176	0x3d49c088	0.049255878
177	0xbd95b8d6	-0.07310645
178	0xbe873acb	-0.26412043
179	0xbe116368	-0.14198077
180	0x3e6fc2bf	0.23414133
181	0xbe0a4eaa	-0.1350657
182	0x3ee0af2d	0.4388365
183	0x3e50c4cd	0.20387574
184	0x3e65d46d	0.22444315
185	0x3d2bdea7	0.041960385
186	0xbe1425d6	-0.14467558
187	0xbea1f173	-0.31629524
188	0xbed7d705	-0.42156234
189	0x3e7076b4	0.23482782
190	0x3da325da	0.07966204
191	0xbd2224c1	-0.039585833
192	0x3d50af42	0.05094839
193	0xbe968822	-0.29400736
194	0xbec8eae5	-0.3924171
195	0x3e375e7a	0.17907134
196	0x3e731036	0.23736653
197	0x3db8e4cf	0.09028017
198	0x3cd49de6	0.025954198
199	0x3e0071ba	0.12543383
200	0x3e804235	0.25050512
201	0xbe9c88ba	-0.30573064
202	0x3c77c898	0.015123509
203	0x3e8fefc3	0.2811261
204	0x3d8a90f0	0.06765926
205	0xbe900fea	-0.2813714
206	0x3d8452ed	0.06461129
207	0x3de60c99	0.112328716
208	0xbc583046	-0.013195103
209	0x3de89ca6	0.11358003
210	0x3e0855fe	0.13314053
211	0x3dcd26c1	0.10017157
212	0xbf25ac31	-0.6471587
213	0x3dc5ba5b	0.09654685
214	0xbd962318	-0.07330912
215	0x3c3d740a	0.01156331
216	0x3cc19375	0.023629883
217	0x3dbd6305	0.09247402
218	0x3e57f82a	0.21090761
219	0x3d921424	0.07132748
220	0x3e4cf870	0.20016646
221	0xbd69dffe	-0.05709838
222	0x3dbd5cc5	0.0924621
223	0xbf431171	-0.7619849
224	0xbdc25297	-0.09488409
225	0x3d23a2fe	0.039950363
226	0xbd3cd71f	-0.046103593
227	0xbe50ba26	-0.2038351
228	0x3e21925d	0.1577849
229	0xbea84d1f	-0.3287134
230	0xbf493b96	-0.78606546
231	0xbded80c3	-0.11596825
232	0xbea2ee44	-0.31822407
233	0x3de42912	0.11140646
234	0xbe64b31a	-0.22333947
235	0x3e9155e6	0.28385848
236	0xbe45febf	-0.19335459
237	0x3db9b8ab	0.09068426
238	0xbc9bde5d	-0.01902693
239	0x3dcbfb48	0.099600375
240	0xbb84bfbd	-0.0040511773
241	0xbd9a5819	-0.075363345
242	0xbda16061	-0.07879711
243	0x3e6dd35b	0.23225157
244	0x3d3aeaa5	0.04563393
245	0xbe5365bd	-0.20644279
246	0xbe0ea7e4	-0.13931233
247	0x3c6a2f95	0.014293571
248	0xbdac0d32	-0.08400954
249	0x3e1a6d48	0.1508075
250	0xbdce3844	-0.100693256
251	0xbe4e3a22	-0.20139363
252	0x3d102958	0.03519568
253	0x3dc6b058	0.09701604
254	0x3d891b58	0.066946685
255	0xbe6d4eab	-0.2317454

gru.weight_hh_l0_reverse f4 [351, 117]
0	0x3cd80707	0.026370538
1	0x3dd24bd2	0.10268368
2	0x3d4846b8	0.048895568
3	0xbd843cce	-0.0645691
4	0x3d909ed7	0.07061546
5	0x3d85f843	0.06541493
6	0x3c99421f	0.018708287
7	0xbd8d786c	-0.06907734
8	0xbdc81b6e	-0.09770857
9	0x3e036366	0.12830886
10	0x3d71b5b3	0.059011173
11	0xbd431380	-0.04762602
12	0x3c1e88e0	0.009676188
13	0x3ba7e224	0.0051233936
14	0xbd58dd62	-0.052945502
15	0xbde0a2ae	-0.10968529
16	0xbde7429e	-0.11292003
17	0x3de99163	0.114046834
18	0x3c5646af	0.013078376
19	0xbd896be1	-0.067100294
20	0xbd8e9441	-0.06961871
21	0x3d84b720	0.06480241
22	0x3d977d09	0.073968954
23	0xbdfd219b	-0.12359925
24	0xbc972140	-0.018448472
25	0xbc1c3535	-0.00953417
26	0xbcab6f6b	-0.020927152
27	0xbb95018b	-0.004547303
28	0xbc4c9f60	-0.01248917
29	0xbe174e30	-0.1477592
30	0xbcf80194	-0.03027419
31	0xbdc2b4c1	-0.09507132
32	0x3deb5d6f	0.114924304
33	0x3c935792	0.017986093
34	0xbdc1988c	-0.09452924
35	0xbd8b61f5	-0.06805793
36	0x3c76f80a	0.015073786
37	0x3aef5945	0.0018260857
38	0x3c9d8656	0.019229095
39	0xbdef8637	-0.11695521
40	0xbd82e991	-0.063922055
41	0x3dc54c13	0.09633651
42	0x3b4772d1	0.0030433426
43	0xbdb3716b	-0.08761867
44	0x3d6323c2	0.055454023
45	0x3bf7c913	0.0075618117
46	0x3de30307	0.11084562
47	0x3c81c049	0.015838759
48	0xbd48c88b	-0.049019378
49	0x3d812590	0.063059926
50	0x3c83a7c5	0.01607121
51	0x3ce1b5f4	0.027552582
52	0xbd5c81e8	-0.053834826
53	0xbcff6c9a	-0.031179715
54	0xbd9daaeb	-0.07698616
55	0x3cda8662	0.026675407
56	0xbd38b7ca	-0.04509715
57	0xbc829a7a	-0.0159428
58	0x3c444d9a	0.011981392
59	0x3d67f3cf	0.056629
60	0x3c9e0e12	0.019293819
61	0xbe0f54fb	-0.13997261
62	0x3dd172f9	0.102270074
63	0x3ca8900d	0.020576501
64	0xbcb72120	-0.022354662
65	0x3d720c44	0.05909373
66	0x3d46f9ac	0.04857795
67	0xbdc3cf8c	-0.09561071
68	0x3d5a7810	0.053337157
69	0xbd80de4b	-0.06292399
70	0xbdb70ee8	-0.0893839
71	0x3e155037	0.14581381
72	0x3bd20538	0.0064093135
73	0xbd1e8471	-0.038700525
74	0xbcf69ab4	-0.030103065
75	0xba84d4c3	-0.0010134209
76	0x3d2ed075	0.04267927
77	0xbd60f6db	-0.05492292
78	0xbc78fd48	-0.015197106
79	0x3d4f2bad	0.05057876
80	0xbd36eb50	-0.044658005
81	0xbcf7afb3	-0.030235147
82	0x3de989eb	0.11403259
83	0xbd4cacd0	-0.049969494
84	0x3d942880	0.07234287
85	0x3d343bd6	0.044002376
86	0xbc1e59ee	-0.009664996
87	0xbde1587d	-0.11003206
88	0xbc491f64	-0.0122755505
89	0x3d6d4c0b	0.05793385
90	0xbbdcdb6c	-0.0067400243
91	0x3c72d167	0.014820433
92	0xbd803ab7	-0.06261199
93	0xbc34b792	-0.011030095
94	0xbc9ca63f	-0.019122241
95	0xbdf596e1	-0.119916685
96	0x3e076641	0.132226
97	0x3d870620	0.06592965
98	0x3d51717c	0.051133618
99	0x3d872748	0.06599289
100	0xbd4391ee	-0.04774659
101	0xbe41d5e5	-0.1892925
102	0xbd1cab55	-0.038249332
103	0x3d5d3232	0.054002948
104	0xbd0644ed	-0.032780576
105	0xbc0bc1ae	-0.008530064
106	0x3e45ed33	0.19328766
107	0x3db44b68	0.08803445
108	0xbd931bb6	-0.0718302
109	0xbd48b403	-0.048999798
110	0xbcf0cee1	-0.029395523
111	0x3cbbc47f	0.022920845
112	0x3b10f28a	0.002211722
113	0xbdf8f670	-0.12156379
114	0x3e052a68	0.13004458
115	0x3e10bf2b	0.14135425
116	0x3b82d5a1	0.0039927517
117	0xbb17377b	-0.002307384
118	0xbd654d26	-0.055981778
119	0x3d5c6210	0.053804457
120	0x3d3f9343	0.0467713
121	0x3d80c820	0.06288171
122	0xbdf573ab	-0.119849525
123	0xbdef942a	-0.11698182
124	0xbc988f8a	-0.018623132
125	0xbb2d2f55	-0.0026425917
126	0x3df420a1	0.11920286
127	0xbc17dda1	-0.009269149
128	0x3d95b7c9	0.07310445
129	0x3cbac2b3	0.022797918
130	0xbdc248f8	-0.09486574
131	0x3df0e831	0.11763037
132	0xbd682151	-0.056672398
133	0x3def2e11	0.11678708
134	0x3c9dfb8c	0.019284986
135	0xbe17b918	-0.14816701
136	0xbdb07d04	-0.08617595
137	0xbd10c352	-0.035342522
138	0x3db91e42	0.09038974
139	0xbbe2328a	-0.0069029974
140	0x3c84d347	0.016214026
141	0xbde0f2a2	-0.109837785
142	0xbd7674ae	-0.06016987
143	0x3e0869d5	0.13321622
144	0xbd163a61	-0.03667677
145	0xbdd8dc25	-0.10588864
146	0xbc1df706	-0.0096414145
147	0x3d630027	0.055420067
148	0xbdcbae04	-0.099453
149	0x3de154da	0.11002512
150	0xbcd149d3	-0.025547897
151	0xbcf70a15	-0.030156175
152	0x3c70a3cf	0.0146874925
153	0xbdae23d0	-0.085029244
154	0xbe39fa6a	-0.18161932
155	0x3d2a5405	0.041584034
156	0xbd2b73c7	-0.04185846
157	0x3daee3db	0.08539554
158	0x3d42278a	0.04740099
159	0x3e15cb9e	0.14628455
160	0xbd918925	-0.07106236
161	0x3d1f3333	0.038867187
162	0xbc0b8586	-0.008515721
163	0x3d969980	0.073534966
164	0xbdf9cd90	-0.12197411
165	0x3db7599e	0.0895264
166	0xbc61e581	-0.013787628
167	0xbac53418	-0.0015045432
168	0xbdf777f8	-0.12083429
169	0x3d9b04e6	0.07569294
170	0xbdd198e8	-0.10234243
171	0xbefd9a93	-0.49531993
172	0x3dcd20f7	0.10016053
173	0xbdeb74fe	-0.11496924
174	0xbc7fb9f2	-0.015608298
175	0x3db9c65d	0.09071038
176	0xbe160f8e	-0.14654371
177	0x3c852413	0.016252553
178	0x3d2128aa	0.03934542
179	0x3d2cdd94	0.0422035
180	0xbd91e7f6	-0.07124321
181	0xbd328e22	-0.04359258
182	0x3d91c517	0.0711767
183	0xbd4f8c51	-0.050670926
184	0xbb8d3179	-0.004308876
185	0x3caafc1e	0.020872172
186	0xbdbff4ec	-0.09372887
187	0x3c07cc1a	0.008288408
188	0x3c495633	0.012288618
189	0xbd4f136f	-0.050555643
190	0x3c7e3e33	0.015517759
191	0x3df09b9b	0.117484294
192	0x3cbf3765	0.023341844
193	0xbdd75fb9	-0.105163045
194	0xbd894b59	-0.067038245
195	0x3de399bf	0.11113309
196	0x3de423d0	0.11139643
197	0xbd7e995c	-0.062157974
198	0xbd48832c	-0.04895322
199	0x3c78dcba	0.015189344
200	0x3cc750cf	0.024330525
201	0x3dc70fd5	0.097198166
202	0xbc58e7d9	-0.013238871
203	0xbd00fd92	-0.031491823
204	0x3c2ab752	0.0104196835
205	0xbe4885bd	-0.19582267
206	0x3cd7261d	0.026263291
207	0x3c60a307	0.013710744
208	0x3d0be64f	0.034155186
209	0xbc4b6e58	-0.012416445
210	0x3d4af784	0.049552456
211	0x3dbbbfd4	0.09167448
212	0x3d580b3d	0.052745093
213	0xbd3dfe32	-0.046384998
214	0x3e0303df	0.12794445
215	0xbdf6a920	-0.12043977
216	0xbcb03cc6	-0.021513354
217	0x3cbc3b75	0.02297757
218	0xbdbdd65d	-0.09269402
219	0xbc9b74d5	-0.018976608
220	0xbcf9c65c	-0.030490093
221	0xbe396541	-0.18105032
222	0x3dcd90d3	0.10037389
223	0x3e3396db	0.17538016
224	0x3d348d73	0.04408021
225	0xbd19ade1	-0.03751934
226	0x3d8b141d	0.06790946
227	0x3e8989b9	0.26862887
228	0x3d4c6f7b	0.049911004
229	0x3b741169	0.0037241823
230	0x3e75287b	0.23941223
231	0x3d8dff89	0.06933505
232	0x3d63d024	0.05561842
233	0x3d9280b1	0.07153452
234	0x3db8da75	0.09026042
235	0xbdc2696d	-0.094927646
236	0xbd1464d1	-0.03622896
237	0x3d801f5b	0.062559806
238	0xbe12d65a	-0.14339581
239	0x3ba575e4	0.005049454
240	0xbd9434da	-0.07236643
241	0x3ded5545	0.115885295
242	0x3de7cf55	0.11318842
243	0x3dc58932	0.096453086
244	0x3d9d96a7	0.0769475
245	0xbd761f5f	-0.06008851
246	0x3bcb3e8c	0.0062025245
247	0x3d1b9a5b	0.037989
248	0x3da740cf	0.08166658
249	0x3d8cda17	0.06877535
250	0xbd5ed92a	-0.054406323
251	0x3b58bddc	0.003307215
252	0xbde25581	-0.11051465
253	0xbdf5a933	-0.11995163
254	0xbd2229fa	-0.039590813
255	0x3c8d759f	0.017268

gru.bias_ih_l0_reverse f4 [351]
0	0xbe224538	-0.15846717
1	0xbd82c250	-0.063847184
2	0x3ab44ce6	0.0013755828
3	0x3c894716	0.01675753
4	0x3c32bbeb	0.010909061
5	0xbdebad12	-0.1150762
6	0xbdbe67e4	-0.09297159
7	0xbcf5f3f2	-0.030023549
8	0xbd4e0331	-0.050296012
9	0xbec74b35	-0.38924566
10	0xbe29f5a7	-0.16597615
11	0xbe5d70f8	-0.21625125
12	0x3da19f24	0.07891682
13	0xbd906a7d	-0.07051561
14	0xbdf0264e	-0.11726056
15	0xbdcab8d0	-0.098985314
16	0xbdc7db48	-0.097586215
17	0xbb15f78e	-0.002288315
18	0xbe13bffe	-0.14428708
19	0xbd1df59e	-0.038564317
20	0xbd814b56	-0.06313197
21	0xbea3f67f	-0.32024
22	0xbd8375f0	-0.06418979
23	0xbdbaec85	-0.09127144
24	0xbde0123b	-0.10940977
25	0xbb52cf58	-0.0032167044
26	0xbe304cf6	-0.17216858
27	0xbde05e74	-0.109555155
28	0xbdd58f28	-0.104276955
29	0xbb091c0f	-0.0020921265
30	0xbdc86133	-0.09784164
31	0xbc98ca00	-0.018651009
32	0x3d6601e9	0.056154165
33	0xbd612829	-0.05496994
34	0x3dca6d88	0.09884173
35	0xbc7403b2	-0.014893459
36	0xbb83ab6b	-0.0040182373
37	0x3cb338df	0.021877704
38	0x3aedcd83	0.0018142912
39	0x3c79939c	0.015232947
40	0xbe5122c0	-0.20423412
41	0xbe16c840	-0.14724827
42	0xbe08a90d	-0.13345738
43	0xbd9665ab	-0.073436104
44	0xbdb35997	-0.08757322
45	0xbe0ee149	-0.13953127
46	0xbe497e2e	-0.1967704
47	0xbdc82ebd	-0.097745396
48	0xbdfccfd3	-0.12344327
49	0xbe003a11	-0.1252215
50	0xbee6616e	-0.44996208
51	0xbe0d0199	-0.1377014
52	0xbdbc804e	-0.0920416
53	0xbdc53a51	-0.096302636
54	0xbdc8d12c	-0.09805521
55	0x3c4748d7	0.0121633625
56	0xbdc43ace	-0.095815286
57	0xbe1f66ce	-0.1556656
58	0xbcd0b762	-0.025478069
59	0xbd9ff5c2	-0.078105465
60	0xbdd1c961	-0.10243488
61	0xbdbc341c	-0.091896266
62	0xbe5b298c	-0.21402568
63	0xbe28bd35	-0.16478427
64	0x3b9079b2	0.0044090385
65	0xbe22d808	-0.15902722
66	0xbd453e4b	-0.04815511
67	0xbe026570	-0.12734008
68	0xbdcf047b	-0.101082765
69	0xbd8616f3	-0.06547346
70	0xbe10fe91	-0.1415961
71	0xbd6f4cee	-0.058422975
72	0xbe630e26	-0.22173366
73	0xbd24fe48	-0.040281564
74	0xbe69ae8f	-0.22820495
75	0xbde53080	-0.11190891
76	0xbd8d95e3	-0.06913354
77	0x3c706baf	0.014674111
78	0xbdc84fe7	-0.09780865
79	0xbdfd0586	-0.12354569
80	0xbdc18357	-0.09448879
81	0xbc91bfc8	-0.017791644
82	0xbd9134cc	-0.07090148
83	0xbd393ed3	-0.04522593
84	0xbec943db	-0.39309582
85	0xbcefd56b	-0.02927657
86	0xbe66448d	-0.22487088
87	0xbde7e3e5	-0.11322764
88	0x3c2b070e	0.010438694
89	0xbe67e058	-0.22644174
90	0xbd59ddfa	-0.05319021
91	0xbc30cfa2	-0.010791691
92	0xbccb2014	-0.02479557
93	0xbdef0b2d	-0.116720535
94	0xbd42b2fd	-0.047533978
95	0xbddc7e78	-0.107663095
96	0xbe034ca5	-0.12822206
97	0xbde48c70	-0.11159599
98	0xbe2a867f	-0.16652869
99	0xbddef50b	-0.10886582
100	0xbe02cb39	-0.12772836
101	0xbe1b9632	-0.15194014
102	0xbb74f740	-0.0037378818
103	0x3c204a0d	0.00978328
104	0x3dc7a107	0.097475104
105	0xbd250fc8	-0.040298253
106	0xbdc1d560	-0.09464526
107	0xbe54fd41	-0.20799734
108	0xbece2350	-0.40261316
109	0xbd62e734	-0.055396274
110	0xbd59f7ce	-0.05321484
111	0xbe109422	-0.14119008
112	0xbe4ca60d	-0.19985218
113	0xbd4aefe1	-0.049545173
114	0xbd30b43d	-0.04314064
115	0xbe7fb78b	-0.2497236
116	0xbe005bb5	-0.12534983
117	0x3c5510d1	0.013004498
118	0xbf0a9764	-0.54137254
119	0xbe2eefea	-0.17083707
120	0x3e92cd8c	0.28672445
121	0x3e3c09ca	0.18363109
122	0x3ec5ebdf	0.38656518
123	0x3e464d60	0.19365454
124	0x3d836ab5	0.06416837
125	0x3ea5566c	0.32292497
126	0xbca41857	-0.020031137
127	0x3eb3d404	0.35122693
128	0x3bd355a9	0.0064494205
129	0xbd8aab2d	-0.067709304
130	0x3e85a7e0	0.2610464
131	0x3e8af20a	0.27137786
132	0x3e8997e7	0.26873705
133	0x3e8a8324	0.27053177
134	0x3d29fcac	0.041500732
135	0x3ecd2feb	0.4007562
136	0x3e9589e5	0.29206768
137	0x3ea4722a	0.3211835
138	0x3c880a87	0.016606582
139	0x3d4e7eaf	0.050413784
140	0xbd85fa4a	-0.065418795
141	0x3e05e3f6	0.13075241
142	0x3e8b3d97	0.27195427
143	0x3e327dbd	0.17430778
144	0x3eaec9a2	0.3413821
145	0x3e74597d	0.23862262
146	0x3dc96ba1	0.09834982
147	0xbc0731ae	-0.008251591
148	0xbe01fd2a	-0.1269423
149	0xbe8900fb	-0.2675856
150	0xbf8bd595	-1.0924555
151	0x3d5e8ab7	0.054331508
152	0x3e9a9a67	0.30195925
153	0x3ea3fc83	0.3202859
154	0x3ce6aa1e	0.02815729
155	0xbe864fe2	-0.2623282
156	0xbe73dd07	-0.23814784
157	0x3ce15d60	0.027510345
158	0x3ea8d49d	0.3297471
159	0x3e7dbe02	0.24779513
160	0x3eb91b53	0.3615366
161	0x3e9b2908	0.30304742
162	0x3f03a98f	0.514306
163	0xbd6af030	-0.057357967
164	0x3e7e64a3	0.24843077
165	0x3e0b032c	0.13575429
166	0x3ec19d00	0.37815094
167	0xbdb9447a	-0.09046264
168	0x3edb1c50	0.42795038
169	0x3e81c2c2	0.253439
170	0xbe1db9b6	-0.15402874
171	0x3d64fd32	0.05590553
172	0xbd8b380e	-0.06797801
173	0xbe7c76b5	-0.24654658
174	0xbd0ee207	-0.034883525
175	0x3ebab57a	0.3646658
176	0x3e50d6a0	0.20394373
177	0x3e393b3a	0.18089
178	0xbf095f6a	-0.53661215
179	0xbda6cf73	-0.081450365
180	0x3e9432a2	0.2894488
181	0xbe24e877	-0.16104303
182	0x3e6b18f1	0.22958733
183	0xbe9877e8	-0.2977898
184	0x3e833395	0.2562529
185	0x3e2dc765	0.16970594
186	0xbccff2d1	-0.025384339
187	0xbe31850a	-0.17335907
188	0x3d4ad905	0.049523372
189	0x3dce2135	0.100649275
190	0x3eb5a2df	0.35475823
191	0x3de3b976	0.11119358
192	0x3e634fb7	0.22198378
193	0xbf27ba60	-0.6551876
194	0xbec96983	-0.39338312
195	0x3e64f032	0.22357252
196	0x3eb5d8fe	0.35517114
197	0x3c4a3347	0.012341327
198	0x3e795717	0.24349628
199	0x3e129dfb	0.14318077
200	0x3e13cb28	0.14432967
201	0xbced1ce5	-0.028944442
202	0x3e913848	0.28363252
203	0x3e990ff6	0.2989499
204	0x3ebb11db	0.3653706
205	0x3be6c199	0.0070421216
206	0x3e86a439	0.26297167
207	0x3e8e5987	0.2780268
208	0x3e1bddea	0.15221372
209	0x3e9a6480	0.301548
210	0x3e64c063	0.22339015
211	0x3e7a128d	0.24421139
212	0xbeaa884f	-0.3330712
213	0x3e1b160e	0.15145132
214	0xbd8b09ea	-0.06789
215	0x3cbb8498	0.022890374
216	0xbd41e14d	-0.047334004
217	0x3ed0ccec	0.40781343
218	0xbd0e1ad3	-0.03469355
219	0x3e70467f	0.23464392
220	0x3e6ac2fb	0.22925942
221	0xbdf196ad	-0.11796317
222	0x3d305a96	0.04305514
223	0xbeda845c	-0.42679107
224	0x3c873d50	0.016508728
225	0x3d0ec0e2	0.034851916
226	0x3e5bb7cc	0.21456832
227	0x3c8eceef	0.017432658
228	0x3e13a1aa	0.14417139
229	0xbdb21c55	-0.0869681
230	0xbf9c02a0	-1.2188301
231	0x3deaf8f8	0.11473268
232	0xbd918b97	-0.07106703
233	0x3e898c74	0.2686497
234	0x3d0de8a0	0.034645677
235	0xbcdf5a4c	-0.027264737
236	0xbd3c2e96	-0.045942865
237	0x3d263ee7	0.040587332
238	0x3cbe934f	0.023263602
239	0xbc831d90	-0.016005307
240	0xbc0a53b6	-0.00844281
241	0xbc4cf18d	-0.012508762
242	0xbd0e66b2	-0.034765907
243	0xbd5b734a	-0.053576745
244	0xbbd6cbb6	-0.006555046
245	0x3c7ff0f5	0.0156214135
246	0xbd3be9d1	-0.04587728
247	0x3d5ce5b5	0.053930003
248	0x3c4ac733	0.012376594
249	0x3c0a3eec	0.008437853
250	0xbc759dd2	-0.014991241
251	0xbd7e3045	-0.062057752
252	0x3c337726	0.0109537
253	0x3c8262ed	0.015916312
254	0x3b23fa24	0.0025020922
255	0xbd05a00a	-0.03262333
