covid_forecasting/cumulative/best_models/bilstm.pth (torch, 468853 bytes, 9 tensors)

lstm.weight_ih_l0 f4 [476, 1]
0	0x3dd2e55f	0.10297655
1	0x3d5a05b1	0.053228084
2	0xbdcbc565	-0.099497594
3	0x3df37f7f	0.11889552
4	0x3e678aa8	0.22611487
5	0x3d5c2de0	0.053754687
6	0xbe43e223	-0.19129233
7	0x3e328175	0.17432196
8	0xbdab060c	-0.08350763
9	0x3df861c6	0.12128024
10	0xbc88a0e9	-0.01667829
11	0xbb938173	-0.0045015155
12	0x3dd1ddb0	0.10247362
13	0x3e0c4b94	0.13700706
14	0xbd74643e	-0.05966591
15	0xbe8412bd	-0.25795546
16	0xbdcd475b	-0.100233756
17	0x3cef3203	0.029198652
18	0x3d0b5d8a	0.034024753
19	0x3ce8bfcf	0.028411774
20	0xbd1bf6f8	-0.038077325
21	0x3c197d41	0.009368242
22	0x3c36b008	0.011150368
23	0xbdbed668	-0.093182385
24	0x3db08666	0.086193845
25	0xbe095989	-0.13413061
26	0xbde1379d	-0.109969355
27	0xbdda60aa	-0.106629685
28	0xbdd9ae2d	-0.106289245
29	0x3e230366	0.15919265
30	0xbd58f2ea	-0.052966036
31	0xbdab558f	-0.083659284
32	0xbe4875f0	-0.1957624
33	0x3bcf4a8b	0.006326025
34	0x3d2d922d	0.042375732
35	0x3ecd1081	0.40051654
36	0x3d8f7006	0.07003789
37	0xbd6429d9	-0.05570397
38	0x3ec3fac6	0.38277262
39	0xbc41c9a8	-0.011827864
40	0xbc8a09c2	-0.016850356
41	0x3d613972	0.054986425
42	0xbd1d1d8d	-0.03835826
43	0xbd7fc15a	-0.062440254
44	0x3e28de40	0.16491032
45	0xbd510a89	-0.051035438
46	0x3ee0b69a	0.43889314
47	0x3d5c8bef	0.05384439
48	0xbce92dc2	-0.028464202
49	0xbb32efe5	-0.0027303633
50	0x3cae2bd8	0.02126114
51	0xbe2d8525	-0.16945322
52	0xbde5201f	-0.11187767
53	0xbde2d83a	-0.11076398
54	0x3d58f1e3	0.052965056
55	0x3d6bd173	0.057572793
56	0x3e18c51a	0.14918938
57	0x3dd876fc	0.105695695
58	0xbcbaea90	-0.022816926
59	0x3e0912d5	0.1338609
60	0xbcfc51a7	-0.030800654
61	0xbd23c7d6	-0.0399855
62	0xbdb3fca4	-0.08788422
63	0xbdbc0a0f	-0.09181606
64	0xbd2fc11c	-0.042908773
65	0x3e01d308	0.12678158
66	0x3de8aed3	0.1136147
67	0x3d36982b	0.044578712
68	0x3d98e793	0.07466044
69	0x3d26b9a2	0.040704377
70	0x3d064555	0.032780964
71	0xbe8b1e3f	-0.27171513
72	0xbd61550d	-0.05501275
73	0x3dfbb856	0.12291019
74	0x3de88800	0.11354065
75	0x3d826a07	0.06367879
76	0xbc1052ee	-0.0088088345
77	0xbba8ea9d	-0.005154921
78	0x3e898b9a	0.2686432
79	0x3d8d7459	0.06906957
80	0xbdd5064c	-0.10401592
81	0x3cda57b1	0.026653143
82	0xbd907cab	-0.070550285
83	0xbd8949db	-0.0670354
84	0x3d9334c3	0.07187798
85	0x3d6d3089	0.057907615
86	0x3d7ade50	0.06124717
87	0x3e8edba4	0.27901947
88	0xbe35d34d	-0.17756386
89	0xbd808da9	-0.062770195
90	0xbc9e4bf1	-0.019323321
91	0xbe8960e2	-0.26831728
92	0x3d247d2c	0.040158436
93	0x3d8d68f7	0.06904786
94	0x3d833e65	0.06408385
95	0xbd70cd96	-0.058789812
96	0xbddb1d2b	-0.10698923
97	0xbec1e3f3	-0.37869224
98	0x3de44ce4	0.11147478
99	0xbc19557b	-0.009358759
100	0x3d7e9dd3	0.06216223
101	0xbc91853a	-0.017763723
102	0x3e2f9112	0.17145184
103	0xbe83bf2d	-0.25731793
104	0xbd31e9e7	-0.043435957
105	0xbdb4401c	-0.088012904
106	0x3debe71d	0.11518691
107	0x3c9f81be	0.019471046
108	0xbe9afd6b	-0.30271468
109	0x3d5c8c8a	0.053844966
110	0x3dcf416d	0.10119901
111	0x3dcb119b	0.09915467
112	0x3e09a42e	0.13441536
113	0x3dbf0196	0.09326474
114	0xbcaa48a7	-0.020786596
115	0xbdc9022f	-0.098148696
116	0x3dd73f72	0.10510148
117	0xbc095819	-0.0083828205
118	0xbc753689	-0.0149666155
119	0xbdb3f9bb	-0.08787867
120	0x3da828d3	0.082109116
121	0xbda9764c	-0.082745165
122	0x3d7e2898	0.062050432
123	0x3e09e1ad	0.13464995
124	0xbc434700	-0.011918783
125	0xbe114fc6	-0.14190587
126	0x3e06c0ed	0.13159533
127	0xbe1f255a	-0.15541592
128	0xbe0e2cb2	-0.13884237
129	0x3e17a146	0.14807615
130	0x3e1d12c2	0.15339187
131	0x3c2f1ed9	0.010688507
132	0x3e09e219	0.13465156
133	0x3d00f285	0.031481285
134	0xbe86a057	-0.26294205
135	0xbc973a31	-0.018460365
136	0x3e221ca0	0.15831232
137	0x3e3b98d5	0.1832002
138	0x3e4171c9	0.18891062
139	0xbc1b0b70	-0.009463176
140	0x3dc6bdc0	0.09704161
141	0xbd36f796	-0.04466971
142	0xbccdaf96	-0.02510814
143	0x3e47fc5f	0.19529866
144	0xbd4738a4	-0.048638
145	0x3b8a1425	0.004213827
146	0x3c9c63e3	0.019090598
147	0x3c579ad7	0.013159475
148	0x3c7ca88a	0.015421042
149	0x3d964224	0.07336834
150	0x3d2988cf	0.041390236
151	0xbd8a9a31	-0.06767691
152	0x3ddf0935	0.10890428
153	0x3e23047d	0.15919681
154	0xbd46272b	-0.048377197
155	0x3dfaa77c	0.12238976
156	0xbd800297	-0.06250494
157	0x3e35dc55	0.17759831
158	0x3dc124e8	0.094308674
159	0xbc5aec29	-0.013361969
160	0x3ce72e02	0.02822018
161	0xbd848fc1	-0.064727314
162	0xbc2d8472	-0.010590659
163	0xbd5fbcd0	-0.054623425
164	0xbd804379	-0.062628694
165	0xbc01becc	-0.007919025
166	0xbcc00382	-0.023439173
167	0x3daec5ec	0.08533844
168	0x3d2fd1be	0.042924635
169	0xbdd2c623	-0.10291698
170	0x3c095f35	0.0083845155
171	0xbb8e5eb5	-0.004344786
172	0xbe2d71bd	-0.16937919
173	0x3e144386	0.14478883
174	0x3d82a2fe	0.063787445
175	0x3d1b56ba	0.037924506
176	0xbe12f79a	-0.14352265
177	0x3db5b102	0.08871652
178	0x3dc5ae1b	0.096523486
179	0x3cdf6a18	0.02727227
180	0xbd993278	-0.07480329
181	0x3cd39f98	0.025832936
182	0xbd809542	-0.06278469
183	0x3df67924	0.120348245
184	0xbdf48718	-0.119398296
185	0x3dec7d70	0.11547363
186	0x3e1d18a0	0.15341425
187	0x3d63f113	0.05564983
188	0x3d100056	0.03515657
189	0xbc14a195	-0.009071727
190	0xbe5f5b7b	-0.21812241
191	0xbcea8c9d	-0.028631503
192	0x3db32192	0.087466374
193	0x3e0f6b0e	0.14005682
194	0x3db9a36f	0.090643756
195	0x3db0035a	0.08594389
196	0x3d1dd86b	0.03853647
197	0x3da050d6	0.07827918
198	0x3d14150e	0.03615289
199	0xbe166d21	-0.14690067
200	0xbd24ba71	-0.040216867
201	0x3dd0c521	0.10193849
202	0x3d624810	0.055244505
203	0x3d03b051	0.03215057
204	0x3d2d3a33	0.04229183
205	0x3d93e69c	0.072217196
206	0x3e126798	0.1429733
207	0xbdf441f0	-0.11926639
208	0xbe18f491	-0.14937045
209	0x3dd35d8d	0.10320578
210	0xbe50c4e7	-0.20387612
211	0x3dac45f0	0.08411777
212	0x3dc54953	0.09633126
213	0x3db9c3d6	0.09070556
214	0x3d80529b	0.06265756
215	0xbdbbddbb	-0.09173151
216	0xbef57d77	-0.47947285
217	0x3c50dfe1	0.012748689
218	0x3d2fd0ea	0.042923845
219	0xbb47a8ae	-0.003046553
220	0x3da9874b	0.08277758
221	0x3d813a03	0.06309893
222	0xbe82c829	-0.25543335
223	0xbe4db93f	-0.20090197
224	0xbd07b247	-0.033129003
225	0x3dec6990	0.11543572
226	0x3d8c1bde	0.06841253
227	0xbe645107	-0.22296534
228	0x3e46e3a4	0.19422776
229	0x3e217f9f	0.1577134
230	0x3e1c307b	0.15252869
231	0x3d88d758	0.066816986
232	0x3e1374d5	0.14400037
233	0x3de513e6	0.11185436
234	0x3d881005	0.066436805
235	0x3e3a3364	0.18183666
236	0x3da86c9c	0.082238406
237	0xbb1ad655	-0.0023626287
238	0x3e35cd42	0.17754081
239	0x3e3f8f2c	0.1870696
240	0xbe9322df	-0.28737542
241	0x3e3252df	0.17414425
242	0xbe834f7c	-0.2564658
243	0xbdef46c9	-0.11683423
244	0x3d3c2fce	0.045944028
245	0x3e721d17	0.2364391
246	0x3edd5a67	0.43233034
247	0x3eaf3f7f	0.3422813
248	0xbe4fe0dd	-0.20300622
249	0x3e9cc187	0.306164
250	0xbda026dd	-0.078199126
251	0x3e83913e	0.25696748
252	0x3e7d6f60	0.24749517
253	0xbe28e644	-0.1649409
254	0xbe0f09b7	-0.1396855
255	0x3e26c4b6	0.16285977

lstm.weight_hh_l0 f4 [476, 119]
0	0xbdf4dc4a	-0.11956079
1	0x3e0f50f1	0.1399572
2	0x3e01f318	0.12690389
3	0xbd0ab687	-0.033865478
4	0x3d32baa3	0.043635022
5	0x3df97f73	0.12182512
6	0xbe4124b3	-0.18861656
7	0xbe28bcba	-0.16478243
8	0xbdc40808	-0.09571844
9	0x3d27b95f	0.040948268
10	0x3d488531	0.048955146
11	0x3ca797c3	0.020458108
12	0xbdabdbc2	-0.08391525
13	0x3e05fd24	0.13084847
14	0x3d55ecc3	0.052227747
15	0xbd888f7c	-0.066679925
16	0xbc8f8189	-0.017517822
17	0x3ddfa648	0.109203875
18	0x3c3c9a6e	0.011511428
19	0xbd23601b	-0.039886575
20	0x3d9fed2c	0.07808909
21	0xbce7b1bf	-0.028282998
22	0x3cbc09ca	0.022953887
23	0xbe127336	-0.14301762
24	0x3dbadbb2	0.09123935
25	0x3e03c5e5	0.1286846
26	0x3e03de4b	0.12877767
27	0x3d8c2934	0.06843796
28	0xbdb23e67	-0.087033086
29	0x3cabebc7	0.02098645
30	0xbd754bca	-0.05988673
31	0xbc9276f6	-0.01787899
32	0x3ddfaec5	0.109220065
33	0xbd1c1c8a	-0.038113154
34	0x3cb6fc8a	0.022337217
35	0xbd33e04b	-0.043915074
36	0xbcefa669	-0.029254155
37	0xbddaf8a4	-0.10691956
38	0xbd309d77	-0.04311892
39	0xbdc88a27	-0.097919755
40	0x3e0aebc3	0.13566498
41	0x3ca61dd6	0.020277899
42	0x3e50ecf8	0.20402896
43	0xbe36aa0b	-0.17838304
44	0x3c9ccc7a	0.01914047
45	0x3d2ab49c	0.04167615
46	0x3c3be37d	0.011467812
47	0x3cf96f07	0.03044845
48	0x3d1929a1	0.037393216
49	0xbd8e4f45	-0.06948713
50	0xbd2c2995	-0.042031843
51	0xbd582292	-0.052767344
52	0xbd9b52e6	-0.07584171
53	0x3e4cd620	0.20003557
54	0xbe1c64f1	-0.15272881
55	0x3c6879c9	0.014189192
56	0x3ce63f37	0.028106315
57	0xbbdeeabd	-0.0068028853
58	0xbdd1d844	-0.102463275
59	0x3c81720e	0.015801456
60	0x3d56e727	0.052466538
61	0x3b007884	0.0019603083
62	0x3df74b4c	0.120749086
63	0x3d062fc5	0.0327604
64	0xbdca4c28	-0.09877807
65	0x3d58b44e	0.052906327
66	0xbd2da69d	-0.042395223
67	0x3d7bd666	0.061483763
68	0x3de5f742	0.11228801
69	0x3c98699b	0.018605044
70	0x3c166b32	0.009180831
71	0xbdc85d5b	-0.09783431
72	0xbc78d7fe	-0.015188215
73	0x3d6fb06b	0.058517855
74	0x3c8cfb0d	0.017209554
75	0x3d1f3a8c	0.038874194
76	0xb9c398b4	-0.0003730707
77	0x3e09dcfb	0.13463204
78	0xbe0f02a0	-0.13965845
79	0xbdcc6298	-0.09979743
80	0xbdad02cd	-0.084478
81	0x3d4de1c7	0.050264146
82	0xbcc8dd2b	-0.024519524
83	0xbd94a9f9	-0.07258982
84	0x3daad0d0	0.08340609
85	0x3e1265fe	0.1429672
86	0xbe43fa94	-0.19138557
87	0x3e4c3d85	0.19945343
88	0xbe7b9193	-0.24567251
89	0x3e05b0dc	0.13055748
90	0x3c1c0d22	0.0095246155
91	0xbe3b06ae	-0.18264267
92	0x3e360c01	0.17778017
93	0x3db2da22	0.08733012
94	0x3df32119	0.11871547
95	0x3cd84562	0.026400272
96	0xbd67af7c	-0.05656384
97	0xbe8cd633	-0.2750717
98	0x3c827def	0.01592919
99	0x3d9e3a8d	0.077260114
100	0xbcfc66e6	-0.030810785
101	0x3d9cb460	0.07651591
102	0x3dca9310	0.09891331
103	0x3dc0554d	0.0939127
104	0x3ca93757	0.02065627
105	0xbcb629bf	-0.022236703
106	0xbd535bae	-0.051601104
107	0x3caee084	0.021347292
108	0x3ddb53da	0.10709353
109	0x3d29054b	0.041264813
110	0x3dfd559b	0.123698436
111	0x3d2b5fd3	0.041839432
112	0xba41b99e	-0.0007390025
113	0xbdc69caf	-0.09697854
114	0x3d4e1068	0.050308615
115	0x3e6ad717	0.22933613
116	0xbaf99e1a	-0.001904431
117	0x3d33e8ba	0.043923117
118	0x3e153a61	0.14573051
119	0xbd46c86e	-0.04853099
120	0x3dc47c73	0.09594049
121	0x3d599289	0.053118262
122	0x3d17e69d	0.037085164
123	0xbd4d9568	-0.050191313
124	0xbc9ab594	-0.018885411
125	0xbdaf6ba0	-0.0856545
126	0xbdbafde4	-0.09130457
127	0x3a261433	0.00063354074
128	0xbd8c5dad	-0.06853805
129	0x3d0306ed	0.031989027
130	0xbcbe6c35	-0.023244957
131	0x3d92b4be	0.0716338
132	0x3cb3135b	0.021859815
133	0x3d61b53a	0.05510447
134	0xbccde309	-0.025132673
135	0x3cc65d7a	0.024214495
136	0xbd3702e9	-0.04468051
137	0xbdbc2ef8	-0.09188646
138	0xbd05e478	-0.032688588
139	0x3d0cc072	0.034363218
140	0xbd4c166f	-0.04982608
141	0x3d2961b2	0.041352935
142	0xbdb6453e	-0.08899926
143	0xbccf8be4	-0.02533526
144	0x3d3a25cf	0.045446213
145	0x3db60a1f	0.08888649
146	0xbd64bfb1	-0.055846874
147	0xbd697402	-0.0569954
148	0x3dc32278	0.09528059
149	0xbd8f011c	-0.069826335
150	0xbd2f2979	-0.04276416
151	0x3db8757c	0.09006783
152	0xbd842bda	-0.064536765
153	0x3c3d8277	0.01156675
154	0x3d90009b	0.070313655
155	0x3a692de4	0.0008895083
156	0x3b5bc214	0.0033532428
157	0xbd909629	-0.07059891
158	0x3c83daa2	0.016095463
159	0x3da9cc72	0.08290948
160	0x3c1449fc	0.009050842
161	0xbce7b864	-0.028286166
162	0x3cd03ed5	0.025420586
163	0xbceadd77	-0.028670056
164	0xbd838fcf	-0.06423914
165	0xbc721b31	-0.014776991
166	0x3d1f56d1	0.038901154
167	0x3d00f5f6	0.031484567
168	0x3ccd0646	0.025027405
169	0xbcffd8f4	-0.031231381
170	0x3d5fd089	0.054642234
171	0x3dc89943	0.09794857
172	0x3d220f44	0.03956534
173	0xbc527aec	-0.01284669
174	0xbcfcbb99	-0.030851172
175	0x3dce24ec	0.10065636
176	0xbc782f9c	-0.01514807
177	0xbd20febe	-0.03930544
178	0x3d095186	0.033525012
179	0xbd4b1c5b	-0.04958759
180	0xbd0d8995	-0.034555037
181	0x3d9f6ec0	0.07784796
182	0xba3cf30d	-0.0007207848
183	0x3cb7889b	0.022404006
184	0x3d6b566a	0.057455458
185	0x3db07248	0.086155474
186	0xbd42402e	-0.047424488
187	0x3d625c6e	0.05526393
188	0x3c835786	0.016032945
189	0xbdd87877	-0.10569852
190	0xbbae22a7	-0.0053141895
191	0xbc17f048	-0.009273596
192	0x3de51095	0.111848034
193	0xbc9790c7	-0.018501652
194	0xbd349640	-0.044088602
195	0xbaecaaac	-0.0018056235
196	0x3db3b677	0.08775037
197	0x3def389a	0.11680718
198	0xbc3140ac	-0.010818642
199	0x3ade132d	0.0016942971
200	0xbc6a8bf2	-0.014315592
201	0xbd612d1a	-0.054974653
202	0xbdacdb89	-0.084403105
203	0x3b3733fc	0.002795457
204	0x3dd29c9e	0.102837786
205	0x3d72252f	0.059117492
206	0xbd1f219a	-0.038850404
207	0xbd490ce1	-0.049084548
208	0x3d0ebfcc	0.03485088
209	0x3d22e24a	0.039766587
210	0x3c103abf	0.008803069
211	0xbd6396cf	-0.055563744
212	0x3c444af1	0.011980758
213	0x3bf7b1bd	0.00755903
214	0x3cfdf3f5	0.031000117
215	0xbd9e7b29	-0.07738335
216	0xbcc5db92	-0.02415255
217	0xba7bdbda	-0.00096076506
218	0x3cdc05cf	0.026858239
219	0x3d697cc0	0.057003736
220	0xbb2a7c93	-0.0026014193
221	0xbde27542	-0.110575214
222	0xbdc635e2	-0.09678246
223	0xbd759b23	-0.059962403
224	0xbc9815cf	-0.018565087
225	0xbd805d5d	-0.06267808
226	0x3e051ef1	0.13000084
227	0x3c24e515	0.010064383
228	0xbdeffc09	-0.11717994
229	0xbd946ddc	-0.072475165
230	0xbdcd2a6c	-0.10017857
231	0x3d77e12e	0.060517482
232	0x3d2ddf30	0.042449176
233	0x3dbed2a5	0.09317521
234	0x3d723458	0.05913195
235	0xbd9e7dc2	-0.0773883
236	0x3d96b14b	0.07358035
237	0x3beb05e0	0.007172331
238	0xbdfc4033	-0.123169325
239	0xbd35c2dd	-0.04437529
240	0xbc7aa106	-0.01529718
241	0x3cfcd2d4	0.03086225
242	0x3da2bf4c	0.07946643
243	0xbdbb7607	-0.09153371
244	0xbc8ddf66	-0.017318439
245	0xbd01334f	-0.031543072
246	0xbe3b1c0a	-0.18272415
247	0xbc440df7	-0.01196622
248	0x3c2ee10c	0.010673773
249	0x3ca308b3	0.019901609
250	0x3d803f9c	0.062621325
251	0xbdaedaad	-0.08537803
252	0xbd8a5365	-0.067541875
253	0x3d644a6f	0.055735048
254	0xbd201b1e	-0.03908836
255	0x3b8c888d	0.004288739

lstm.bias_ih_l0 f4 [476]
0	0xbe021699	-0.12703933
1	0xbe05fd95	-0.13085015
2	0x3d04c574	0.03241487
3	0x3bbab918	0.0056983344
4	0x3db456b8	0.08805603
5	0xbe34b762	-0.1764808
6	0xbe944383	-0.28957757
7	0xbde53d03	-0.11193278
8	0x3e645540	0.22298145
9	0x3c9b2b27	0.018941475
10	0xbdb389da	-0.087665275
11	0x3d98102f	0.07424962
12	0xbe9451a1	-0.28968528
13	0xbdb43c53	-0.088005684
14	0xbc46e4a7	-0.012139476
15	0xbe4aaea2	-0.1979318
16	0xbde008b5	-0.10939161
17	0xbe1e502d	-0.15460272
18	0xbd834d62	-0.06411244
19	0xbdde391a	-0.10850735
20	0xbe7ab9e3	-0.24484973
21	0xbe1b606c	-0.15173501
22	0x3c162a25	0.0091653215
23	0xbe8d1a3a	-0.27559072
24	0xbdd911d4	-0.105991036
25	0x3c03ec55	0.008051951
26	0xbe57b271	-0.21064164
27	0xbdfcec5f	-0.12349772
28	0xbc8203ed	-0.015871013
29	0x3bf3c3e4	0.0074391235
30	0xbe191069	-0.14947666
31	0xbc8dc086	-0.017303716
32	0xbe9c3469	-0.30508736
33	0xbddd45f2	-0.10804357
34	0xbb2b5fa1	-0.0026149529
35	0x3efd75dc	0.49503982
36	0xbd23f78e	-0.04003101
37	0xbdefd07c	-0.11709687
38	0x3eb38f70	0.35070372
39	0xbe0fba0d	-0.14035816
40	0xbe1a3936	-0.15060887
41	0xbd80fba2	-0.06297995
42	0xbe137e0e	-0.14403555
43	0xbdb3351e	-0.08750366
44	0x3e3bfc3d	0.1835794
45	0xbe4c4424	-0.19947869
46	0x3e93c301	0.28859714
47	0xbdeabed7	-0.11462181
48	0xbd8fb009	-0.07015998
49	0xbe1b7aea	-0.15183607
50	0xbe4dcd43	-0.20097832
51	0xbe706cb1	-0.23478962
52	0xbe0d9abf	-0.13828562
53	0xbe20c992	-0.15701893
54	0xbb93e458	-0.0045133047
55	0xbe4c0077	-0.19922052
56	0xbdbc4ede	-0.0919473
57	0x3e02d987	0.12778293
58	0xbdbc37c3	-0.09190323
59	0xbdf150ea	-0.11783011
60	0xbeb8db00	-0.36104584
61	0xbdcb85a1	-0.09937597
62	0xbe389dae	-0.180289
63	0x3d0672b7	0.032824244
64	0xbc96e78f	-0.018420963
65	0x3e028904	0.1274758
66	0xbde12713	-0.10993781
67	0xbe0424c3	-0.12904648
68	0xbd51ec97	-0.05125102
69	0x3bbd1045	0.0057697617
70	0xbe0a569c	-0.13509601
71	0xbdab4a88	-0.08363825
72	0x3d636d70	0.05552429
73	0xbde19b10	-0.11015904
74	0x3c084041	0.008316101
75	0xbe023656	-0.1271604
76	0xbe00ece5	-0.12590368
77	0xbe84b459	-0.25918844
78	0x3ec52e00	0.38511658
79	0xbd1785cf	-0.036992844
80	0x3bdb5989	0.006694023
81	0xbe311eca	-0.17296901
82	0xbddbb4a9	-0.107278176
83	0xbd8f3ea1	-0.069943674
84	0xbde5cc15	-0.11220566
85	0xbb4a3b65	-0.0030858156
86	0xbe14cd30	-0.14531398
87	0x3d45d900	0.04830265
88	0xbdf1f52b	-0.1181434
89	0xbe1eb3a6	-0.15498218
90	0xbddc9f74	-0.10772601
91	0x3deda58a	0.1160384
92	0xbe9d12dc	-0.3067845
93	0xbc81d984	-0.01585079
94	0xbe23bd42	-0.15990165
95	0xbe57c9ba	-0.21073046
96	0xbe8425da	-0.25810128
97	0xbbdc4437	-0.006721999
98	0x3e3bdba3	0.18345504
99	0xbdc5d935	-0.096605696
100	0xbe565caf	-0.20933793
101	0x3d8f2559	0.069895454
102	0x3e8d93eb	0.27651915
103	0xbd037477	-0.03209349
104	0x3df8d478	0.121499
105	0xbe1eedc9	-0.15520395
106	0xbd9e9adf	-0.07744383
107	0xbd6cfd7c	-0.05785893
108	0x3c9f690f	0.019459276
109	0xbdc38532	-0.09546889
110	0xbdd60885	-0.10450844
111	0x3ca78d72	0.020453189
112	0x3d241fb5	0.0400693
113	0xbd834683	-0.064099334
114	0xbe3b963d	-0.1831903
115	0xbc3aab77	-0.0113934195
116	0xbd550847	-0.052009847
117	0xbd42f2d9	-0.04759488
118	0xbda85491	-0.08219255
119	0xbe948006	-0.29003924
120	0xbd0dae84	-0.03459026
121	0xbe65b53c	-0.22432417
122	0xbd351d73	-0.044217538
123	0xbe003c69	-0.12523045
124	0xbe78b955	-0.24289449
125	0xbe0e6fbe	-0.13909814
126	0xbdeaf7e7	-0.11473065
127	0xbc361f46	-0.011115855
128	0xbe521ad1	-0.20518042
129	0xbd473df4	-0.048643067
130	0x3c0a5e73	0.00844537
131	0xbe076913	-0.13223676
132	0xbd30270e	-0.043005995
133	0xbcde3281	-0.027123692
134	0xbe65f247	-0.22455703
135	0xbe32bb15	-0.17454179
136	0xbc06fef2	-0.008239495
137	0xbdacdfca	-0.08441122
138	0xbda7185e	-0.081589445
139	0xbe5b3898	-0.21408308
140	0xbd63d30e	-0.0556212
141	0xbe40f6d1	-0.18844153
142	0xbe279ff6	-0.16369614
143	0xbc8ade16	-0.016951602
144	0xbda84469	-0.08216173
145	0xbe83ac36	-0.25717324
146	0xbd65f4ec	-0.05614178
147	0xbdaae8ef	-0.0834521
148	0xbdc29c1b	-0.09502431
149	0xbe257973	-0.1615961
150	0xbe18fe7f	-0.14940833
151	0xbe7b70e9	-0.2455479
152	0xbc701dcf	-0.014655544
153	0xbb0e31da	-0.0021697194
154	0xbce00c34	-0.027349569
155	0x3da713ab	0.08158048
156	0xbd4711bc	-0.048600897
157	0xbdd15095	-0.10220448
158	0x3d1a7b73	0.037715387
159	0xbe0487d7	-0.12942444
160	0xbda419e8	-0.08012754
161	0xbe072470	-0.13197494
162	0xbdcae18f	-0.09906303
163	0x3ccfa9d4	0.025349535
164	0xbe360e67	-0.17778932
165	0x3c6f9674	0.014623273
166	0x3cbc5810	0.02299121
167	0x3c99c847	0.018772257
168	0x3d72a003	0.05923463
169	0xbe4fdf0c	-0.2029993
170	0xbe7b6ea3	-0.24553923
171	0xbe6deb3d	-0.23234268
172	0xbd4ebecf	-0.050474938
173	0x3d74f3d1	0.059802834
174	0xbe076828	-0.13223326
175	0x3d0ac70b	0.03388123
176	0x3daa6e32	0.08321799
177	0xbe364a30	-0.17801738
178	0xbd49083a	-0.04908011
179	0xbe1b7ad0	-0.15183568
180	0xbe9e5d5a	-0.30930597
181	0xbe06591c	-0.1311993
182	0xbcd58843	-0.026065951
183	0xbc2422c5	-0.010018055
184	0xbdd485e4	-0.103771
185	0x3d65780b	0.056022685
186	0xbe41d37c	-0.18928331
187	0x3c52d095	0.012867113
188	0x3d982612	0.07429136
189	0x3b6bef2c	0.0036000712
190	0xbd8f3dda	-0.06994219
191	0xbdf8127e	-0.12112902
192	0xbd487a20	-0.048944592
193	0xbd19e1a4	-0.037568703
194	0xbe03d48a	-0.12874046
195	0xbda7b561	-0.08188892
196	0xbe384744	-0.17995936
197	0xbd5cf919	-0.053948496
198	0x3c859c0f	0.016309766
199	0xbe48f569	-0.19624867
200	0xbe170fa1	-0.14752056
201	0xbd564b4d	-0.052317906
202	0xbe30ca8e	-0.17264768
203	0xbe0ca5ce	-0.13735124
204	0xbe2e7b71	-0.17039277
205	0xbe27f24d	-0.16401024
206	0xbd8c35e2	-0.06846215
207	0xbc87224e	-0.01649585
208	0x3cd4125a	0.025887657
209	0xbda655bf	-0.081218235
210	0x3c346c75	0.011012186
211	0xbe684681	-0.22683145
212	0x3d29ff6e	0.041503362
213	0x3cbf694f	0.023365645
214	0xbdfb1e59	-0.12261648
215	0xbe92b306	-0.2865221
216	0x3d7a9155	0.061173756
217	0xbd1440c7	-0.03619459
218	0xbd99a379	-0.07501883
219	0xbce56e05	-0.028006563
220	0xbd9c9312	-0.07645239
221	0xbcaa2b4b	-0.020772597
222	0xbd64c347	-0.055850293
223	0xbd476096	-0.048676096
224	0xbdb543bb	-0.08850809
225	0x3cd05d89	0.025435226
226	0xbb6bd301	-0.0035983922
227	0x3ced3026	0.028953623
228	0x3d6f5498	0.058430284
229	0x3b634027	0.003467569
230	0xbd83353c	-0.06406638
231	0xbc8783d7	-0.016542358
232	0xbd7c66c5	-0.061621446
233	0xbdddfabf	-0.10838842
234	0xbd792899	-0.060829733
235	0xbe09167a	-0.1338748
236	0xbde166fc	-0.11005971
237	0xbd5a037a	-0.05322597
238	0xbd8ae906	-0.06782727
239	0xbd4dc128	-0.050233036
240	0x3d97eeac	0.0741857
241	0xbcf188c6	-0.029484164
242	0x3ccbbc2a	0.024869997
243	0x3c74e154	0.014946301
244	0x3cf4b6a1	0.02987224
245	0xbcd9117d	-0.026497597
246	0xbd1f85fd	-0.03894614
247	0xbc56b536	-0.0131047275
248	0xbb5da60f	-0.0033820902
249	0x3c0dd5ca	0.008656928
250	0xbcb3cc29	-0.021947937
251	0xbd339b5c	-0.043849334
252	0xbcb7c526	-0.022432875
253	0x3d5b8308	0.053591758
254	0x3ce42cf9	0.027853476
255	0x3ce2e1cc	0.027695559

lstm.bias_hh_l0 f4 [476]
0	0xbe543b29	-0.20725693
1	0xbe2f70b2	-0.17132834
2	0x3e018f9b	0.12652437
3	0xbd6463ff	-0.055759426
4	0x3cf6f51f	0.03014618
5	0xbe38e39d	-0.18055578
6	0xbe178ffd	-0.14801021
7	0x3b8869a6	0.004162985
8	0x3e8564f0	0.26053572
9	0x3d1ebad7	0.038752403
10	0xbdfebe72	-0.12438668
11	0x3c6455c3	0.013936463
12	0xbe40b6ca	-0.18819728
13	0x3d92f1b9	0.07175011
14	0xbbe93230	-0.0071165785
15	0xbe6f96d4	-0.2339738
16	0xbe80ccc8	-0.25156236
17	0xbdce822f	-0.10083424
18	0xbdf97419	-0.12180347
19	0xbe042fcd	-0.1290886
20	0xbe112cbb	-0.1417722
21	0xbe03cfe5	-0.12872274
22	0xbda550cf	-0.08072054
23	0xbe55031a	-0.20801964
24	0xbdd751e4	-0.10513666
25	0xbca4b51c	-0.02010589
26	0xbe999778	-0.29998374
27	0xbde5f3e4	-0.11228159
28	0xbe1612b1	-0.14655568
29	0xbdaf5043	-0.085602306
30	0xbe8143e1	-0.252471
31	0xbdbcceda	-0.09219141
32	0xbe7dde77	-0.24791895
33	0xbe4c05b9	-0.19924058
34	0xbe168641	-0.14699651
35	0x3ef3e336	0.47634286
36	0xbe1a50c8	-0.15069878
37	0xbe057b0a	-0.13035217
38	0x3ed54ba0	0.4165926
39	0xbe1f1699	-0.15535964
40	0xba84df4a	-0.0010137346
41	0xbd157d1a	-0.03649626
42	0xbd9023d6	-0.07038085
43	0xbe3a2d8b	-0.18181436
44	0x3e43a2cd	0.19105072
45	0xbe297a49	-0.16550554
46	0x3e530c79	0.20610227
47	0xbcd1a951	-0.025593432
48	0xbe3f102b	-0.18658511
49	0xbe103784	-0.14083678
50	0xbea2c946	-0.31794184
51	0xbe8c4af2	-0.2740093
52	0xbe0649aa	-0.13114038
53	0xbd94ac9f	-0.07259487
54	0x3d671850	0.05641967
55	0xbe1f70f8	-0.15570438
56	0xbd3a5605	-0.04549219
57	0x3e51cc3f	0.2048807
58	0xbe000bd2	-0.12504509
59	0x3d11def9	0.035613034
60	0xbeb28e32	-0.3487411
61	0xbd9c9eec	-0.076474994
62	0xbe4a9616	-0.19783816
63	0x3d991262	0.07474209
64	0x3d1b6e6b	0.0379471
65	0x3cba8583	0.022768741
66	0x3b8d6a57	0.004315655
67	0xbdd1ac34	-0.10237923
68	0xbcea51a8	-0.02860339
69	0xbd3415da	-0.04396615
70	0xbd8b4234	-0.067997366
71	0x3d0be46f	0.034153398
72	0x3cec0d4b	0.028814932
73	0x3ce9aadd	0.028523857
74	0x3be6e735	0.007046605
75	0xbdaf7459	-0.085671134
76	0xbe3faa1b	-0.18717234
77	0xbe131aea	-0.14365736
78	0x3ed15b2a	0.40889865
79	0x3dd3fa04	0.10350421
80	0xbd99c783	-0.07508757
81	0xbde192e7	-0.110143475
82	0x3cc5fe38	0.024169073
83	0xbe108cba	-0.14116183
84	0xbe2c64df	-0.16835354
85	0x3d2ae7ea	0.041725077
86	0xbe407406	-0.1879426
87	0xbd2e49ee	-0.042550974
88	0xbe0004c8	-0.12501824
89	0x3cad5285	0.021157512
90	0xbc37747c	-0.011197206
91	0xbca50112	-0.020142112
92	0xbe84050a	-0.25785094
93	0x3c4479b6	0.011991909
94	0xbdbff4b5	-0.09372846
95	0xbdab3090	-0.08358872
96	0xbe9f306e	-0.31091636
97	0xbe069ab2	-0.13144949
98	0x3dde20c9	0.10846097
99	0xbddda951	-0.1082331
100	0xbe6b8102	-0.22998431
101	0x3db64633	0.08900108
102	0x3ebcba7b	0.36861023
103	0xbd0903d5	-0.03345092
104	0x3d28aaaa	0.041178383
105	0xbe64285b	-0.2228102
106	0xbdd8a865	-0.10578994
107	0x3d395dc2	0.04525543
108	0xbca9eaeb	-0.0207419
109	0xbd8cd821	-0.06877161
110	0xbddb9781	-0.107222565
111	0xbdc5eb88	-0.09664065
112	0xbd13445e	-0.035953872
113	0xbc7337e0	-0.014844865
114	0xbdcf9fbe	-0.1013789
115	0xbd4c3aff	-0.04986095
116	0xbe00e394	-0.12586814
117	0xbe114af6	-0.14188752
118	0xbdaec4d1	-0.085336335
119	0xbeb570dc	-0.35437667
120	0xbc374d32	-0.011187838
121	0xbe4e7b7a	-0.2016429
122	0xbde9c4f7	-0.11414521
123	0xbdb4af8b	-0.08822545
124	0xbe8e9785	-0.27849975
125	0xbe6c3a6a	-0.23069158
126	0xbd92b0c3	-0.07162621
127	0xbd680eba	-0.05665467
128	0xbe2d16a5	-0.1690317
129	0x3d7f0694	0.062262133
130	0xbcab5e00	-0.020918846
131	0xbe105c95	-0.14097817
132	0xbc4033f2	-0.011731135
133	0xbdd8594d	-0.10563908
134	0xbe89f652	-0.2694574
135	0xbe3ab779	-0.18234052
136	0xbdaaee8d	-0.08346281
137	0xbdc6d446	-0.09708457
138	0x3c040824	0.0080585815
139	0xbe4db7de	-0.20089671
140	0xbe1f6448	-0.15565598
141	0xbe2b06c5	-0.16701801
142	0xbe9d7337	-0.30751964
143	0xbd7519d7	-0.059839096
144	0x3cf4362e	0.029810991
145	0xbe4bfbc1	-0.19920255
146	0xbdedb9f1	-0.11607731
147	0x3c42f98f	0.01190032
148	0xbe15565e	-0.14583728
149	0xbe1c30c7	-0.15252982
150	0xbe10acd1	-0.14128424
151	0xbe7a1afd	-0.24424358
152	0xbd377917	-0.044793215
153	0xbdee0ba9	-0.11623318
154	0xbdc445d3	-0.095836304
155	0x3cd14848	0.025547162
156	0xbdb137fa	-0.08653255
157	0xbd61a58b	-0.055089515
158	0xbada34f8	-0.0016647866
159	0xbdde4663	-0.10853269
160	0x3d7df233	0.061998557
161	0xbd7d1f50	-0.06179744
162	0xbd6ea18f	-0.058259543
163	0xbd77724e	-0.060411744
164	0xbe1512bc	-0.14557928
165	0xbdcf7ea5	-0.101315774
166	0xbe05e61d	-0.13076063
167	0x3d2657d5	0.040611107
168	0xbd7680e3	-0.06018151
169	0xbe3fd2da	-0.18732777
170	0xbe25a13b	-0.16174786
171	0xbe4900fb	-0.1962928
172	0xbe0dbabc	-0.13840765
173	0x3dccfc22	0.10009028
174	0xbe061cea	-0.13096967
175	0xbc779b71	-0.015112744
176	0x3d5c26ef	0.053748067
177	0xbdbe1525	-0.09281377
178	0x3c0be4c2	0.008538427
179	0xbe696285	-0.22791488
180	0xbe80487c	-0.250553
181	0xbe031591	-0.12801196
182	0xbe05e01c	-0.13073772
183	0x3d83ad27	0.064295106
184	0x3d09db77	0.033656564
185	0x3d7555e5	0.05989637
186	0xbe3a94a0	-0.18220758
187	0x3d1705ce	0.03687077
188	0xbd91b4fa	-0.07114597
189	0xbd61512d	-0.055009056
190	0x3bb6b855	0.0055761733
191	0xbca7d7f3	-0.020488715
192	0xbd41d19a	-0.047319032
193	0xbd7af2da	-0.061266758
194	0xbe026e43	-0.12737374
195	0xbd8c51dd	-0.06851552
196	0xbdd72922	-0.10505892
197	0xbd656a31	-0.056009475
198	0xbdd78d5d	-0.1052501
199	0xbe20d5e9	-0.157066
200	0xbe23af60	-0.15984869
201	0xbdbe7ede	-0.09301542
202	0xbe267769	-0.16256489
203	0xbc56e71f	-0.013116627
204	0xbe0ba6eb	-0.13637893
205	0xbe017a38	-0.12644279
206	0xbdf64ffa	-0.12026973
207	0xbdffb237	-0.12485164
208	0xbd7a6121	-0.061127786
209	0xbdb61d35	-0.088922895
210	0x3de69a6a	0.11259921
211	0xbe2434e9	-0.16035809
212	0xbdd9c311	-0.10632909
213	0xbde9ff55	-0.11425654
214	0xbd37ca6e	-0.044870786
215	0xbe8599d3	-0.2609392
216	0x3d11d39f	0.03560221
217	0xbdae7778	-0.085188806
218	0xba4909be	-0.0007668993
219	0xbbd0c818	-0.0063715093
220	0x3c8f803f	0.017517207
221	0xbd9aee59	-0.075649925
222	0xbcd7b276	-0.026330214
223	0xbd8aa8e7	-0.06770497
224	0xbe022968	-0.12711108
225	0xbc255cd8	-0.010092936
226	0xbd7b4d0f	-0.061352786
227	0xbd1d6902	-0.03843022
228	0xbc5e6226	-0.013573205
229	0xbd454674	-0.048162892
230	0xbccdf726	-0.025142264
231	0xbd8f8c3a	-0.07009168
232	0x3d0708f4	0.032967523
233	0xbe04b1af	-0.12958406
234	0x3dba5190	0.09097588
235	0x3c0f8112	0.0087588
236	0x3c417467	0.011807538
237	0x3d42140e	0.047382407
238	0x3d33f9e1	0.043939475
239	0x3cb6944f	0.022287516
240	0xbd239812	-0.039939947
241	0x3c74ccc8	0.014941402
242	0xba0abd83	-0.00052925217
243	0xbc1abdb4	-0.009444643
244	0xbd2f3087	-0.04277089
245	0x3c41d9d6	0.011831721
246	0xbcdca4d3	-0.026934063
247	0xbc66f300	-0.014096022
248	0x3cbf17d0	0.023326784
249	0xbd29fd5b	-0.041501384
250	0x3d07c9b9	0.033151362
251	0x3c7b06e0	0.015321463
252	0x3b71c64d	0.0036891878
253	0xbce66a11	-0.028126748
254	0xbcb13acf	-0.021634487
255	0xbd505625	-0.050863404

lstm.weight_ih_l0_reverse f4 [476, 1]
0	0xbc8290eb	-0.015938243
1	0x3caa1f17	0.020766778
2	0x3cb73d40	0.022368073
3	0xbe2b2113	-0.16711836
4	0xbbed19de	-0.0072357496
5	0xbd5e464c	-0.05426626
6	0x3e0afa03	0.13571934
7	0xbe0b7836	-0.13620076
8	0xbe8e986a	-0.27850658
9	0xbe1e0f3f	-0.15435503
10	0x3dae1a37	0.08501094
11	0xbc6af1eb	-0.014339904
12	0xbab9b0d7	-0.0014167082
13	0xbd8963a0	-0.06708455
14	0x3cb50417	0.022096677
15	0xbd6bcffe	-0.057571404
16	0xbd12da50	-0.03585273
17	0xbd532a52	-0.05155403
18	0x3d6dde13	0.058073115
19	0x3e11718f	0.14203475
20	0x3dd40aa0	0.10353589
21	0x3d0ed175	0.034867723
22	0x3d375164	0.044755355
23	0xbdb3ee35	-0.08785669
24	0xbd8f674f	-0.070021264
25	0xbcbf239a	-0.023332406
26	0xbdf605f5	-0.12012855
27	0xbdfac64e	-0.12244855
28	0xbe990324	-0.2988521
29	0x3d70cfd1	0.05879194
30	0xbe1e507a	-0.15460387
31	0x3e3098b6	0.17245755
32	0xbc06349e	-0.008191256
33	0xbcc96ba0	-0.024587452
34	0xbca75378	-0.020425543
35	0x3e806c81	0.25082782
36	0xbe0a4d2c	-0.13506001
37	0xbe27694a	-0.16348758
38	0xbd3d21e3	-0.046174895
39	0x3e8bc05f	0.27295205
40	0x3d5ea11b	0.05435286
41	0x3e699f8d	0.2281477
42	0xbe966f28	-0.2938168
43	0x3b891526	0.0041834293
44	0x3e42746b	0.18989722
45	0x3ce405f3	0.027834868
46	0x3ebe4636	0.37162942
47	0xbe041378	-0.12898052
48	0x3cffae70	0.031211108
49	0x3eb66629	0.35624817
50	0xbe8d7862	-0.27630907
51	0xbd6a07fb	-0.057136517
52	0x3cc56e83	0.024100548
53	0x3dbc4d84	0.091944724
54	0x3bc2df29	0.005947013
55	0xbdfba5e1	-0.12287498
56	0x3e65be37	0.22435842
57	0x3ec5ad6c	0.38608873
58	0xbcd51a49	-0.02601351
59	0x3e20414b	0.15649907
60	0xbe9b7aaa	-0.30367023
61	0xbd0a14c3	-0.033711206
62	0x3dd4cd3b	0.10390707
63	0xbd87820c	-0.06616601
64	0xbd674ffb	-0.05647276
65	0x3da6862d	0.08131061
66	0xbcaf49a3	-0.021397417
67	0x3c091319	0.00836637
68	0x3c0b1d53	0.008490878
69	0xbd949f07	-0.072568946
70	0x3e0798f8	0.13241947
71	0x3d53d3d4	0.051715687
72	0x3d22f001	0.039779667
73	0x3e21018d	0.15723248
74	0x3defb034	0.1170353
75	0xbd532ea8	-0.051558167
76	0xbdd3ebd7	-0.10347717
77	0xbd989ad4	-0.07451406
78	0x3db378d9	0.08763284
79	0x3e7f809f	0.24951409
80	0x3d082966	0.033242606
81	0x3cc53e35	0.024077514
82	0x3df8f7a0	0.12156606
83	0x3d8b95fd	0.06815717
84	0xbdb82b65	-0.08992652
85	0x3dc47c28	0.095939934
86	0x3c0be06c	0.008537393
87	0x3dbbf1ad	0.09176955
88	0x3dc025ac	0.09382185
89	0xbd55394e	-0.052056603
90	0xbd3481cf	-0.044069108
91	0x3de2bfa6	0.1107171
92	0x3c6ba32f	0.014382168
93	0xbeabd474	-0.33560526
94	0xbc5c400e	-0.013443006
95	0xbe83fb3c	-0.25777614
96	0x3d01a1cb	0.03164844
97	0xbd6f7700	-0.058463097
98	0x3d96f0b0	0.07370126
99	0xbd50e745	-0.051001806
100	0x3c0b4e91	0.008502618
101	0xbea6d7d2	-0.32586533
102	0x3e52f483	0.20601086
103	0x3ef1d048	0.47229218
104	0x3d833db9	0.06408257
105	0xbddbda9b	-0.10735055
106	0xbd9eb61c	-0.07749578
107	0x3d181fdc	0.03713976
108	0xbc5b402a	-0.013381997
109	0xbcb61e8c	-0.022231363
110	0xbbfd69f0	-0.007733576
111	0x3d604488	0.054752856
112	0xbc57dea5	-0.013175641
113	0x3e02ce51	0.12774016
114	0xbe1a3a37	-0.1506127
115	0x3dc12027	0.09429961
116	0x3eb42f00	0.35192108
117	0xbd96f684	-0.07371238
118	0x3d35c96f	0.044381555
119	0xbc0e201c	-0.008674648
120	0xbcefb9f5	-0.029263476
121	0x3d19f124	0.037583485
122	0xbd3f8852	-0.046760865
123	0xbd395931	-0.045251075
124	0xbcf7cbd0	-0.030248553
125	0x3df78ea5	0.12087754
126	0xbd1244f0	-0.035710275
127	0xbcf422a1	-0.029801669
128	0xbe6d2cd8	-0.23161638
129	0x3d9d7185	0.07687668
130	0xbcca6ae7	-0.024709178
131	0x3db9601a	0.09051533
132	0x3d60807d	0.054810036
133	0xbc2ff095	-0.010738512
134	0xbd273538	-0.040822238
135	0x3d896614	0.06708923
136	0x3e01aab7	0.12662779
137	0x3e0f8b19	0.14017905
138	0xbe05e324	-0.13074929
139	0x3ca7c4cd	0.020479584
140	0x3dfac98c	0.12245473
141	0x3ce389b9	0.027775632
142	0xbd3f7fc8	-0.04675272
143	0xbd8e968a	-0.06962307
144	0x3d13497a	0.035958745
145	0x3ca0a49c	0.019609742
146	0x3cec7a0d	0.028866792
147	0xbeb3e035	-0.35131994
148	0x3dd02422	0.10163142
149	0x3d4f6162	0.05062998
150	0x3e4f842f	0.20265268
151	0xbd93292b	-0.071855865
152	0x3dbccd01	0.09218789
153	0x3d5f0ae0	0.05445373
154	0x3e5a51be	0.21320245
155	0xbe22a2cd	-0.15882416
156	0xbcc88361	-0.024476709
157	0x3da70096	0.08154409
158	0xbd71bb63	-0.059016597
159	0x3dc47df2	0.09594335
160	0xbdbb411d	-0.09143279
161	0xbe9d0dae	-0.306745
162	0x3d77056d	0.06030791
163	0x3dc580e7	0.09643727
164	0x3c7ddccd	0.015494538
165	0x3e2cafef	0.16863988
166	0x3b02341a	0.001986748
167	0x3d1e4c90	0.038647234
168	0x3dc416b9	0.095746465
169	0xbd43401b	-0.047668558
170	0x3c08e67e	0.008355735
171	0x3d9e05f9	0.07715983
172	0x3dbb4981	0.09144879
173	0x3e03c25c	0.12867111
174	0x3bb70b7a	0.005586085
175	0xbc508021	-0.012725861
176	0x3dde668d	0.10859404
177	0x3d65ef55	0.056136448
178	0x3db5d29f	0.088780634
179	0xbe245335	-0.16047366
180	0x3dfd7945	0.12376646
181	0xbd950a1c	-0.07277319
182	0xbbfe22eb	-0.0077556274
183	0xbdc5ef4f	-0.09664785
184	0x3db19ab2	0.08672084
185	0xbe237ee6	-0.15966377
186	0x3dfc9d2f	0.12334668
187	0x3cada2c9	0.021195786
188	0x3d6e805b	0.058227878
189	0xbbb7df8b	-0.005611365
190	0x3db46ce6	0.08809833
191	0x3bc8e172	0.006130391
192	0x3d1d80ba	0.03845284
193	0x3dd1a24a	0.10236032
194	0x3cf46cbe	0.029837009
195	0xbdc4ea75	-0.09615032
196	0x3d973f23	0.07385089
197	0xbde4a20a	-0.11163719
198	0xbcfa1d8a	-0.030531663
199	0x3d3fc43a	0.046817996
200	0x3e0dfefd	0.13866802
201	0x3da24a00	0.07924271
202	0x3e073dca	0.13207164
203	0xbd13be13	-0.03606994
204	0x3cb74702	0.022372726
205	0x3da295eb	0.07938751
206	0x3d14103e	0.036148302
207	0xbe123f3b	-0.14281933
208	0xbb878ed1	-0.004136898
209	0x3c022b4e	0.007944895
210	0x3d0aeb88	0.033916026
211	0x3d032cda	0.032025196
212	0xbe7e35c2	-0.24825194
213	0xbd11a2c0	-0.0355556
214	0xbdcd6dbe	-0.10030697
215	0xbd0e9752	-0.03481228
216	0x3d8b1bd7	0.067924194
217	0x3db897cb	0.09013327
218	0x3db4450f	0.088022344
219	0x3c94e936	0.01817761
220	0x3d311356	0.04323133
221	0xbdc82c52	-0.097740784
222	0x3e05e421	0.13075306
223	0x3e0d9464	0.13826138
224	0xbda5a4f2	-0.080881014
225	0x3dbabd04	0.09118083
226	0x3d94fbbe	0.072745785
227	0x3cf8507a	0.030311812
228	0x3df61132	0.120149985
229	0x3db3e226	0.08783369
230	0x3d456e8a	0.04820112
231	0xbc7ec08e	-0.015548838
232	0x3d592868	0.05301705
233	0xbdad6b22	-0.084676996
234	0xbc09ccad	-0.008410615
235	0x3dba085a	0.09083624
236	0xbd3b4ac4	-0.0457256
237	0x3d16d2d5	0.03682216
238	0x3dfdd32f	0.12393796
239	0x3e4387dd	0.19094796
240	0xbe138af6	-0.14408478
241	0xbd325a3f	-0.043543097
242	0xbe1d78ab	-0.15378062
243	0xbe3c1d89	-0.18370642
244	0x3e2a329e	0.16620871
245	0x3e8bef03	0.2733079
246	0x3e936b24	0.2879268
247	0x3eab668d	0.33476678
248	0xbe9bd78d	-0.3043789
249	0x3e482155	0.19543965
250	0xbe12eb01	-0.1434746
251	0x3e8b84b0	0.2724967
252	0x3e32b871	0.17453171
253	0x3da774a8	0.08176547
254	0xbe3a59f5	-0.18198378
255	0xbdf23d11	-0.11828054

lstm.weight_hh_l0_reverse f4 [476, 119]
0	0x3cf09954	0.029369988
1	0xbde8b175	-0.11361972
2	0x3c81835e	0.015809711
3	0xbd20ea42	-0.039285906
4	0xbb7dfa0e	-0.003875378
5	0x3da32b42	0.07967235
6	0x3ca70f65	0.020393083
7	0x3b1cbcf0	0.0023916326
8	0x3dd630e6	0.104585454
9	0xbdad9b60	-0.08476901
10	0xbd3968ed	-0.04526608
11	0x3c089b03	0.008337739
12	0xbd93fad1	-0.07225574
13	0xbd724cf5	-0.059155423
14	0xbd0cdde0	-0.034391284
15	0xbc14392c	-0.009046834
16	0x3dbfa7b3	0.09358158
17	0xbd386c42	-0.045025118
18	0x3d4cea6e	0.050028257
19	0x3da14675	0.07874767
20	0xbbfb9d8f	-0.0076786946
21	0xbc1ef2fa	-0.009701485
22	0x3d01342c	0.031543896
23	0xbda1ebd7	-0.07906311
24	0xbdd23b78	-0.10265249
25	0xbcebd8d1	-0.02878991
26	0xbdfdee4b	-0.123989664
27	0x3d787c60	0.06066549
28	0xbd2b121f	-0.04176533
29	0xbcb6e7f7	-0.022327406
30	0xbd2806ed	-0.04102223
31	0x3c025daf	0.007956906
32	0xbd11ee95	-0.03562792
33	0x3cc046f2	0.02347133
34	0x3d8fd23b	0.0702252
35	0xbe1933b0	-0.14961123
36	0xbdaaff61	-0.08349491
37	0xbd5feb4d	-0.05466776
38	0x3d55494c	0.052071854
39	0x3d3e6dea	0.04649154
40	0x3d450783	0.048102867
41	0x3d310d6b	0.043225687
42	0x3cc5d8b5	0.024151186
43	0x3d848628	0.06470901
44	0x3e2418f7	0.16025148
45	0x3c078522	0.008271487
46	0xbaa8e54d	-0.001288572
47	0xbdc0e337	-0.09418338
48	0xbb818b2f	-0.0039533596
49	0xba4d1cf6	-0.0007824445
50	0x3cc21f70	0.023696631
51	0x3d011996	0.03151854
52	0xbc04fa43	-0.008116308
53	0xbd98d09a	-0.074616626
54	0x3dbf8011	0.093505986
55	0xbdc506d1	-0.09620441
56	0xbc350fdb	-0.0110511435
57	0xbd80b5d5	-0.06284682
58	0xbbb86827	-0.0056276503
59	0x3d9ed1ac	0.077548355
60	0x3d388d19	0.045056436
61	0x3d8d6984	0.06904891
62	0xbc93bf91	-0.018035682
63	0xb9a4914c	-0.00031388772
64	0xbcfc2b8f	-0.03078249
65	0xbdbd6579	-0.0924787
66	0x3d8c34cc	0.06846008
67	0xbdc7f682	-0.097638145
68	0xb8e87050	-0.00011083542
69	0xbcd43500	-0.025904179
70	0xbcb6fe12	-0.022337947
71	0x3dc58ab6	0.09645598
72	0x3d14da50	0.03634101
73	0xbca012f6	-0.019540291
74	0xbde3630f	-0.11102878
75	0xbd7c75bb	-0.061635714
76	0x3dc7b1d9	0.097507186
77	0x3d8c4210	0.06848538
78	0xbdd71a92	-0.10503115
79	0xbdae4db0	-0.085109115
80	0x3d02b286	0.031908534
81	0x3d2dece9	0.042462263
82	0xbc370c1f	-0.0111723235
83	0xbde2ebe1	-0.110801466
84	0xbd09ef94	-0.033675745
85	0x3da94b4b	0.08266314
86	0x3d686990	0.056741297
87	0x3d2e3918	0.042534918
88	0xbdfd3ac0	-0.12364721
89	0x3d1c25a7	0.038121846
90	0xb9d8cc26	-0.00041350833
91	0xbb89ce7f	-0.0042055245
92	0xbd18e8dd	-0.03733145
93	0x3d821e2d	0.06353412
94	0x3dcf9341	0.10135508
95	0x3dddb20f	0.108249776
96	0x3d6fc382	0.05853606
97	0xbd495ed1	-0.04916269
98	0x3dc9fea1	0.0986302
99	0xbd979a4b	-0.07402476
100	0x3c479e69	0.012183764
101	0xbc858a76	-0.016301375
102	0x3ce97520	0.028498232
103	0xbd0afdc0	-0.0339334
104	0x3d16bedf	0.036803123
105	0xbd784c17	-0.06061944
106	0x3b9dcc28	0.004815597
107	0x3bfaed36	0.0076576723
108	0xbd7bd2b7	-0.06148025
109	0xbb0d6060	-0.0021572337
110	0x3b177537	0.0023110637
111	0x3d235586	0.039876483
112	0xbdbc73a6	-0.09201746
113	0xbddc2c51	-0.1075064
114	0xbd947e02	-0.072505966
115	0xbdde294b	-0.1084772
116	0xbdf67e9f	-0.1203587
117	0xbc1e1fae	-0.009651108
118	0x3c07f71e	0.008298663
119	0xbd92a39a	-0.07160111
120	0xbd8e1fa8	-0.06939632
121	0xbd49b855	-0.04924806
122	0x3d52effa	0.05149839
123	0xbd0a7098	-0.033798784
124	0xbdd29e8c	-0.10284147
125	0xbd98b90a	-0.074571684
126	0xb8f612b1	-0.00011733676
127	0xbd6dab6e	-0.058024816
128	0xbdcb6d18	-0.09932917
129	0x3dc83aa4	0.0977681
130	0x3c862a24	0.016377516
131	0x3d70b906	0.058770202
132	0xbd2f5ce4	-0.042813197
133	0xbd07e4c5	-0.033177156
134	0x3c9ea195	0.019364158
135	0xbdd64416	-0.10462205
136	0xbcb7d200	-0.022439003
137	0xbc700846	-0.01465041
138	0x3e1b437c	0.15162462
139	0xbcebf710	-0.028804332
140	0x3ca2176f	0.019786565
141	0x3d8b28e0	0.06794906
142	0xbd8bf7ff	-0.06834411
143	0x3d5d5777	0.05403849
144	0xbd676041	-0.05648828
145	0xbbef6078	-0.007305201
146	0x3d5f50ea	0.054520525
147	0x3d2709a7	0.04078069
148	0x3d3ae349	0.045626912
149	0xbd9184a4	-0.07105377
150	0x3bcafe79	0.0061948863
151	0x3d16b130	0.036790073
152	0x3cd0ddca	0.025496382
153	0xbd98de26	-0.074642465
154	0x3d45a82d	0.048256088
155	0xbdb080af	-0.086182944
156	0x3d2db491	0.04240853
157	0x3d26411d	0.04058944
158	0xbdd8d1ba	-0.10586877
159	0xbd3764c1	-0.04477382
160	0xbdae5455	-0.08512179
161	0xbd80862c	-0.06275591
162	0x3d839596	0.06425016
163	0x3cab1faa	0.020889122
164	0x3dad7595	0.084696926
165	0x3d1ffbf6	0.039058648
166	0xbd9fc55a	-0.07801314
167	0x3d29fa6f	0.041498598
168	0x3daef0d8	0.08542031
169	0x3d2c5587	0.042073753
170	0xbd8485ac	-0.064708084
171	0x3d6af4ae	0.05736225
172	0xbd7e9bed	-0.06216042
173	0xbcd20735	-0.025638202
174	0xbda0097a	-0.078143075
175	0xbde6694e	-0.11250554
176	0xbd1f810b	-0.038941424
177	0x3dd159a1	0.102221735
178	0x3db7eb73	0.08980455
179	0x3d1dcc74	0.03852506
180	0x3d209a56	0.039209686
181	0x3d6a84d2	0.057255574
182	0xbcd38cce	-0.025823977
183	0x3d7811ec	0.060563967
184	0x3d960294	0.073247105
185	0xbda6b766	-0.08140449
186	0x3dab5f21	0.08367754
187	0x3db84057	0.08996647
188	0xbd95bc71	-0.07311333
189	0xbc449825	-0.011999165
190	0x3d329c45	0.04360606
191	0x3caf06e3	0.021365589
192	0x3b7c398c	0.003848645
193	0x3d7e941a	0.06215296
194	0x3d975515	0.07389275
195	0x3cf8c2f6	0.030366402
196	0xbca09144	-0.019600518
197	0xbd0b1dd9	-0.03396401
198	0xbd7e6b35	-0.06211396
199	0xbd45335a	-0.048144676
200	0xbd9022ab	-0.070378624
201	0x3ca5933c	0.020211808
202	0x3d5da801	0.0541153
203	0x3db340ca	0.08752592
204	0x3dbe802d	0.09301791
205	0xbd96747f	-0.073464386
206	0x3d5ecd39	0.054394934
207	0xbda46eb2	-0.08028926
208	0xbdd51483	-0.10404303
209	0xbda9fdac	-0.08300337
210	0x3d9554c3	0.07291558
211	0xbcd5dccb	-0.026106259
212	0xbc9f9796	-0.019481461
213	0x3d696a75	0.05698629
214	0xbd503c3c	-0.050838694
215	0x3d1c9e73	0.038237046
216	0x3cbecd73	0.023291325
217	0x3ca64236	0.020295244
218	0x3d143a54	0.03618844
219	0xbd010edd	-0.031508315
220	0x3d49200d	0.04910283
221	0x3dc72b57	0.09725063
222	0xbd4b6481	-0.049656395
223	0xbd583fd5	-0.05279525
224	0xbd10ae62	-0.035322554
225	0x3d91c47f	0.07117557
226	0xbc199770	-0.009374484
227	0xbd88d599	-0.066813655
228	0x3dac3c9f	0.0841
229	0x3b9cbfa2	0.0047835866
230	0x3d8783dd	0.06616948
231	0x3d4eba10	0.05047041
232	0x3db2138a	0.08695133
233	0x3dbf248e	0.09333144
234	0xbd736983	-0.059426796
235	0x3d038811	0.032112185
236	0xbda45e9c	-0.08025858
237	0xbdc14486	-0.09436898
238	0xbd066c4a	-0.032818116
239	0x3ccc39a0	0.024929821
240	0x3d228e9a	0.039686777
241	0xbde311b9	-0.11087365
242	0xbcd3a4d0	-0.025835425
243	0xbcdd01ee	-0.02697846
244	0xbc4c8ad5	-0.012484272
245	0xbdabc685	-0.08387474
246	0xbdc86534	-0.09784928
247	0x3d2f867e	0.04285287
248	0xbc9f0f60	-0.019416511
249	0x3ce4b807	0.027919782
250	0xbc68c1f1	-0.0142063955
251	0x3d1886e0	0.037238
252	0x3b237417	0.002494102
253	0x3d675fbb	0.05648778
254	0x3cce6756	0.025195759
255	0x3dc4977e	0.09599207

lstm.bias_ih_l0_reverse f4 [476]
0	0xbe02d44b	-0.12776296
1	0xbdf2ef02	-0.11861993
2	0xbe7af3a7	-0.24507008
3	0xbea823d5	-0.32839838
4	0xbd9ff493	-0.07810321
5	0xbcfedbce	-0.03111067
6	0xbda564f4	-0.08075896
7	0xbd9f9bc5	-0.077933826
8	0x3e1d0d81	0.15337183
9	0xbd91231c	-0.07086775
10	0xbe100f2f	-0.14068292
11	0x3e2ec7d5	0.17068417
12	0xbe43a543	-0.19106011
13	0xbba80b46	-0.005128297
14	0xbdb5901c	-0.08865377
15	0xbea2e845	-0.31817833
16	0xbe38649c	-0.1800713
17	0xbe0caa5c	-0.13736862
18	0xbd8fe255	-0.07025591
19	0x3e59629f	0.21229027
20	0xbde77cd8	-0.11303109
21	0xbdad2ebf	-0.08456182
22	0xbd081749	-0.03322533
23	0xbe00fd0b	-0.12596528
24	0xbd7ebfa7	-0.062194493
25	0xbd076647	-0.033056524
26	0xbebb3eb2	-0.3657127
27	0xbd80c6e4	-0.062879354
28	0x38981bd6	7.25311e-05
29	0xbe06ad6c	-0.13152093
30	0xbe9d4a56	-0.30720776
31	0xbd6cfe6e	-0.05785983
32	0xbdff4f92	-0.12466349
33	0xbe21019b	-0.15723269
34	0xbdea59c8	-0.11442906
35	0x3d97415f	0.073855154
36	0xbda81a19	-0.08208103
37	0xbec7cd28	-0.3902371
38	0x3d694433	0.056949805
39	0x39ca231a	0.00038554595
40	0xbe439850	-0.19101071
41	0xbe037943	-0.12839226
42	0x3c561ea8	0.013068832
43	0xbda8d2ab	-0.08243307
44	0x3c9bfecf	0.0190424
45	0xbe50df82	-0.20397761
46	0x3e82adff	0.25523373
47	0xbdc3bfd7	-0.09558075
48	0xbdafb864	-0.085800916
49	0x3dd5e3aa	0.10443814
50	0xbe586d01	-0.21135332
51	0xbe76ec20	-0.24113512
52	0xbe7224f7	-0.23646913
53	0x3c16341d	0.009167698
54	0x3d59cd3a	0.053174235
55	0xbe961a70	-0.29317045
56	0xbdb97f92	-0.09057535
57	0x3ee07d78	0.43845725
58	0xbe90490e	-0.28180736
59	0x3dc2192f	0.0947746
60	0x3c85af54	0.016318955
61	0xbdb89a19	-0.09013767
62	0xbdf5a48d	-0.11994276
63	0xbdcf13b1	-0.10111178
64	0xbd8c129b	-0.06839486
65	0xbd36b2f4	-0.044604257
66	0xbd84601e	-0.064636454
67	0xbe035ab2	-0.12827566
68	0x3d309e61	0.043119792
69	0xbdebb318	-0.11508769
70	0xbebcd0af	-0.36877963
71	0xbe097f5d	-0.13427491
72	0xbdae8100	-0.085206985
73	0xbccfa6d2	-0.0253481
74	0xbd33b76f	-0.043876108
75	0xbd847430	-0.064674735
76	0xbe2b229d	-0.16712423
77	0xbe82845d	-0.2549161
78	0x3ebcdd3e	0.36887544
79	0x3d96788b	0.073472105
80	0xbdf12894	-0.11775318
81	0xbe3b0c6a	-0.18266454
82	0x3bff6072	0.0077934796
83	0xbd4f6df9	-0.050641987
84	0xbea5a615	-0.32353273
85	0xbad9e91b	-0.0016625257
86	0xbe2f4b72	-0.17118624
87	0x3d59a902	0.053139694
88	0xbce11df4	-0.027480103
89	0xbddce4ff	-0.10785865
90	0xbbfa9b7b	-0.0076479292
91	0xbd09cb39	-0.033641074
92	0xbdc6568f	-0.096844785
93	0xbdb56664	-0.0885742
94	0x3e331439	0.17488183
95	0xbdd97b6d	-0.10619245
96	0xbeac0741	-0.33599284
97	0xbd98fbc4	-0.074698955
98	0xbd813d3c	-0.06310508
99	0xbe3bcb5e	-0.18339297
100	0xbe3ee289	-0.18641104
101	0xbe72a081	-0.2369404
102	0x3e79b927	0.24387036
103	0x3eacf62a	0.33781558
104	0xbd9ac6ab	-0.07557424
105	0xbe92e389	-0.2868922
106	0xbe6f22aa	-0.23353067
107	0xbdbe8088	-0.09301859
108	0xbd62dab9	-0.05538437
109	0x3cf6c853	0.030124819
110	0xbe2724ab	-0.16322581
111	0x3c0cc094	0.008590836
112	0xbafd8d4c	-0.0019344478
113	0xbd83819b	-0.06421205
114	0xbe5f2951	-0.21793105
115	0xbc68651b	-0.014184262
116	0x3e3796dd	0.17928644
117	0xbe254a2d	-0.16141577
118	0x3e124c64	0.14286953
119	0xbe053b6a	-0.13010946
120	0x3da6efda	0.08151217
121	0xbe2bf026	-0.16790828
122	0xbe3ee2f3	-0.18641262
123	0xbcb90cb8	-0.022589073
124	0xbd380d78	-0.04493472
125	0xbd4130d5	-0.04716571
126	0xbb352adc	-0.0027643954
127	0xbe0977bd	-0.13424583
128	0x3ca71d0b	0.020399591
129	0xbe26f91b	-0.16305964
130	0xbd323c1e	-0.043514363
131	0xbc858648	-0.016299382
132	0x3dc47597	0.09592741
133	0xbe5843e4	-0.21119648
134	0xbe8f4e23	-0.279893
135	0x3ab5a6fe	0.0013858972
136	0x3d148c75	0.036266763
137	0x395f6356	0.00021303943
138	0xbda25c91	-0.07927812
139	0xbdf74660	-0.1207397
140	0xbdb54179	-0.088503785
141	0xbd8a56d3	-0.06754842
142	0xbdd530d2	-0.10409702
143	0xbcd1ee30	-0.025626272
144	0xbdcf2a62	-0.10115506
145	0xbe834303	-0.25637063
146	0xbdf0962b	-0.11747392
147	0xbd344561	-0.044011477
148	0x3ce80a8f	0.028325347
149	0xbe781e0e	-0.24230215
150	0xbdcc4fb9	-0.099761434
151	0xbd98abd3	-0.07454648
152	0xbe4585d6	-0.19289336
153	0x3c2a7fba	0.010406429
154	0xbdcbc32c	-0.099493355
155	0xbd7fc19c	-0.0624405
156	0xbe873be1	-0.2641287
157	0x3c853c8a	0.016264219
158	0xbea951e5	-0.33070293
159	0xbe11c170	-0.14233947
160	0xbe37beab	-0.17943828
161	0x3db489e2	0.088153616
162	0xbde3be39	-0.111202665
163	0xbdb3e7c4	-0.0878444
164	0xbdfedebc	-0.12444827
165	0x3bb8815c	0.005630655
166	0xbe292115	-0.16516526
167	0xbdfed6f3	-0.12443342
168	0xbd9bb095	-0.0760204
169	0xbe868e13	-0.2628027
170	0xbe9e5389	-0.30923107
171	0x3c024346	0.00795061
172	0x3d0c977c	0.034324154
173	0x3cb046ef	0.021518199
174	0xbe5203df	-0.20509289
175	0xbe433284	-0.19062239
176	0xbbbb7040	-0.0057201684
177	0xbd7e6217	-0.062105265
178	0xbd14fdcf	-0.036374863
179	0xbc3eda10	-0.01164867
180	0xbdef96e3	-0.11698701
181	0xbec37b32	-0.38179928
182	0xbce27baf	-0.027646868
183	0xbd76a4e0	-0.06021583
184	0xbd08506e	-0.03327983
185	0xbd88f765	-0.06687812
186	0xbd9e913f	-0.07742547
187	0xbd2a7e1c	-0.041624174
188	0xbd3bb6c4	-0.045828596
189	0xbea6d32c	-0.32582986
190	0xbde47859	-0.11155767
191	0x3d27dc44	0.040981546
192	0x3ce6fa21	0.028195443
193	0xbda1d240	-0.0790143
194	0xbdcc17da	-0.09965487
195	0xbc7fed20	-0.0156205
196	0xbe4f4b9d	-0.20243688
197	0xbde11ee7	-0.10992222
198	0xbe027b9c	-0.12742466
199	0xbdc8b999	-0.09801025
200	0xbdc8f7e1	-0.09812904
201	0x3d2f5292	0.042803355
202	0xbe072f66	-0.13201675
203	0xbec3bc5f	-0.38229653
204	0xbd889117	-0.06668299
205	0xbdaf2b26	-0.08553152
206	0x3db6913a	0.089144185
207	0xbe7fd97a	-0.24985304
208	0xbdeb78ae	-0.11497627
209	0x3cc36de3	0.023856109
210	0xbd69f5d8	-0.05711922
211	0x3b9ef744	0.0048512537
212	0x3ced1692	0.028941426
213	0x3d2650e5	0.04060449
214	0xbdb7b567	-0.089701466
215	0xbe2b7e59	-0.16747417
216	0x3d04557e	0.032308094
217	0xbe1cad0f	-0.15300392
218	0xbde86796	-0.113478824
219	0xbe4116a0	-0.18856287
220	0xbe3e97c7	-0.18612586
221	0xbda6f1f8	-0.081516206
222	0xbd007449	-0.0313609
223	0x3da816ae	0.08207451
224	0xbd2e834e	-0.04260569
225	0xbda43899	-0.08018608
226	0xbcf8dfa9	-0.030380087
227	0x3b833b9e	0.0040049097
228	0x3d2a16ee	0.041525774
229	0xbe5e7411	-0.21723963
230	0xbda35ad4	-0.079763085
231	0xbdcd6508	-0.10029036
232	0x3ca64beb	0.020299872
233	0xbdb9ffd0	-0.090819955
234	0x3caee86e	0.021351065
235	0xbe0c0352	-0.13673142
236	0x3c58906c	0.013218027
237	0x3c43f19f	0.011959462
238	0x3c77c0e5	0.015121673
239	0xbd2bec86	-0.041973613
240	0x3d3aa77d	0.045569886
241	0xbd7c7d29	-0.0616428
242	0xbd485286	-0.048906825
243	0x3d9309c6	0.071795985
244	0x3d4ec201	0.050477985
245	0xbc6cfb1a	-0.014464164
246	0xbce48fda	-0.027900625
247	0xbca6e8a9	-0.020374613
248	0x3d274b71	0.04084343
249	0x3c8e603f	0.017379878
250	0xbc2a4d80	-0.010394454
251	0xbd2f352f	-0.04277533
252	0x3d13d9f4	0.03609653
253	0xbd00debb	-0.031462412
254	0xbb232a27	-0.002489695
255	0xbc42e980	-0.011896491
