covid_forecasting/cumulative/best_models/biranfis.pth (torch, 6479 bytes, 13 tensors)

memberships.0.c f4 [9]
0	0x3ed0746e	0.4071383
1	0x3e7027be	0.2345266
2	0x3f18f92b	0.597552
3	0x3f3d1f73	0.7387611
4	0x3f8e508d	1.1118332
5	0x3f8612d4	1.0474496
6	0x3f95e7d5	1.1711375
7	0x3face014	1.3505883
8	0x3fc1b2bb	1.5132669

memberships.0.a f4 [9]
0	0x3fcf29f4	1.6184678
1	0xbcdc8c52	-0.026922379
2	0xbc9c661a	-0.019091655
3	0x3f2d701e	0.677492
4	0x3edb3639	0.42814806
5	0xbd069e76	-0.032865964
6	0x3a740fda	0.00093102234
7	0x3bbcba9e	0.005759551
8	0xbb244ac7	-0.0025068985

memberships.0.b f4 [9]
0	0x4045eaca	3.0924554
1	0x4004a591	2.0726054
2	0x3fcba4d3	1.5909675
3	0xbb8df765	-0.0043324702
4	0xbd420f66	-0.047377966
5	0x3fe36f31	1.7768308
6	0x400793a4	2.1183863
7	0x40097740	2.1479034
8	0x4003fdaa	2.0623574

consequents.linear.weight f4 [9, 1]
0	0x40098a58	2.1490688
1	0x3d4b36d3	0.04961283
2	0x3d262613	0.040563654
3	0xbe83fa50	-0.2577691
4	0xbd68ef2d	-0.05686872
5	0x3d2e9c0d	0.04262929
6	0x3d6018da	0.0547112
7	0x3cb5e133	0.02220211
8	0xbcdfd95a	-0.027325321

consequents.linear.bias f4 [9]
0	0xbdb22979	-0.086993165
1	0xbccf41a8	-0.025299862
2	0xbc89296d	-0.016743386
3	0xbd4b5343	-0.04963995
4	0xbd79e293	-0.061007094
5	0xbd5f9e02	-0.054594047
6	0xbc7dbece	-0.015487386
7	0xbd2c5d5b	-0.04208122
8	0xbb5de864	-0.003386044

recurrent.weight_ih_l0 f4 [9, 9]
0	0xbf8a3d14	-1.079989
1	0xbe4cf141	-0.20013906
2	0xbca995df	-0.020701347
3	0xc026d52c	-2.606761
4	0xbfc40b16	-1.5315883
5	0xbe5b931b	-0.21442835
6	0xbd8dc440	-0.06922197
7	0xbe356acb	-0.1771652
8	0x3f03ca45	0.51480514
9	0xbf43abd3	-0.7643406
10	0xbe188e0e	-0.1489794
11	0x3e2ddb6f	0.16978239
12	0xbd7176e1	-0.058951262
13	0xbe33fb64	-0.17576367
14	0x3dce6fc2	0.1007991
15	0x3eb73199	0.35780028
16	0xbd93cba7	-0.07216578
17	0x3f28373c	0.6570928
18	0xbe9eb861	-0.31000045
19	0xbc08b7cd	-0.008344603
20	0xbe747dcd	-0.23876114
21	0xc0037a4f	-2.0543401
22	0xbfee7e87	-1.8632363
23	0xbea97243	-0.33094987
24	0xbee019c6	-0.43769664
25	0xbbc004bc	-0.0058599394
26	0x3df94b6c	0.12172589
27	0x3e857a89	0.2607005
28	0x3f29f599	0.6639038
29	0x3f03b021	0.51440626
30	0xc027ae1a	-2.6200013
31	0xc02177eb	-2.5229442
32	0x3f00fa38	0.50381804
33	0x3ed0ad7d	0.4075736
34	0x3e6aac1a	0.22917214
35	0xbe9d287b	-0.30694947
36	0x3ee7e1c5	0.45289436
37	0x3e9754b9	0.29556826
38	0xbded74b6	-0.115945265
39	0xbfa81b59	-1.3133346
40	0xbfead275	-1.8345476
41	0x3e8c8890	0.2744794
42	0x3e1f7ae4	0.15574223
43	0x3ebe9015	0.372193
44	0xbf441985	-0.7660144
45	0x3f710506	0.9414829
46	0x3f0f6131	0.5600768
47	0x3d0d2de6	0.0344676
48	0xbe369fa5	-0.17834337
49	0x3eda661b	0.42656025
50	0x3e2f5171	0.17120911
51	0xbe170c15	-0.14750703
52	0x3d5da13f	0.054108854
53	0xbe057891	-0.13034274
54	0xbfd85f89	-1.6904155
55	0xbe84a6d1	-0.2590852
56	0xbd637cb8	-0.055538863
57	0xbeaeafa5	-0.3411838
58	0xbf138351	-0.5762225
59	0xbdf00519	-0.11719722
60	0xbdb84e40	-0.089993
61	0x3e3c2d35	0.1837662
62	0xbec0a409	-0.3762515
63	0x3ecf4a49	0.40486363
64	0x3dcd1274	0.10013285
65	0xbe671706	-0.22567376
66	0xbf5a7b0e	-0.85344017
67	0xbf2312ed	-0.63700753
68	0xbf1b46f0	-0.6065512
69	0xbf45c0a4	-0.7724707
70	0xbe249d7d	-0.16075702
71	0x3e2a6f59	0.16644038
72	0xbf770789	-0.9649587
73	0xbe9c429f	-0.30519578
74	0xbe8608b6	-0.2617852
75	0xbf839303	-1.027924
76	0xbf8b4a3e	-1.0882032
77	0xbe86fb94	-0.26363814
78	0xbdc8f938	-0.0981316
79	0xbcbefcb8	-0.023313865
80	0xbd85c770	-0.0653218

recurrent.weight_hh_l0 f4 [9, 9]
0	0xbebd4e6b	-0.3697389
1	0x3e216a8a	0.15763298
2	0x3ed09483	0.40738305
3	0xbefcc555	-0.49369302
4	0xbf2b2077	-0.6684641
5	0x3ed1916e	0.40931267
6	0x3ea5a9ae	0.32356018
7	0x3edc7180	0.43055344
8	0x3e746b22	0.23868993
9	0x3d4142e7	0.047182944
10	0x3f02cce2	0.51093876
11	0x3f024c09	0.5089727
12	0x3e91550b	0.28385195
13	0x3f37ccbe	0.71796787
14	0x3e9b3cf5	0.30319944
15	0xbe1a9bd4	-0.15098506
16	0x3ea0b86c	0.31390703
17	0xbe016e75	-0.12639792
18	0x3f042c6e	0.51630294
19	0xbf37d19e	-0.71804225
20	0xbdf24589	-0.11829669
21	0xbe7109ad	-0.23538847
22	0xbecdd567	-0.40201876
23	0x3f838fa3	1.027821
24	0x3eadb66a	0.33928233
25	0x3f5f580c	0.87243724
26	0x3ef3a770	0.47588682
27	0xc0240ab1	-2.5631526
28	0x3ec9d14b	0.3941749
29	0x3e4afb32	0.19822386
30	0x3e04f32f	0.12983392
31	0xbe9863f8	-0.2976377
32	0xbe8ba737	-0.27276012
33	0xbdc78f40	-0.0974412
34	0xbf587878	-0.8455882
35	0xbec601f8	-0.38673377
36	0xbf699bee	-0.91253555
37	0x3c9c700d	0.019096399
38	0x3d39f5ad	0.04540031
39	0x3f45539e	0.77080715
40	0x3e505dfe	0.20348355
41	0xbf4b0196	-0.79299295
42	0xbf66c285	-0.90140563
43	0xbf1c1cf6	-0.6098169
44	0xbf2f74b8	-0.68537474
45	0x3f4f4eed	0.80979806
46	0xbf8ed72d	-1.1159416
47	0x3d7e02ce	0.062014394
48	0xbec9052f	-0.39261767
49	0x3e6d1419	0.23152198
50	0x3ed4157e	0.41422647
51	0x3eb1d3a1	0.34731773
52	0x3f8e64ae	1.1124475
53	0x3f0f79be	0.5604514
54	0x3e50b1f0	0.20380378
55	0xbf0ea6de	-0.5572337
56	0x3dccfe84	0.100094825
57	0xbecf36f4	-0.40471613
58	0xbe2d463e	-0.16921327
59	0xbdf87a20	-0.121326685
60	0x3d83718c	0.06418142
61	0x3d485af6	0.048914872
62	0x3f13a936	0.5768007
63	0xbeca0431	-0.39456323
64	0xbe6d566d	-0.231775
65	0x3f045b0a	0.51701415
66	0xbf03dabe	-0.5150565
67	0xbec1bbfd	-0.37838736
68	0x3faa97ee	1.3327615
69	0x3f0a962f	0.5413541
70	0xbe59080a	-0.21194473
71	0x3f040e5c	0.5158441
72	0x3dbfc9d5	0.09364668
73	0xbef436fd	-0.47698203
74	0xbe2c25a0	-0.16811228
75	0xbf196672	-0.59921944
76	0xbf27f8f0	-0.65614223
77	0x3f275b46	0.6537365
78	0x3f55f2a7	0.83573383
79	0xbea72f1c	-0.3265313
80	0x3dfd22bb	0.1236014

recurrent.bias_ih_l0 f4 [9]
0	0xbf8810c2	-1.0630114
1	0x3ef76419	0.48318556
2	0xbbd41d6c	-0.006473234
3	0x3f863f63	1.0488094
4	0x3f564498	0.83698416
5	0xbf3e6786	-0.74376714
6	0xbcdc8f1d	-0.02692371
7	0xbedde7dc	-0.43340957
8	0xbe6b6d17	-0.22990833

recurrent.bias_hh_l0 f4 [9]
0	0xbf9eed57	-1.241618
1	0x3f0eb2da	0.55741656
2	0x3bca2447	0.0061688754
3	0x3f4f8215	0.81057864
4	0x3f6bbd35	0.9208558
5	0xbf3ebb6c	-0.74504733
6	0xbc73d4fb	-0.0148823215
7	0xbf018ff7	-0.506103
8	0xbe9b9aad	-0.30391446

recurrent.weight_ih_l0_reverse f4 [9, 9]
0	0xbef67a6c	-0.48140275
1	0xbdb58b91	-0.08864511
2	0xbdc908c1	-0.09816123
3	0xc05d17da	-3.4545808
4	0xc06c668a	-3.6937585
5	0xbb42ee2d	-0.0029744015
6	0xbdb585fc	-0.08863446
7	0x3d975580	0.07389355
8	0xbd311250	-0.043230355
9	0xbf0c6c86	-0.54853094
10	0x3da8d04b	0.08242854
11	0xbd14a718	-0.036292166
12	0xc06fb901	-3.7456667
13	0xc04ae3e9	-3.1701605
14	0xbcb5563a	-0.022135843
15	0xbc28c66d	-0.010301215
16	0x3da45a91	0.08025087
17	0x3e229877	0.15878473
18	0xbda479b1	-0.08031023
19	0x3e0541f8	0.13013446
20	0x3e5bb47a	0.21455565
21	0xbdbaff77	-0.09130757
22	0xbeae0f41	-0.33996013
23	0x3e0c4858	0.13699472
24	0x3da99972	0.082812205
25	0xbd9692ff	-0.07352256
26	0xbd011b2d	-0.031520057
27	0xbd485c34	-0.048916057
28	0x3cd5b30a	0.026086349
29	0x3c9ac60a	0.01889326
30	0xbe663a9c	-0.22483295
31	0xbde1170e	-0.109907255
32	0xbdd66862	-0.10469128
33	0x3c9859c7	0.018597497
34	0xbded222a	-0.11578782
35	0x3befb2b2	0.0073150033
36	0x3dd60c05	0.10451511
37	0xbe55b3cf	-0.20869373
38	0xbd98c042	-0.07458545
39	0x3f811326	1.0083969
40	0x3e42641a	0.18983498
41	0xbf1f0cd2	-0.6212894
42	0xbc4a0faa	-0.012332836
43	0x3e19e0a4	0.150271
44	0x3f5492e1	0.8303662
45	0xbda301ef	-0.07959353
46	0xbe4ace7e	-0.19805333
47	0xbf148027	-0.58008045
48	0xbf648d2f	-0.8927793
49	0xbfc4e0a6	-1.5381057
50	0xbe6838b0	-0.22677875
51	0x3d8530b6	0.065034315
52	0x3ec4a91f	0.3841028
53	0x3eb8e345	0.36110893
54	0x3d199304	0.03749372
55	0xbe492ab6	-0.19645199
56	0xbd809108	-0.062776625
57	0x3e11e537	0.14247595
58	0x3e8f7028	0.28015256
59	0xbe205324	-0.15656716
60	0xbe21ff46	-0.15820035
61	0xbe32ec2d	-0.17472906
62	0x3df26600	0.11835861
63	0xbe493a89	-0.19651236
64	0x3e943da6	0.28953284
65	0x3eb27e9a	0.34862214
66	0xbf95f6c9	-1.1715938
67	0xbfd19092	-1.6372244
68	0x3eb4bc6e	0.3530001
69	0xbd988d1c	-0.074487895
70	0xbf2232b2	-0.63358605
71	0xbea2110f	-0.3165364
72	0x3e7bc0db	0.24585287
73	0xbe64785c	-0.22311538
74	0xbec79e71	-0.3898807
75	0x3fcd04bd	1.6017071
76	0x3fcd8cd5	1.6058604
77	0x3dea219f	0.11432194
78	0x3e3dbe89	0.18529715
79	0x3eff69df	0.4988546
80	0xbe925986	-0.28583926

recurrent.weight_hh_l0_reverse f4 [9, 9]
0	0xbf9b2099	-1.2119323
1	0xbd11b1cf	-0.035569962
2	0x3d302146	0.043000482
3	0xc006aeb7	-2.1044137
4	0xbf790620	-0.9727497
5	0xbd4e9671	-0.05043644
6	0xbdb1ca60	-0.08681178
7	0x3d8ac1dc	0.06775257
8	0xbd537ff4	-0.051635697
9	0xbf733482	-0.95001996
10	0x3f0f722e	0.560336
11	0x3df2ff76	0.118651316
12	0xc013891b	-2.3052433
13	0xbf3da150	-0.7407427
14	0xbe3ec3c0	-0.1862936
15	0xbe55bc44	-0.20872599
16	0xbe87dca9	-0.26535538
17	0x3e0b236c	0.13587731
18	0xbe501675	-0.20321067
19	0x3dbe88f8	0.093034685
20	0xbf390f53	-0.7228901
21	0x3ed8ac22	0.42318827
22	0xbe4c6d2b	-0.1996352
23	0x3d5b9f9a	0.053619005
24	0xbd67c2f5	-0.05658241
25	0xbe10bcfc	-0.14134592
26	0x3c831869	0.01600285
27	0xbdcbcae3	-0.09950807
28	0xbcbfb939	-0.02340375
29	0xbcc22542	-0.023699407
30	0x3d64c39f	0.05585062
31	0xbd1cd487	-0.03828862
32	0xba64c8a3	-0.0008727407
33	0xbbc62013	-0.006046304
34	0xbad93ae7	-0.001657334
35	0xbc65bc46	-0.014021939
36	0x3eece2d0	0.46266794
37	0xbe89f0b5	-0.26941457
38	0xbde0fa7e	-0.109852776
39	0x3fa3c6ea	1.2795079
40	0x3fbb84e6	1.4649932
41	0x3e43948d	0.19099636
42	0xbe9290a2	-0.2862597
43	0xbd924139	-0.071413465
44	0xbdc68143	-0.096926235
45	0xbf974973	-1.181929
46	0x3e3c45c6	0.18385991
47	0xbdf4fbb3	-0.1196207
48	0xbf75139c	-0.95733047
49	0xbf7ec40d	-0.995179
50	0xbf0f4d34	-0.5597718
51	0x3ce93098	0.028465554
52	0xbe0acd30	-0.13554835
53	0x3e0b0ddf	0.1357951
54	0xbef7e40b	-0.4841617
55	0x3e5bd215	0.21466859
56	0xbd9c763f	-0.07639741
57	0xbf86a801	-1.0520021
58	0xbeab5504	-0.334633
59	0x3d5db90f	0.054131564
60	0xbf144cf3	-0.57929915
61	0xbdebdac2	-0.11516334
62	0xbe512ccf	-0.2042725
63	0xbf0fcc92	-0.56171525
64	0xbe86e6bb	-0.26347908
65	0xbd9e4e02	-0.077297226
66	0xbf0089e5	-0.5021041
67	0xbedd4841	-0.43219188
68	0xbc924fb4	-0.017860271
69	0xbe772d9b	-0.24138491
70	0xbf31eca4	-0.6950171
71	0xbd498c19	-0.049205873
72	0x3ee7e305	0.4529039
73	0x3ddf6379	0.10907645
74	0x3db51fd3	0.088439606
75	0x3f124fa5	0.5715278
76	0x3eb8e252	0.3611017
77	0xbce12c98	-0.027487084
78	0xbd405098	-0.04695186
79	0xbdcc953a	-0.099894
80	0xbef8a266	-0.485614

recurrent.bias_ih_l0_reverse f4 [9]
0	0x3e90376e	0.2816729
1	0xbe36efae	-0.17864868
2	0x3dbb96a8	0.09159595
3	0x3e411299	0.1885475
4	0xbf9d4ca8	-1.2289019
5	0x3a04d99a	0.00050678256
6	0xbced9d50	-0.029005677
7	0x3e4c3b6c	0.19944543
8	0xbd4c7899	-0.0499197

recurrent.bias_hh_l0_reverse f4 [9]
0	0x3f1bf0c0	0.6091423
1	0xbe0e8b62	-0.13920358
2	0xbe107889	-0.1410848
3	0xbe9c03c9	-0.30471638
4	0xbfa4938a	-1.2857525
5	0xbe1ffa4b	-0.15622823
6	0x3d3b6b51	0.04575664
7	0xbe908042	-0.28222853
8	0x3e45d8ac	0.19320935
