covid_forecasting/cumulative/best_models/birnn.pth (torch, 118581 bytes, 9 tensors)

rnn.weight_ih_l0 f4 [118, 1]
-0.10960007 0.121451065 0.184295 -0.0054075294 0.049646687 -0.009804012 0.21995911 0.120465174
-0.090939306 -0.057707865 -0.010136535 -0.1636781 -0.05046819 -0.1138005 -0.1742976 0.15906557
0.13750036 -0.06031998 -0.17724124 0.14280158 0.03249445 0.107984826 0.17284963 -0.13396646
0.012318206 0.16646017 0.011748261 0.070383474 -0.05901586 -0.15508077 -0.23260267 -0.25615865
0.1561962 0.1328748 0.24999581 0.14458777 -0.14972535 -0.056297146 0.059920516 -0.17389236
0.114252426 -0.04105953 -0.1741176 -0.23725303 -0.013100101 0.2025527 -0.1350491 -0.09561402
0.0039526327 -0.17692712 0.10221666 -0.15652883 -0.07189799 -0.19966513 -0.061184276 -0.19633423
0.0971786 0.11982017 -0.08604613 -0.09396544 -0.20852579 0.19715409 0.21534461 0.19796519
-0.15081273 0.20906489 0.28565037 0.031404257 -0.075928316 0.0863089 -0.04366898 0.1559305
0.2694871 0.20171921 0.11328914 0.0019790698 0.054454137 0.030225305 -0.1244483 0.3395616
-0.13448177 0.30518997 0.005864508 -0.07023255 0.16568618 -0.0032221323 -0.027297333 0.20686781
0.12624763 0.14917919 -0.19345097 0.18048263 -0.16200419 -0.124662876 0.28238425 -0.06946752
0.13792567 0.17054479 -0.21494399 -0.14239864 -0.015473056 0.13966824 0.1785017 -0.07107348
-0.038165353 -0.18267803 0.20146684 0.103148475 -0.012509709 0.14428996 0.11469985 -0.12504627
0.11541052 -0.17237753 -0.0896091 0.003706856 -4.6117653e-05 0.090631
00000000: 0076 e0bd 56bb f83d d4b7 3c3e a531 b1bb
00000010: 535a 4b3d 02a1 20bc f63c 613e 72b6 f63d
00000020: 633e babd 155f 6cbd b613 26bc 3b9b 27be
00000030: bcb7 4ebd 3d10 e9bd 127b 32be 16e2 223e
00000040: e5cc 0c3e 1512 77bd ba7e 35be 943a 123e
00000050: e718 053d 2627 dd3d 7eff 303e 812e 09be
00000060: 4dd2 493c 8974 2a3e c77b 403c 3625 903d
00000070: 9dba 71bd 7ecd 1ebe 652f 6ebe 3a27 83be
00000080: e6f1 1f3e 5510 083e e7fe 7f3e d10e 143e
00000090: 9a51 19be d697 66bd 376f 753d d710 32be
000000a0: 2dfd e93d 0a2e 28bd e24b 32be 75f2 72be
000000b0: cea1 56bc fa69 4f3e 504a 0abe 49d1 c3bd
000000c0: 1685 813b 622c 35be f856 d13d 1849 20be
000000d0: 413f 93bd 0475 4cbe 5d9c 7abd d70b 49be
000000e0: 9305 c73d 4764 f53d f438 b0bd f470 c0bd
000000f0: c987 55be c3e2 493e 4c83 5c3e 63b7 4a3e
00000100: a76e 1abe 1b15 563e c440 923e c0a1 003d
00000110: 4e80 9bbd b8c2 b03d 3fde 32bd 3fac 1f3e
00000120: 37fa 893e 7b8f 4e3e 2304 e83d 48b3 013b
00000130: 4d0b 5f3d 0f9b f73c c0de febd 05db ad3e
00000140: 97b5 09be dc41 9c3e 0f2b c03b 15d6 8fbd
00000150: a3a9 293e 692a 53bb a89e dfbc 28d5 533e
00000160: 0f47 013e 6ec2 183e 0318 46be 70d0 383e
00000170: 6de4 25be 404f ffbd ab94 903e fd44 8ebd
00000180: 633c 0d3e 4ba3 2e3e 471a 5cbe f3d0 11be
00000190: b382 7dbc 3105 0f3e 26c9 363e f98e 91bd
000001a0: 4653 1cbd f30f 3bbe 534d 4e3e 823f d33d
000001b0: 86f5 4cbc bfc0 133e c1e7 ea3d 210c 00be
000001c0: 5a5c ec3d bc83 30be fa84 b7bd b9ee 723b
000001d0: 746e 41b8 bf9c b93d

rnn.weight_hh_l0 f4 [118, 118]
-0.062387627 -0.015695253 0.0321101 0.052144684 0.029897066 -0.024557836 -0.041094236 -0.04187264
0.053885065 0.058849704 -0.03530272 0.03374477 0.07592061 -0.06805814 -0.034684155 0.04650553
-0.01896034 -0.07378136 0.09382781 0.10121607 0.06968334 -0.0091657825 0.0003306573 0.07205802
-0.0711196 0.019847637 0.08268098 -0.06881932 -0.038762905 -0.009295393 0.041260913 -0.07557582
0.023972029 0.028986556 0.050996672 -0.010155203 0.004153394 0.013022247 -0.04677165 0.0021612442
0.050154068 -0.047963053 -0.010746332 0.0076000663 -0.002004466 -0.02006364 0.043445982 0.014206101
0.03260734 0.06422466 0.02614974 -0.038074117 -0.07691675 0.055346943 -0.034688678 -0.116264395
-0.05969297 -0.05332394 -0.14724833 -0.04719545 0.037830137 0.06887296 0.014663436 0.059844058
-0.10205224 0.03895023 0.072346784 0.05707993 0.05573561 0.033140533 -0.0688657 0.120814145
0.081131294 0.041069627 0.0010393371 -0.0026004284 -0.05236531 -0.05166942 0.00677497 0.04772958
0.038204953 0.021383496 0.109464064 -0.008299949 0.064610004 -0.052633073 0.053971115 -0.02964029
-0.030607013 0.071269184 0.041753586 -0.020578973 0.064017884 -0.077795275 0.019104747 -0.10607465
0.08666705 -0.053208485 0.049790565 -0.016733034 0.08542189 0.046756987 0.042100366 -0.07688924
0.01252392 0.029062884 -0.07187257 0.020073492 -0.016864553 -0.049788035 -0.040163834 0.008461528
-0.075574435 0.028345339 -0.04032219 -0.074315615 -0.03367426 0.095835105 0.025703834 -0.052777726
-0.046409693 0.018595181 0.0634566 0.08929231 -0.0054234774 0.022664752 0.09448256 -0.06043067
0.053160597 0.005179016 0.0066087064 0.08741413 0.031574223 0.02349263 0.04985467 -0.067152314
0.059431568 -0.048151683 0.04488964 -0.04483338 -0.020033956 0.072103366 -0.03940528 0.053420264
0.0012111842 0.029899424 -0.002202862 -0.008140776 -0.05819718 0.07393111 -0.086357765 -0.0990789
-0.07474062 -0.055579305 -0.014298218 -0.06806683 -0.022271963 -0.000423151 0.005956963 -0.006409196
-0.0449186 0.022381335 -0.019364858 0.008791902 0.02330353 -0.00022371308 -0.042716034 0.045149803
-0.035234615 -0.03386391 0.05680852 0.016733695 0.076653294 0.08600882 0.03167978 -0.086765684
-0.044072937 0.069677465 -0.01574791 -0.0043605706 -0.026059844 0.04090674 0.03339887 -0.066005565
-0.010304162 0.04242376 -0.045255262 0.016087912 0.021462465 -0.02247639 0.02491762 0.036766656
0.014169609 -0.035583913 0.012601537 -0.06294346 0.022543699 0.01051361 0.06884532 0.016218212
0.065658785 -0.08537076 0.024908954 -0.051035535 -0.07662192 0.049490564 -0.09423642 -0.015906176
-0.06853964 -0.0200339 -0.020670122 -0.07643751 -0.03489445 0.067204975 -0.030575857 0.028774379
0.05746974 -0.09252136 -0.077725515 0.078142434 -0.024285324 0.09102293 0.012299261 0.102115005
-0.029098496 0.039491616 -0.111148745 0.003078058 0.000429215 0.005027167 0.00061478734 -0.026528448
-0.08081887 -0.05801505 -0.0236613 -0.058786724 0.040822584 0.0712827 0.058494803 0.029523676
-0.12670232 -0.010955191 0.08348188 -0.053546842 0.05959846 -0.042069577 -0.04767695 0.03920492
0.041447245 0.08841822 -0.058622185 0.023290776 0.07795222 -0.029105533 0.051484384 -0.11042377
00000000: 2b8a 7fbd 5593 80bc e185 033d aa95 553d
00000010: b1ea f43c 842d c9bc 6e52 28bd a582 2bbd
00000020: 96b6 5c3d 630c 713d 9699 10bd f537 0a3d
00000030: 447c 9b3d 1162 8bbd f910 0ebd 957c 3e3d
00000040: b752 9bbc af1a 97bd cb28 c03d 5f4a cf3d
00000050: 24b6 8e3d 142c 16bc 125c ad39 2893 933d
00000060: 27a7 91bd 8397 a23c a554 a93d 25f1 8cbd
00000070: dac5 1ebd b44b 18bc 3401 293d 7fc7 9abd
00000080: fd60 c43c 3775 ed3c e3e1 503d 0262 26bc
00000090: 3219 883b 435b 553c a193 3fbd a9a3 0d3b
000000a0: 5a6e 4d3d e874 44bd 6211 30bc fa09 f93b
000000b0: 5c5d 03bb 815c a4bc 6af4 313d b5c0 683c
000000c0: 468f 053d 3888 833d fb37 d63c 9bf3 1bbd
000000d0: 8786 9dbd 7ab3 623d b715 0ebd 071c eebd
000000e0: 9e80 74bd 346a 5abd 44c8 16be 0450 41bd
000000f0: c6f3 1a3d 440d 8d3d e93e 703c 0b1f 753d
00000100: c400 d1bd 478a 1f3d 8d2a 943d a5cc 693d
00000110: 064b 643d 5ebe 073d 7609 8dbd 686d f73d
00000120: 2a28 a63d a038 283d 5e3a 883a f36b 2abb
00000130: 027d 56bd 50a3 53bd 9100 de3b 1880 433d
00000140: cc7c 1c3d 712c af3c b22e e03d 82fc 07bc
00000150: 4052 843d c795 57bd d110 5d3d 32d0 f2bc
00000160: 8fbb fabc 94f5 913d cf05 2b3d 3c95 a8bc
00000170: cf1b 833d 2153 9fbd 8f81 9c3c ab3d d9bd
00000180: 7f7e b13d 24f1 59bd 31f1 4b3d b713 89bc
00000190: acf1 ae3d 4184 3f3d 6f71 2c3d 1b78 9dbd
000001a0: 2131 4d3c 4915 ee3c ed31 93bd 2a71 a43c
000001b0: 8827 8abc 8aee 4bbd d582 24bd 39a2 0a3c
000001c0: c5c6 9abd 7c34 e83c e128 25bd c932 98bd
000001d0: 05ee 09bd 3245 c43d d990 d23c 752d 58bd
000001e0: 1718 3ebd ec54 983c 89f5 813d e3de b63d
000001f0: 6db7 b1bb 6eab b93c 1380 c13d 2686 77bd
00000200: edbe 593d bcb4 a93b d98d d83b 2e06 b33d
00000210: f953 013d 9e73 c03c 6934 4c3d 2787 89bd
00000220: 846e 733d b33a 45bd 33de 373d 35a3 37bd
00000230: 401e a4bc eeaa 933d 6e67 21bd 35cf 5a3d
00000240: 99c0 9e3a a3ef f43c e45d 10bb e460 05bc
00000250: 2b60 6ebd 3269 973d 57dc b0bd e1e9 cabd
00000260: 9c11 99bd 20a7 63bd 1343 6abc 9f66 8bbd
00000270: b173 b6bc 5eda ddb9 a132 c33b 3c04 d2bb
00000280: 91fc 37bd 1059 b73c 0da3 9ebc e90b 103c
00000290: 0be7 be3c 8694 6ab9 02f7 2ebd 00ef 383d
000002a0: 2c52 10bd e2b4 0abd 0db0 683d 1a15 893c
000002b0: 67fc 9c3d 6425 b03d a8c2 013d 35b2 b1bd
000002c0: d385 34bd 0fb3 8e3d c301 81bc 1ee3 8ebb
000002d0: 747b d5bc d38d 273d 41cd 083d ed2d 87bd
000002e0: cad2 28bc 89c4 2d3d 955d 39bd ccca 833c
000002f0: 0dd2 af3c 6820 b8bc 0920 cc3c a298 163d
00000300: a627 683c 70c0 11bd ad76 4e3c 80e8 80bd
00000310: 90ad b83c 4741 2c3c c6fe 8c3d 0edc 843c
00000320: 1d78 863d ddd6 aebd dd0d cc3c a30a 51bd
00000330: f4eb 9cbd 9eb6 4a3d 06ff c0bd ab4d 82bc
00000340: 835e 8cbd 221e a4bc 6354 a9bc 458b 9cbd
00000350: 7ced 0ebd c3a2 893d 387a fabc 3fb8 eb3c
00000360: 6465 6b3d d77b bdbd 8e2e 9fbd 2409 a03d
00000370: 04f2 c6bc 3b6a ba3d d782 493c ac21 d13d
00000380: f85f eebc f6c1 213d f4a1 e3bd 3eb9 493b
00000390: 4308 e139 efba a43b ae29 213a 3052 d9bc
000003a0: 5d84 a5bd 30a1 6dbd 58d5 c1bc 59ca 70bd
000003b0: 9535 273d aafc 913d 3f98 6f3d a3db f13c
000003c0: 41be 01be 677d 33bc 8cf8 aa3d ef53 5bbd
000003d0: 841d 743d 2651 2cbd e848 43bd 5795 203d
000003e0: 96c4 293d 9d14 b53d d11d 70bd 4ccc be3c
000003f0: 6aa5 9f3d ba6e eebc 4ae1 523d dc25 e2bd

rnn.bias_ih_l0 f4 [118]
0.021562304 -0.046882026 0.03945535 0.020269584 -0.04755892 0.018250316 0.02958579 0.03407909
-0.01604866 0.0055324044 0.003926167 0.056789394 0.07122533 -0.023960343 -0.05133788 0.017659508
0.039767016 -0.037776183 0.06923812 -0.06053325 -0.015367268 -0.00037935245 -0.06454402 -0.008238168
0.039047744 -0.010136607 0.014114655 0.04326352 0.017467042 -0.07633615 0.0022690974 0.043079484
0.037231095 -0.063176595 -0.04461369 0.050274733 -0.026497755 -0.028378854 0.029870365 -0.024278501
-0.0062484387 -0.03920114 -0.038678996 -0.031762794 0.018404903 -0.053448528 0.03142844 0.017602148
0.06120703 -0.0033664051 -0.035781115 0.011126772 0.01885876 0.06575871 -0.049889293 0.007537712
0.034095347 0.018540816 -0.02526326 0.058192488 -0.024773214 -0.039673664 -0.07493567 -0.02849002
-0.02920015 0.031894226 0.047242288 -0.033098403 0.04179007 0.004616595 0.0376591 -0.0861538
0.046720516 0.02364638 0.010263526 0.080047056 -0.025206411 0.004413174 -0.021723514 -0.027295092
0.031171173 -0.020658663 0.04001024 0.038599014 -0.008164024 -0.038840104 -0.051688496 0.029667236
-0.048915595 0.057565924 -0.085238375 -0.0022263643 0.032230992 0.028979348 -0.03405725 0.050194405
0.079283714 -0.03430204 -0.049664404 -0.013870858 0.022412326 0.040559817 0.0049940315 -0.008844549
-0.012786015 0.040404204 -0.037955306 0.002652118 -0.032732587 0.0489048 -0.04924617 0.01843735
0.043156747 0.03095481 0.08293825 0.028021416 0.060711056 -0.06498067
00000000: 6ea3 b03c 5e07 40bd ef9b 213d 660c a63c
00000010: 24cd 42bd b081 953c e65d f23c 8496 0b3d
00000020: 7b78 83bc 2c49 b53b 13a7 803b ff9b 683d
00000030: 96de 913d 7b48 c4bc ab47 52bd acaa 903c
00000040: bde2 223d 33bb 1abd b7cc 8d3d b7f1 77bd
00000050: fec6 7bbc d3e3 c6b9 a82f 84bd 62f9 06bc
00000060: 87f0 1f3d 0314 26bc 2741 673c 1735 313d
00000070: 0b17 8f3c 2156 9cbd 23b5 143b 1d74 303d
00000080: a27f 183d bb62 81bd d8bc 36bd e1ec 4d3d
00000090: d211 d9bc c57a e8bc b2b2 f43c b5e3 c6bc
000000a0: b4bf ccbb 6091 20bd de6d 1ebd b419 02bd
000000b0: e1c5 963c d8ec 5abd 1cbb 003d 6132 903c
000000c0: 39b4 7a3d e89e 5cbb 388f 12bd 104d 363c
000000d0: b07d 9a3c 81ac 863d b758 4cbd e9fe f63b
000000e0: 90a7 0b3d e9e2 973c e5f4 cebc 3f5b 6e3d
000000f0: 32f1 cabc da80 22bd df77 99bd e763 e9bc
00000100: 2735 efbc 85a3 023d 2181 413d 3192 07bd
00000110: 102c 2b3d ce46 973b 6e40 1a3d 6771 b0bd
00000120: 035e 3f3d 0eb6 c13c 5928 283c b6ef a33d
00000130: ad7d cebc 639c 903b 83f5 b1bc f599 dfbc
00000140: b05a ff3c 5b3c a9bc c7e1 233d 001a 1e3d
00000150: 66c2 05bc cd16 1fbd 51b7 53bd b408 f33c
00000160: b85b 48bd 3fca 6b3d 7591 aebd 32e8 11bb
00000170: a504 043d 1966 ed3c 9d7f 0bbd a698 4d3d
00000180: 805f a23d 4c80 0cbd e76c 4bbd 9842 63bc
00000190: 0e9a b73c 0d22 263d f9a4 a33b bae8 10bc
000001a0: 6f7c 51bc e17e 253d 0677 1bbd 28cf 2d3b
000001b0: 9b12 06bd 6650 483d 5ab6 49bd ed09 973c
000001c0: 21c5 303d f194 fd3c 87db a93d 2b8d e53c
000001d0: 28ac 783d 9614 85bd

rnn.bias_hh_l0 f4 [118]
-0.028021935 0.03193904 -0.028590543 -0.02689385 0.038392235 -0.017724775 -0.035391673 -0.018163782
-0.019858245 -0.013923129 -0.027154533 0.01488564 -0.055364516 0.021763818 0.052582677 0.009454429
-0.047826026 0.01955216 0.011355095 0.047360215 0.002182839 0.0030408616 0.013912824 -0.009663031
0.0107088005 0.0635709 -0.016752338 -0.04199372 -0.012674452 0.047350205 -0.029917799 -0.08004452
-0.028478399 0.04955276 -0.007715551 -0.04065967 -0.0034698409 0.039496273 -0.0074323155 0.045027886
0.031394843 0.020757953 -0.05932685 0.047409926 0.020089846 0.057600133 -0.041048713 0.019270366
-0.09055777 -0.0116114495 0.025452957 -0.022068301 0.0040087504 -0.055919863 0.060313404 0.0032974936
-0.013398937 0.013971492 0.031393748 -0.0071167485 0.021681035 0.06171706 -0.05035804 0.046002522
-0.0195032 0.002584984 -0.05892069 0.020875132 -0.05498089 -0.004203227 -0.029086024 0.08849044
-0.02746664 -0.026209768 0.0010364078 -0.041900925 0.017925875 -0.006668783 -0.014820924 0.008279595
0.025097908 0.011325876 -0.026982076 -0.02872883 -0.027558135 0.046181485 0.038697965 0.03146987
0.023116544 -0.053878073 0.06361105 -0.0012241704 -0.032431606 -0.04491197 -0.038412753 -0.050168872
-0.09702474 0.003439492 -0.028667828 0.014206457 -0.025945578 -0.030726686 0.019481188 -0.022965515
0.005170909 -0.07238232 0.045097616 0.006927865 0.015660355 -0.021089964 0.039977036 0.024969736
-0.0150807835 -0.081545405 -0.06011353 -0.024314633 -0.07862465 0.053277194
00000000: 428e e5bc 83d2 023d b736 eabc 7e50 dcbc
00000010: 2d41 1d3d 8c33 91bc dcf6 10bd 36cc 94bc
00000020: c2ad a2bc d61d 64bc 2f73 debc e6e2 733c
00000030: e7c5 62bd 094a b23c ef60 573d c0e6 1a3c
00000040: 39e5 43bd da2b a03c b80a 3a3c c9fc 413d
00000050: f60d 0f3b 3149 473b 9df2 633c b151 1ebc
00000060: f773 2f3c 7631 823d 333c 89bc 9b01 2cbd
00000070: 81a8 4fbc 4af2 413d 2c16 f5bc 62ee a3bd
00000080: 884b e9bc d6f7 4a3d bcd2 fcbb c18a 26bd
00000090: 4566 63bb d8c6 213d c88a f3bb 296f 383d
000000a0: e197 003d 950c aa3c b600 73bd e930 423d
000000b0: 7693 a43c 1eee 6b3d b222 28bd e3dc 9d3c
000000c0: 5a76 b9bd f33d 3ebc b882 d03c 95c8 b4bc
000000d0: d65b 833b 3a0c 65bd 300b 773d c31a 583b
000000e0: 3787 5bbc afe8 643c bb96 003d 9d33 e9bb
000000f0: 6d9c b13c 07cb 7c3d 3b44 4ebd 246d 3c3d
00000100: 2dc5 9fbc d668 293b d256 71bd 5302 ab3c
00000110: a433 61bd 39bb 89bb d045 eebc 7a3a b53d
00000120: b801 e1bc deb5 d6bc 13d8 873a 4ea0 2bbd
00000130: 49d9 923c ce85 dabb 76d3 72bc 23a7 073c
00000140: 219a cd3c 2b90 393c 8409 ddbc b958 ebbc
00000150: 99c1 e1bc cc28 3d3d c281 1e3d 8de6 003d
00000160: e85e bd3c 41af 5cbd 8346 823d 5874 a0ba
00000170: 01d7 04bd 9df5 37bd b156 1dbd e07d 4dbd
00000180: e8b4 c6bd 1a69 613b cbd8 eabc 33c2 683c
00000190: d28b d4bc 88b6 fbbc 0397 9f3c 2d22 bcbc
000001a0: bb70 a93b 2f3d 94bd 47b8 383d 2503 e33b
000001b0: 254a 803c dcc4 acbc f6be 233d 558d cc3c
000001c0: 6415 77bc 4701 a7bd 9b39 76bd 7b2f c7bc
000001d0: f605 a1bd 3039 5a3d

rnn.weight_ih_l0_reverse f4 [118, 1]
-0.083198376 0.045193076 0.055159688 -0.04128287 0.20835316 -0.13873282 0.3012759 0.098313764
0.025661143 0.13038844 -0.006544799 -0.23144801 -0.034570772 -0.19377422 -0.19016239 0.012393828
0.23730195 -0.11868267 0.0008442431 0.19674844 0.092685975 0.1585284 0.08713507 -0.19679654
-0.08064592 0.14358884 0.009437579 -0.04706256 0.010505775 -0.17457986 0.11753522 -0.10759434
0.12813315 0.016494678 0.17708121 -0.17512083 -0.14970839 -0.17436738 -0.028944464 -0.23018052
0.0480451 0.20247062 -0.17910443 -0.15785265 -0.03198645 0.29763338 -0.19591047 -0.15626976
0.13599464 -0.03129304 -0.037136596 -0.20369959 0.10171942 -0.14087313 -0.07630451 -0.1881231
0.22204395 0.07509115 -0.06104041 -0.048827942 -0.13039975 0.041050587 0.104794025 0.23241556
-0.08295625 0.16129622 0.09367795 0.055427488 0.04257294 0.09440601 -0.17424108 0.17398813
0.29635912 0.15102264 0.038276378 -0.16403219 -0.17610657 0.028918682 0.038394824 0.073576726
-0.08831948 -0.059824675 0.012011296 -0.07359018 0.02707696 -0.17944464 -0.0061063212 0.192114
0.3278838 0.11023905 -0.18101901 0.05528448 -0.17920662 -0.19770741 -0.053607497 -0.23472054
0.09349571 -0.0029261766 -0.17891537 0.1354723 -0.08269738 -0.034559753 0.17948599 -0.22991815
0.19555934 -0.20082021 0.043856297 0.17609635 -0.08315138 0.054015517 0.095451824 0.031778812
0.17504627 -0.20726374 -0.146478 0.16814741 -0.0098972125 -0.073323205
00000000: e963 aabd 601c 393d 20ef 613d 3a18 29bd
00000010: 885a 553e fa0f 0ebe d640 9a3e ba58 c93d
00000020: 5137 d23c 8c84 053e c175 d6bb b500 6dbe
00000030: 159a 0dbd c06c 46be eeb9 42be 7b0f 4b3c
00000040: 48ff 723e e60f f3bd 3250 5d3a 6c78 493e
00000050: 25d2 bd3d 4555 223e df73 b23d 0885 49be
00000060: b029 a5bd f408 133e 13a0 1a3c acc4 40bd
00000070: 6a20 2c3c 10c5 32be 4eb6 f03d 6c5a dcbd
00000080: 5635 033e d91f 873c c754 353e e052 33be
00000090: 284d 19be 5d8d 32be f11c edbc 71b4 6bbe
000000a0: f0ca 443d 7554 4f3e 2767 37be 20a4 21be
000000b0: 3904 03bd 6763 983e c19c 48be 2e05 20be
000000c0: 2e42 0b3e 212d 00bd 8b1c 18bd a096 50be
000000d0: 4552 d03d 0c41 10be 8a45 9cbd 58a3 40be
000000e0: 7d5f 633e 64c9 993d 8205 7abd cfff 47bd
000000f0: 8387 05be a924 283d 409e d63d 58fe 6d3e
00000100: f7e4 a9bd d62a 253e 3ada bf3d ef07 633d
00000110: f760 2e3d f057 c13d 416c 32be f229 323e
00000120: 62bc 973e aea5 1a3e b1c7 1c3d 0ef8 27be
00000130: 4855 34be dfe6 ec3c e443 1d3d 65af 963d
00000140: d8e0 b4bd b80a 75bd 07cb 443c 73b6 96bd
00000150: 80d0 dd3c 56c0 37be 8917 c8bb 88b9 443e
00000160: 63e0 a73e 03c5 e13d 0c5d 39be fb71 623d
00000170: f181 37be d073 4abe 8993 5bbd 955a 70be
00000180: ae7a bf3d 19c5 3fbb 9735 37be 40b9 0a3e
00000190: 3e5d a9bd 878e 0dbd 2dcb 373e aa6f 6bbe
000001a0: b540 483e d0a3 4dbe a9a2 333d 9a52 343e
000001b0: 454b aabd 603f 5d3d 3f7c c33d 802a 023d
000001c0: 543f 333e f23c 54be 54fe 15be d62e 2c3e
000001d0: eb27 22bc 7a2a 96bd

rnn.weight_hh_l0_reverse f4 [118, 118]
-0.10503921 0.07204211 -0.053514384 0.056770425 0.026267886 0.02712142 -0.028851153 0.017978724
0.059318684 -0.014146414 0.044835582 0.06503137 -0.12552299 -0.032479994 -0.048974317 -0.042216495
-0.06438021 -0.06182421 -0.06615013 -0.0469561 -0.03982433 -0.11389997 -0.053790785 0.050398543
-0.060241163 0.023125736 0.06367013 -0.029471071 0.053337142 -0.0789395 -0.03992989 -0.12030655
0.06978742 -0.073687196 0.01629711 0.041148998 0.021897545 0.0025444673 0.084708996 0.01758006
-0.009621652 -0.095644385 0.044421215 -0.0473397 -0.03579157 -0.0247082 -0.0060636313 -0.0015855774
0.09622978 -0.092508756 0.057237342 0.041026603 -0.026683643 -0.1118777 -0.07948669 0.052009743
-0.056768283 0.05481896 0.0045306864 -0.033595007 -0.0643957 0.07371319 0.06618557 -0.058496144
0.065521754 -0.008600511 -0.04005092 0.10255099 -0.042001683 -0.035842713 -0.025896354 0.106436156
0.070879795 -3.7274265e-05 -0.047664516 -0.024727587 0.07426181 -0.01331748 0.0681306 0.07306746
-0.1036411 0.01523055 -0.0920236 0.06169289 -0.04538036 -0.09126469 -0.055668663 0.12901568
0.09627832 0.02497387 0.0025338144 0.09038482 -0.017499445 0.01366294 -0.0125775 -0.007035498
0.06436464 -0.079545416 -0.057890486 0.055279557 -0.009039319 -0.023980564 -0.033448476 0.043489967
-0.06673539 0.044264425 0.06524733 0.039714247 0.019118475 0.086701676 0.103804044 0.017775172
-0.06896317 0.041344542 -0.07728611 -0.0026812486 0.052239984 0.0905616 -0.0403174 -0.05746853
0.0086166095 0.09318366 -0.08336005 -0.041764557 -0.02421272 -0.041871913 0.04441182 0.042406812
-0.057957746 0.044593155 -0.075932615 -0.011282053 -0.0016124707 -0.013229374 -0.002021875 -0.012621126
0.07912627 -0.12620583 -0.015957298 -0.06882732 -0.03405907 -0.049114566 0.06939386 -0.058364227
-0.033621803 0.09395122 -0.03822861 -0.015107485 -0.09205245 -0.063526414 -0.055060424 -0.041953493
-0.0669373 0.08378578 -0.052882757 0.0061080167 0.0059020463 -0.043265007 -0.015687656 -0.05879689
0.012092884 0.09619462 0.0094041675 0.013179228 0.10671585 -0.017493622 0.016033487 0.0499581
0.021445647 -0.017353263 0.037561547 -0.10194405 -0.05157887 0.079235666 -0.17020391 -0.108426295
-0.02589626 0.09719901 0.004889462 0.0053837043 -0.047521036 -0.056629024 0.06848292 0.016126262
0.092706256 0.064719535 0.036438424 -0.008300949 -0.043802228 0.027188018 0.06991178 -0.053246725
0.018000387 0.008039105 0.027910521 -0.08727004 0.08481273 0.0865403 0.005696262 -0.076240756
0.10786427 0.045424055 0.06966495 -0.10498116 -0.020933026 -0.016826928 -0.003828828 -0.08770116
0.0069177044 0.03527047 -0.019613238 -0.050985098 0.046722174 -0.041458588 0.056034047 -0.028120866
-0.056889936 0.09800097 0.019283831 -0.012632681 0.08104751 -0.010436003 -0.039529607 -0.07306232
-0.05321134 -0.08514136 -0.028218113 0.025203284 0.049923066 -0.012848173 -0.04082244 0.04823875
-0.07943907 -0.050726704 -0.045783386 0.014471988 0.089453906 0.052058775 -0.046456423 -0.062659495
-0.040502932 0.07767483 0.0013710724 0.022935504 -0.004185346 0.10118004 -0.048283894 0.009813917
0.10305027 -0.045274355 0.006333366 -0.0053528766 -0.008538094 -0.10320626 0.028226137 0.008389738
00000000: cc1e d7bd d08a 933d e631 5bbd 1b88 683d
00000010: c02f d73c bd2d de3c 4159 ecbc 1e48 933c
00000020: 26f8 723d 5cc6 67bc 84a5 373d 2b2f 853d
00000030: 1989 00be be09 05bd 4b99 48bd 34eb 2cbd
00000040: c6d9 83bd 623b 7dbd b879 87bd 0a55 40bd
00000050: d61e 23bd 6344 e9bd ba53 5cbd b46e 4e3d
00000060: 70bf 76bd 2f72 bd3c 7c65 823d 516d f1bc
00000070: 0c78 5a3d 08ab a1bd 868d 23bd 4863 f6bd
00000080: b5ec 8e3d 50e9 96bd 8481 853c da8b 283d
00000090: 7b62 b33c 14c1 263b e97b ad3d 0f04 903c
000000a0: 22a4 1dbc 34e1 c3bd 05f3 353d 46e7 41bd
000000b0: 2e9a 12bd da68 cabc 6db1 c6bb 26d3 cfba
000000c0: 1e14 c53d 3b75 bdbd b471 6a3d 830b 283d
000000d0: a897 dabc 2320 e5bd ebc9 a2bd 2b08 553d
000000e0: dc85 68bd d989 603d 2776 943b eb9a 09bd
000000f0: e5e1 83bd f1f6 963d 4d8c 873d a799 6fbd
00000100: 4530 863d 28e9 0cbc 6f0c 24bd 4106 d23d
00000110: f509 2cbd cfcf 12bd 9724 d4bc 33fb d93d
00000120: 6d29 913d f056 1cb8 de3b 43bd 8291 cabc
00000130: 9316 983d 8f31 5abc 0e88 8b3d 64a4 953d
00000140: c941 d4bd 8f89 793c df76 bcbd afb1 7c3d
00000150: c2e0 39bd fbe8 babd d304 64bd b01c 043e
00000160: 912d c53d 0096 cc3c 5a0e 263b ad1b b93d
00000170: ff5a 8fbc 86da 5f3c dc11 4ebc 098a e6bb
00000180: 9cd1 833d b5e8 a2bd 931e 6dbd d16c 623d
00000190: a719 14bc e372 c4bc 4501 09bd 8922 323d
000001a0: 90ac 88bd 9d4e 353d 64a0 853d 68ab 223d
000001b0: 599e 9c3c a690 b13d 3797 d43d 3d9d 913c
000001c0: 903c 8dbd e558 293d 2e48 9ebd e3b7 2fbb
000001d0: 98f9 553d 5c78 b93d dc23 25bd 1f64 6bbd
000001e0: ae2c 0d3c 13d7 be3d adb8 aabd 5011 2bbd
000001f0: c159 c6bc e281 2bbd 2be9 353d c4b2 2d3d
00000200: 1a65 6dbd 50a7 363d 8f82 9bbd 5cd8 38bc
00000210: 8a59 d3ba 04c0 58bc 6f81 04bb d7c8 4ebc
00000220: f40c a23d 1a3c 01be e1b8 82bc 57f5 8cbd
00000230: 8681 0bbd 5b2c 49bd 5e1e 8e3d 540f 6fbd
00000240: 04b7 09bd 7f69 c03d 9a95 1cbd 6285 77bc
00000250: ff85 bcbd 231a 82bd 0a87 61bd 6dd7 2bbd
00000260: 6c16 89bd e197 ab3d 979b 58bd c225 c83b
00000270: f465 c13b a636 31bd 6683 80bc 02d5 70bd
00000280: 3b21 463c af01 c53d f013 1a3c b0ed 573c
00000290: d78d da3d c94e 8fbc a958 833c dda0 4c3d
000002a0: c8ae af3c 6e28 8ebc 23da 193d 0bc8 d0bd
000002b0: 5d44 53bd 4f46 a23d ef49 2ebe 9b0e debd
000002c0: 6524 d4bc 4610 c73d c837 a03b c969 b03b
000002d0: 6ba5 42bd d6f3 67bd c640 8c3d 391b 843c
000002e0: c7dc bd3d ad8b 843d 7540 153d b400 08bc
000002f0: f769 33bd 68b9 de3c e82d 8f3d 3d19 5abd
00000300: 8c75 933c 73b6 033c 9ba4 e43c a2ba b2bd
00000310: 4cb2 ad3d 0a3c b13d b5a7 ba3b 1d24 9cbd
00000320: f1e7 dc3d 930e 3a3d 7fac 8e3d 5d00 d7bd
00000330: bd7b abbc a0d8 89bc 13ed 7abb aa9c b3bd
00000340: e9ad e23b c577 103d f1ab a0bc c0d5 50bd
00000350: c05f 3f3d 7bd0 29bd f583 653d bb5d e6bc
00000360: 6c05 69bd bcb4 c83d 20f9 9d3c 4ef9 4ebc
00000370: 3dfc a53d c5fb 2abc cce9 21bd b3a1 95bd
00000380: 22f4 59bd 985e aebd ac29 e7bc 1e77 ce3c
00000390: 217c 4c3d 2581 52bc 6e35 27bd ff95 453d
000003a0: f3b0 a2bd cec6 4fbd 5c87 3bbd eb1b 6d3c
000003b0: 9c33 b73d 953b 553d 1749 3ebd 9f53 80bd
000003c0: 67e6 25bd fb13 9f3d 8eb5 b33a 3de3 bb3c
000003d0: 3a25 89bb 7b37 cf3d 55c5 45bd 8dca 203c
000003e0: 050c d33d 9a71 39bd 2088 cf3b 2f67 afbb
000003f0: 5de3 0bbc ce5d d3bd 803a e73c 1d75 093c

rnn.bias_ih_l0_reverse f4 [118]
-0.03576832 0.022367978 0.014600877 0.018042998 0.06911667 0.045613088 -0.024235388 0.01474853
0.04772201 0.013202991 0.056531303 0.015595128 0.0844453 -0.061852764 0.0067500644 -0.013325755
-0.03291742 -0.028194193 -0.03672618 0.0009778545 -0.028417049 -0.07111817 -0.020578261 -0.0053176675
-0.023282336 -0.0021235836 0.029575055 0.06679054 -0.07329895 -0.00044267034 -0.014353251 -0.04591858
-0.024223855 -0.033955336 0.053787522 -0.07092856 0.055030953 0.011330577 0.049401853 0.0039480748
-0.007330816 0.062060636 -0.016363962 0.023159916 -0.0030322727 -0.07131224 0.014794842 0.068290755
-0.023190854 0.043612417 0.038983103 0.027114945 0.015898313 -0.033202358 -0.029760899 -0.012710567
-0.050254233 -0.04556774 -0.02591997 0.013378758 -0.02885733 0.0543658 0.04625033 0.055721298
-0.07017713 -0.0014216194 0.055340096 0.023311332 -0.08315778 0.026560567 -0.041319873 0.025589352
0.01595868 0.024794744 -0.058224317 0.033406712 0.07465237 -0.021595236 0.04180772 -0.004901678
0.024394529 0.058917355 -0.05446706 -0.061728943 0.018279852 0.062492117 -0.029525774 -0.044551916
-0.037152957 -0.0142060425 0.033290166 0.012522491 0.07750444 -0.01495288 -0.008859068 0.07969938
0.049718164 -0.046959333 0.05888456 0.04479101 -0.07724969 -0.045177583 0.034273896 0.046846822
0.0358561 -0.060429633 -0.027769657 0.045858476 -0.041793026 0.03551366 0.055132374 -0.04949212
-0.02323806 0.038425926 0.017110784 -0.012133514 0.06329411 0.018387448
00000000: cd81 12bd 0d3d b73c 8438 6f3c e9ce 933c
00000010: 0a8d 8d3d cad4 3a3d 4b89 c6bc d2a3 713c
00000020: 2878 433d 5c51 583c 5e8d 673d b582 7f3c
00000030: a8f1 ac3d 5359 7dbd a52f dd3b 4454 5abc
00000040: 6bd4 06bd 82f7 e6bc 316e 16bd 5a2b 803a
00000050: dfca e8bc 67a6 91bd be93 a8bc d43f aebb
00000060: 99ba bebc d22b 0bbb 6347 f23c 7bc9 883d
00000070: c31d 96bd 3516 e8b9 e629 6bbc 1f15 3cbd
00000080: 1b71 c6bc c014 0bbd 4e50 5c3d fe42 91bd
00000090: 2368 613d e2a3 393c 9959 4a3d da5e 813b
000000a0: 5737 f0bb 4b33 7e3d b70d 86bc ddb9 bd3c
000000b0: 18b9 46bb 270c 92bd 1166 723c 06dc 8b3d
000000c0: bffa bdbc efa2 323d bfac 1f3d 2920 de3c
000000d0: 2e3d 823c 32ff 07bd 21cd f3bc fb3f 50bc
000000e0: 62d7 4dbd 3da5 3abd 1e56 d4bc 9432 5b3c
000000f0: 3566 ecbc acae 5e3d fc70 3d3d 043c 643d
00000100: 07b9 8fbd a255 baba 4cac 623d 68f7 be3c
00000110: a04e aabd 8c95 d93c 073f 29bd c3a0 d13c
00000120: c7bb 823c 591e cb3c 9f7c 6ebd 7ad5 083d
00000130: 57e3 983d 7ee8 b0bc 923e 2b3d 419e a0bb
00000140: 09d7 c73c 5353 713d da18 5fbd 7dd7 7cbd
00000150: a1bf 953c bcf7 7f3d 09e0 f1bc 127c 36bd
00000160: b32d 18bd 76c0 68bc 455b 083d 222b 4d3c
00000170: a6ba 9e3d edfc 74bc a025 11bc 6e39 a33d
00000180: 46a5 4b3d 6e58 40bd f030 713d c776 373d
00000190: 1635 9ebd 210c 39bd c962 0c3d 74e2 3f3d
000001a0: d9dd 123d 1085 77bd 317d e3bc 19d6 3b3d
000001b0: 2a2f 2bbd c676 113d 7cd2 613d 40b8 4abd
000001c0: be5d bebc 8164 1d3d ea2b 8c3c a5cb 46bc
000001d0: 58a0 813d 46a1 963c

rnn.bias_hh_l0_reverse f4 [118]
0.022617571 -0.060585245 -0.023648556 -0.01816647 -0.06963837 -0.04753092 -0.038635895 -0.048121415
-0.06541739 -0.0019433609 -0.04904987 -0.026660154 -0.057714954 0.06351591 -0.014354321 0.0002794518
0.033731576 0.0381723 0.053544853 -0.019977482 0.020809807 0.05351764 -0.0077345506 0.024367182
0.028717939 -0.0023410828 -0.0019283862 -0.08041198 0.06535233 -0.027848847 0.009007621 0.033782724
-0.012297527 0.015919546 -0.073263876 0.0716728 -0.03427593 -0.014396822 -0.06347248 -0.03182814
-0.010407824 -0.07411857 0.007587342 -0.01755439 0.011203039 0.021485677 0.03760338 -0.066558
-0.019490046 -0.03046589 -0.010202054 -0.036693413 -0.0086565055 0.029606804 0.044839084 0.033095
-0.06693819 0.029220637 0.029044807 0.036116365 0.029477535 -0.06381264 -0.064866796 -0.07211039
0.06634087 0.025487684 -0.058031775 0.0022172076 0.07363176 -0.067750596 0.014281121 0.050641075
-0.01702481 -0.0056810626 0.032295804 0.011818538 -0.07763889 0.0021778317 -0.014516119 0.01878027
-0.01999187 -0.055445027 0.07423142 0.05417165 -0.02267368 -0.06669779 0.015476887 0.05799108
0.027586034 0.011443444 0.012206692 -0.0138027035 -0.042518005 0.06150045 0.0003841762 -0.05208239
-0.07004009 0.046353992 -0.04267633 0.00080397713 0.063148744 0.047549628 0.025169892 0.027897295
0.046413396 0.07421167 0.03545325 -0.09036446 0.038456652 -0.026225355 -0.054899953 0.046316065
-0.013567359 -0.07389663 -0.026046585 -0.05816053 -0.082703315 -0.032451306
00000000: 7c48 b93c 3c28 78bd 9eba c1bc d9d1 94bc
00000010: 909e 8ebd c8af 42bd ac40 1ebd f61a 45bd
00000020: 8df9 85bd 5fb8 feba 84e8 48bd 6566 dabc
00000030: 8466 6cbd a114 823d 632e 6bbc 6383 9239
00000040: 1f2a 0a3d 8f5a 1c3d d951 5b3d d1a7 a3bc
00000050: 5479 aa3c 5035 5b3d 1d72 fdbb af9d c73c
00000060: e241 eb3c da6c 19bb e7c1 fcba 09af a4bd
00000070: 71d7 853d 4423 e4bc b394 133c c15f 0a3d
00000080: 917b 49bc b569 823c 5f0b 96bd 30c9 923d
00000090: eb64 0cbd a6e0 6bbc dcfd 81bd 395e 02bd
000000a0: 9485 2abc 7acb 97bd 3d9f f83b 39ce 8fbc
000000b0: f48c 373c bb02 b03c 0006 1a3d 904f 88bd
000000c0: 97a9 9fbc 9a93 f9bc 8426 27bc d54b 16bd
000000d0: 04d4 0dbc f889 f23c 30a9 373d 9f8e 073d
000000e0: e416 89bd 1e60 ef3c 60ef ed3c c1ee 133d
000000f0: df7a f13c 34b0 82bd e2d8 84bd 9dae 93bd
00000100: b9dd 873d 8ccb d03c bab2 6dbd 924e 113b
00000110: 40cc 963d d3c0 8abd 5dfb 693c 046d 4f3d
00000120: 9d77 8bbc 3528 babb 9b48 043d 8ba2 413c
00000130: 2301 9fbd f4b9 0e3b 04d5 6dbc 15d9 993c
00000140: fdc5 a3bc 531a 63bd a506 983d 18e3 5d3d
00000150: 27be b9bc da98 88bd c592 7d3c 0e88 6d3d
00000160: 1bfc e13c 487d 3b3c 94fe 473c bc24 62bc
00000170: 5c27 2ebd e5e7 7b3d 426b c939 5854 55bd
00000180: 2e71 8fbd afdd 3d3d 60cd 2ebd fec1 523a
00000190: 2154 813d 66c3 423d 1731 ce3c de88 e43c
000001a0: f91b 3e3d 4afc 973d 6d37 113d 0111 b9bd
000001b0: b984 1d3d 8ed6 d6bc c6de 60bd eab5 3d3d
000001c0: a149 5ebc 1e57 97bd a65f d5bc bc39 6ebd
000001d0: 5b60 a9bd a9eb 04bd

fc.weight f4 [1, 118]
0.0046409764 0.039654795 0.052192125 0.030160638 0.117227904 -0.06760317 0.13472767 0.0067908894
0.046332132 0.0009229776 0.024705619 -0.109913565 -0.0272883 -0.11054716 -0.1096151 0.05068907
0.04124119 0.0057412903 -0.06605245 0.09118943 0.011717783 -0.001023657 0.046965525 -0.06695737
-0.039220612 0.11665353 -0.020971205 0.010602294 -0.016773682 -0.025045339 -0.073978044 -0.116909005
0.036896303 0.02321096 0.096322104 -0.03246624 -0.108948916 -0.05927557 0.011399582 -0.11594234
0.013029711 0.10803014 -0.10994834 -0.11352379 -0.058177434 0.11836867 -0.07299599 -0.0037094236
0.05802692 -0.057065014 0.083591305 -0.034465134 0.011337722 -0.07797112 -0.015455263 -0.091279
0.076094076 0.08447645 0.006799746 -0.0476654 -0.121192925 0.032421153 0.07492481 0.14074834
-0.049796376 0.11409221 0.12431865 0.09023916 0.052752756 0.017290665 -0.09268383 0.10070048
0.1088049 0.11433863 0.0016550063 -0.09643459 -0.07062834 -0.01631942 0.0015656257 0.10381433
-0.099201046 0.08954301 -0.01356812 -0.011448175 0.047660414 -0.016912257 0.013103877 0.13841884
0.14340842 -0.022053795 -0.08837063 0.09315754 -0.07353951 -0.117177136 0.097220205 -0.09376663
0.08701558 0.031494174 -0.11319104 0.042885296 0.007346421 0.031874213 0.09480982 -0.11391409
0.08385647 -0.10934529 0.07693637 0.03434166 0.036251478 0.019877546 0.10001449 -0.0342416
0.046611506 -0.12715586 -0.03120762 0.008392005 0.039094776 0.028663816
00000000: 5513 983b 116d 223d 69c7 553d 7113 f73c
00000010: 2f15 f03d 8873 8abd 0df6 093e 1c86 de3b
00000020: c3c6 3d3d faf3 713a 7063 ca3c 5d1a e1bd
00000030: b78b dfbc 8d66 e2bd e27d e0bd 589f 4f3d
00000040: 86ec 283d 6f21 bc3b 8246 87bd 86c1 ba3d
00000050: f2fb 3f3c 3b2c 86ba ec5e 403d f220 89bd
00000060: cba5 20bd 0ce8 ee3d cecb abbc 3eb5 2d3c
00000070: f668 89bc e22b cdbc cd81 97bd fd6d efbd
00000080: 9420 173d e924 be3c 8644 c53d 52fb 04bd
00000090: 9c20 dfbd f1ca 72bd 50c5 3a3c 2d73 edbd
000000a0: 927a 553c e83e dd3d 982c e1bd 297f e8bd
000000b0: 764b 6ebd 466b f23d ec7e 95bd cd19 73bb
000000c0: a3ad 6d3d 01bd 69bd eb31 ab3d 502b 0dbd
000000d0: dac1 393c 53af 9fbd 1238 7dbc 7cf0 babd
000000e0: 36d7 9b3d fd01 ad3d 67d0 de3b cb3c 43bd
000000f0: ff33 f8bd 0bcc 043d 2e72 993d 5520 103e
00000100: 49f7 4bbd 2da9 e93d c79a fe3d 4fcf b83d
00000110: 4613 583d 27a5 8d3c 05d1 bdbd 0e3c ce3d
00000120: 1ad5 de3d 5f2a ea3d ccec d83a 807f c5bd
00000130: 97a5 90bd 4eb0 85bc ae35 cd3a 9c9c d43d
00000140: eb29 cbbd 5362 b73d d24c 5ebc 2091 3bbc
00000150: 9137 433d 938b 8abc a5b1 563c abbd 0d3e
00000160: a8d9 123e 29aa b4bc a9fb b4bd 61c9 be3d
00000170: e29b 96bd 91fa efbd 631b c73d b808 c0bd
00000180: 3935 b23d 0900 013d b4d0 e7bd 7ea8 2f3d
00000190: 3fba f03b 898e 023d a72b c23d ca4b e9bd
000001a0: f1bc ab3d 6cf0 dfbd d190 9d3d d7a9 0c3d
000001b0: 6e7c 143d 3cd6 a23c 66d4 cc3d ec40 0cbd
000001c0: b5eb 3e3d 2535 02be 1fa7 ffbc 9f7e 093c
000001d0: d821 203d 61d0 ea3c
