covid_forecasting/cumulative/best_models/gru.pth (torch, 185824 bytes, 5 tensors)

gru.weight_ih_l0 f4 [366, 1]
0	0xbbeddbf7	-0.007258888
1	0x3e14dc63	0.14537196
2	0x3b968778	0.004593786
3	0x3d632589	0.05545572
4	0x3db98697	0.09058874
5	0x3dbc2020	0.09185815
6	0xbd23aa8e	-0.039957576
7	0xbd95faa2	-0.07323195
8	0xbc880c19	-0.016607331
9	0x3e0f6ce1	0.14006378
10	0x3b128be9	0.0022361225
11	0xbd0edbc3	-0.03487755
12	0x3e07e9d1	0.13272788
13	0x3d126ed9	0.035750244
14	0x3da8a0e0	0.082338095
15	0xbd03b76f	-0.032157358
16	0x3ea8314d	0.32850114
17	0x3c02954e	0.007970167
18	0xbcb92251	-0.022599371
19	0x3d97e813	0.074173115
20	0xbe03317c	-0.12811846
21	0xbcd20994	-0.025639333
22	0x3da6994d	0.081347086
23	0x3d94522f	0.07242238
24	0xbcdeb719	-0.027186917
25	0x3cbc59f9	0.022992121
26	0xbb9799ef	-0.0046265046
27	0xbe324e03	-0.17412572
28	0xbe618a6b	-0.22025459
29	0xbcaff807	-0.021480573
30	0x3dbd8404	0.092536956
31	0x3d060100	0.032715797
32	0xbe3d8a8a	-0.1850988
33	0xbd089a1e	-0.033350103
34	0x3e03f36c	0.12885827
35	0x3bac6467	0.0052609923
36	0xbd083a46	-0.0332587
37	0x3d99cb4c	0.07509479
38	0xbcecd863	-0.028911775
39	0x3d9495c2	0.072551265
40	0x3c1d02b5	0.009583165
41	0x3dead646	0.11466651
42	0xbd8b8e3f	-0.06814241
43	0x3b13b930	0.00225408
44	0xbda07569	-0.07834894
45	0xbda5b66c	-0.08091435
46	0x39f36919	0.00046426876
47	0x3d700e5e	0.05860745
48	0xbdd23261	-0.10263515
49	0x3df8b4aa	0.12143834
50	0x3ca9ab22	0.020711485
51	0x3d940b52	0.07228722
52	0xbda14924	-0.078752786
53	0x3d8bdcba	0.068292096
54	0x3df53d22	0.11974551
55	0xbd2a6dda	-0.04160867
56	0x3d586010	0.052825987
57	0x3dace920	0.084429026
58	0xbd74807b	-0.05969284
59	0x3d8eedad	0.06978927
60	0x3d94a50b	0.07258042
61	0x3d905e93	0.070492886
62	0x3e08eaee	0.13370869
63	0x3d71d7da	0.059043743
64	0x3c1dab42	0.009623351
65	0x3dd5f4f0	0.10447109
66	0xbdd895b0	-0.105754256
67	0x3dcc4117	0.099733524
68	0x3d7bf86d	0.061516214
69	0x3ce5ef57	0.028068228
70	0x3e845b02	0.25850683
71	0xbdc5f7e0	-0.09666419
72	0x3d1b9ee1	0.037993316
73	0x3db4c125	0.08825902
74	0xbab9058c	-0.0014116033
75	0x3dd0d97c	0.10197732
76	0xbd7f1bf3	-0.062282514
77	0x3bcc2057	0.006229441
78	0x3c29e62b	0.010369818
79	0xbcfa6b9a	-0.030568887
80	0x3dc0219e	0.09381412
81	0xbdcbdb24	-0.09953907
82	0x3d096a2e	0.033548526
83	0xbd47d24f	-0.04878455
84	0x3cd6aa98	0.026204392
85	0x3cfa77d4	0.030574717
86	0x3dd9a8b7	0.10627883
87	0xbdbf7094	-0.093476444
88	0xbd81bbed	-0.06334672
89	0xbd173520	-0.0369159
90	0x3d9a1079	0.07522673
91	0x3d926bdd	0.071494795
92	0x3c9bbfd4	0.01901237
93	0x3c81cd44	0.015844949
94	0xbdb27142	-0.087130085
95	0x3df00100	0.11718941
96	0xbbb2070e	-0.00543297
97	0x3dc24866	0.09486465
98	0xbd36c90a	-0.04462532
99	0x3e1c94eb	0.15291183
100	0xbe4d5549	-0.20052065
101	0x3d5f9ad4	0.054591015
102	0x3e101135	0.14069064
103	0xbd123d47	-0.03570297
104	0xbca6ee2d	-0.020377243
105	0xbe181a12	-0.14853695
106	0x3d361e6a	0.0444626
107	0xbc88c37c	-0.016694777
108	0x3d219346	0.03944709
109	0x3ded5f50	0.11590445
110	0xbd65d3e8	-0.056110293
111	0xbd32091b	-0.043465715
112	0x3d327176	0.043565236
113	0xbd70070f	-0.05860048
114	0xbd0c626c	-0.03427355
115	0x3db48d16	0.088159725
116	0xbb814821	-0.003945366
117	0xbd059c23	-0.032619607
118	0x3d178188	0.036988765
119	0x3e0ba36b	0.13636558
120	0xbe2d3d40	-0.16917896
121	0x3da2f714	0.07957283
122	0x3e6d6112	0.2318156
123	0xbd296be7	-0.04136267
124	0x3eaa5531	0.3326812
125	0xbd7cf06a	-0.061752714
126	0xbe9ceb7f	-0.3064842
127	0x3d0cbba5	0.03435864
128	0x3e780024	0.24218804
129	0xbe3baa3e	-0.18326661
130	0x3e209a47	0.15683852
131	0x3e787d7a	0.24266616
132	0xbe82a771	-0.25518373
133	0xbe69e2d8	-0.2284044
134	0x3eb27ed3	0.34862384
135	0xbd93d976	-0.07219212
136	0x3ec734cf	0.38907477
137	0xbdf306c8	-0.11866528
138	0xbe6985ce	-0.22804949
139	0x3d91acda	0.07113047
140	0xbc4e7ed0	-0.012603477
141	0x3bcac9ab	0.0061885915
142	0x3e89b698	0.2689712
143	0x3dd75494	0.10514179
144	0xbd30d016	-0.043167196
145	0x3e3668f4	0.17813474
146	0xbe0f4e07	-0.13994609
147	0x3d09a6d3	0.03360636
148	0xbe9d634d	-0.30739823
149	0xbd86a8c1	-0.06575156
150	0xbd7e6be3	-0.062114608
151	0x3d5d785d	0.054069865
152	0xbda8f4c2	-0.08249809
153	0xbc37ee4c	-0.011226248
154	0xbe0cbb76	-0.13743386
155	0x3f1c5ec0	0.6108208
156	0xbe82a830	-0.25518942
157	0xbd63eaab	-0.05564372
158	0x3d1d5d7b	0.038419228
159	0x3d075bcb	0.033046525
160	0xbd245526	-0.040120266
161	0xbdf895f1	-0.12137974
162	0xbe1ba2ff	-0.15198897
163	0x3cc9263d	0.024554366
164	0x3c4aa090	0.012367383
165	0xbe368d5d	-0.17827363
166	0xbdfe0a52	-0.12404312
167	0x3d1113e7	0.03541937
168	0xbd9d4fc6	-0.07681231
169	0xbe8ac6f3	-0.2710491
170	0x3e2b5942	0.16733268
171	0xbe021fbe	-0.12707421
172	0x3d432609	0.047643695
173	0x3f41258a	0.75447905
174	0x3e8a5658	0.27019
175	0xbe185054	-0.14874393
176	0xbe88e96a	-0.2674058
177	0xbe43aaa6	-0.19108066
178	0x3e8e8f3e	0.2784366
179	0xbdc21238	-0.09476131
180	0xba83dc5e	-0.0010060181
181	0x3e2ad0a7	0.16681157
182	0xbcef1952	-0.029186878
183	0xbd946352	-0.07245506
184	0xbcc62682	-0.024188284
185	0x3b9b62d1	0.0047420044
186	0xbe76dd2b	-0.24107806
187	0xbe111ad8	-0.14170396
188	0xbd8a6e48	-0.06759316
189	0x3d646911	0.05576426
190	0xbe32a16d	-0.17444392
191	0xbe095a38	-0.13413322
192	0x3eb532ae	0.35390228
193	0xbeac2931	-0.33625177
194	0xbdaca2f2	-0.08429517
195	0xbe08fcf3	-0.13377742
196	0xbe0d708d	-0.13812466
197	0xbe463741	-0.19357015
198	0x3e379916	0.17929491
199	0xbe6ee69b	-0.23330157
200	0xbcb42c3b	-0.021993747
201	0xbe005d06	-0.12535486
202	0xbe92293a	-0.28547078
203	0xbe37fae0	-0.17966795
204	0x3dec94fd	0.11551855
205	0x3d5fd65a	0.05464778
206	0xbd957b7d	-0.07298944
207	0xbdbe6258	-0.09296101
208	0xbe8fd770	-0.28094053
209	0xbd2302fc	-0.039797768
210	0xbd7d2d6b	-0.061810892
211	0xbe3e2870	-0.18570113
212	0xbe165685	-0.14681442
213	0xbe3099ac	-0.17246121
214	0xbdb98b98	-0.090598285
215	0xbdfa7cbc	-0.122308224
216	0x3cc58521	0.024111332
217	0xbe2d2652	-0.1690915
218	0x3daf1bcc	0.08550224
219	0xbe7ef522	-0.24898198
220	0xbcf63ef4	-0.030059315
221	0xbe30b022	-0.1725469
222	0xbdf20bd7	-0.118186645
223	0xbdcfd26c	-0.10147557
224	0xbe79a81a	-0.24380532
225	0xbe8430a0	-0.25818348
226	0xbe4b5102	-0.19855121
227	0xbe120572	-0.1425989
228	0xbe9bb08b	-0.3040813
229	0x3e881389	0.26577404
230	0x3d34b062	0.044113524
231	0xbe13e136	-0.1444138
232	0xbe58cc2e	-0.21171638
233	0xbea60292	-0.32423836
234	0xbe886763	-0.26641378
235	0xbe0ef875	-0.13961966
236	0xbd950279	-0.07275862
237	0xbe7c5069	-0.24640049
238	0xbe0e8ddb	-0.13921301
239	0xbd2d22a9	-0.042269383
240	0xbe94f1d4	-0.2909075
241	0xbe805508	-0.25064874
242	0x3c5c216e	0.013435705
243	0xbdf959d9	-0.1217534
244	0x3c8949b3	0.016758775
245	0x3e34a76c	0.17641991
246	0x3d8837d7	0.066512756
247	0xbd6f4c90	-0.058422625
248	0xbcc94df7	-0.02457331
249	0xbba5ab2e	-0.0050558066
250	0xbbaa0434	-0.0051884893
251	0xbe13c9f8	-0.14432514
252	0xbe3bc545	-0.18336971
253	0x3dff5a9d	0.12468455
254	0x383d2c83	4.5102566e-05
255	0xbe1bf880	-0.15231514

gru.weight_hh_l0 f4 [366, 122]
0	0x3b9a9189	0.004717056
1	0x3d14d220	0.036333203
2	0x3ceaab65	0.02864618
3	0x3d1e4856	0.038643204
4	0x3ce08490	0.02740696
5	0xbd3108ea	-0.04322139
6	0xbd74bc99	-0.059750173
7	0x3d4d4cea	0.05012218
8	0xbdc4b8f9	-0.09605593
9	0x3d0fedd7	0.03513893
10	0x3c1e3fe7	0.00965879
11	0x3d2eafff	0.04264831
12	0xbd41b5ba	-0.04729245
13	0x3d20f5a0	0.039296746
14	0xbc879714	-0.016551532
15	0x3d69d83b	0.05709098
16	0x3bc21c5a	0.00592379
17	0x3d757e30	0.059934795
18	0x3d03a41a	0.03213892
19	0xbd64bad6	-0.055842243
20	0x3d547dad	0.051877666
21	0x3c8e8a79	0.017400013
22	0x3d8b3bf4	0.067985445
23	0xbc028410	-0.0079660565
24	0xbcedb797	-0.029018207
25	0x3d367d20	0.044552922
26	0xbd0e8ad4	-0.034800366
27	0x3d167d26	0.036740445
28	0x3d1d4757	0.038398113
29	0xbd28f9f0	-0.041253984
30	0x3cbe3ab7	0.023221357
31	0x3d8c5a2b	0.06853136
32	0xbca3b021	-0.019981446
33	0x3cbde694	0.023181237
34	0xbd7c75c9	-0.061635766
35	0xbc9fa566	-0.019488048
36	0xbcf194c7	-0.029489888
37	0xbbe8efd3	-0.0071086674
38	0x3d97d069	0.07412798
39	0xbc9e6798	-0.019336507
40	0xbd22a286	-0.039705776
41	0xbd9a2f7a	-0.07528587
42	0xbdad9623	-0.08475902
43	0x3d5f6682	0.05454112
44	0x3d86e9a0	0.06587529
45	0xbdb5711f	-0.08859467
46	0xbd440ee9	-0.047865782
47	0x3d385d66	0.045010947
48	0x3b55df36	0.0032634265
49	0x3dcc8280	0.099858284
50	0x3cd6c68b	0.02621772
51	0xbd5284bd	-0.05139612
52	0x3da89085	0.0823069
53	0x3d6af6ac	0.05736415
54	0xbdb3b966	-0.08775596
55	0xbd38b583	-0.045094978
56	0x3d1cdec4	0.038298383
57	0x3c6d052d	0.014466566
58	0xbdbb2d3a	-0.09139486
59	0x3d7a51e6	0.06111326
60	0xbc43f701	-0.011960746
61	0xbc8a5abc	-0.016888969
62	0x3d104acf	0.035227593
63	0xbd921456	-0.07132785
64	0x3cfec8cb	0.031101605
65	0x3d63f102	0.055649765
66	0x3cb7597a	0.022381533
67	0x3d8fccd7	0.07021492
68	0x3d8dc1ba	0.06921716
69	0x3da49664	0.08036497
70	0xbd6fe7c5	-0.058570642
71	0xbcb4d87c	-0.022075884
72	0xbd3a66d3	-0.045508217
73	0xbdaedeb1	-0.08538569
74	0xbd01d081	-0.031692985
75	0xbb7c809d	-0.0038528808
76	0x3d618b4d	0.05506449
77	0xbd9c75d5	-0.07639662
78	0xbdbf5d99	-0.09344024
79	0x3da9518f	0.08267509
80	0x3cdb592f	0.026775924
81	0x3c6e38b3	0.014539885
82	0xbdc2b388	-0.09506899
83	0x3d30e1a5	0.04318394
84	0xbd7178ad	-0.058952976
85	0x3d129e73	0.03579564
86	0xbd69100d	-0.056900073
87	0xbd121d9f	-0.03567278
88	0xbc007307	-0.007839925
89	0x3d9ecad7	0.077535324
90	0x3cb87de0	0.02252096
91	0xbc89bf37	-0.016814811
92	0x3d897eb9	0.067136236
93	0xbca411f5	-0.020028094
94	0xbd5aa5f7	-0.053380933
95	0xbc931842	-0.017955903
96	0xbbe60e18	-0.007020723
97	0xbbb8f843	-0.0056448295
98	0xbb554408	-0.003254177
99	0x3d81eb19	0.063436694
100	0x3db89c62	0.09014203
101	0xbd981631	-0.07426108
102	0xbda81a18	-0.08208102
103	0xbc9b4445	-0.018953452
104	0x3d4bf3df	0.04979312
105	0xbd97050d	-0.0737401
106	0xbb125eca	-0.002233433
107	0xbda2830c	-0.079351515
108	0xbdb690c0	-0.089143276
109	0xbd863e2a	-0.065548256
110	0x3d478d56	0.048718773
111	0xbd0ade81	-0.033903603
112	0xbcfaafa4	-0.03060133
113	0x3d14bfaf	0.036315616
114	0x3c84a942	0.01619399
115	0xbd344109	-0.044007335
116	0xbc81641a	-0.015794802
117	0x3d8281ad	0.0637239
118	0x3c9c2ace	0.01906338
119	0xbd86c428	-0.065803826
120	0x3d77b78d	0.060477782
121	0x3c01b17e	0.007915853
122	0xbd90ccb3	-0.07070293
123	0xbad1fdfb	-0.0016021127
124	0x3d08b4dd	0.03337561
125	0x3cb91317	0.02259211
126	0xbca78530	-0.020449251
127	0xbd0646c1	-0.03278232
128	0xbd716b1e	-0.058940046
129	0x3c49424b	0.012283872
130	0x3c5df6ac	0.013547581
131	0xbd28dc83	-0.04122592
132	0x3da8e55d	0.082468726
133	0xbd73c98a	-0.059518375
134	0xbce28851	-0.027652891
135	0xbcdd3db3	-0.02700696
136	0x3d61032f	0.054934677
137	0x3ca875ff	0.020564077
138	0xbd2973ca	-0.04137019
139	0xbca18853	-0.019718325
140	0x3d057787	0.032584693
141	0x3d1cec2e	0.038311176
142	0x3db09fb0	0.08624208
143	0x3ca2d3aa	0.01987632
144	0xba2ca0c5	-0.0006585236
145	0xbc989b0f	-0.018628625
146	0xbd5d516e	-0.054032736
147	0x3d9890e0	0.07449508
148	0xbd82ad1e	-0.06380676
149	0xbd96fa00	-0.073719025
150	0x3cd7a12c	0.02632197
151	0xbcfcb826	-0.030849528
152	0x3d38c43b	0.045109015
153	0x3de0c954	0.109759
154	0xbda59848	-0.08085686
155	0x3d021a53	0.031763386
156	0x3c5ccaae	0.013476057
157	0x3d8113a6	0.06302576
158	0x3da3735a	0.07980986
159	0xbd2a3d44	-0.041562334
160	0xbd64a66e	-0.055822782
161	0x3c8234c3	0.0158943
162	0xbc8f95ae	-0.017527428
163	0x3c4d1065	0.012516116
164	0xbd57bf4d	-0.052672673
165	0xbd214688	-0.039373904
166	0x3d154a2c	0.03644769
167	0x3bf643f2	0.007515424
168	0xbbd35d3c	-0.0064503234
169	0xbd9cb7e5	-0.076522626
170	0x3cf10da1	0.029425444
171	0x3dbb1e92	0.0913669
172	0xbda24a5b	-0.079243384
173	0xbcda0063	-0.026611513
174	0x3e002f29	0.1251799
175	0xbd19727b	-0.037462693
176	0xbd40dee3	-0.04708756
177	0xba52dd62	-0.0008043853
178	0xbcf39758	-0.029735252
179	0x3d995e60	0.07488704
180	0xbcea85e1	-0.028628292
181	0x3c7e32f1	0.015515075
182	0x3dc617ae	0.09672485
183	0x3cef7322	0.029229704
184	0xbd1b96d0	-0.037985623
185	0xbb5044f0	-0.0031779371
186	0xbd668c42	-0.056286104
187	0xbe035460	-0.12825155
188	0x3d7ba003	0.061431896
189	0x3da1b704	0.078962356
190	0x3c797f11	0.015228049
191	0x3da59ba2	0.08086325
192	0xbd8e695f	-0.06953692
193	0x3dea7a8c	0.11449155
194	0x3c1c05ca	0.009522865
195	0x3d09972b	0.03359143
196	0xbdba2662	-0.09089352
197	0xbd930eaa	-0.07180531
198	0xbddfdcd0	-0.109307885
199	0x3d0f1d8f	0.0349403
200	0xbdb683a4	-0.08911827
201	0x3cc25604	0.023722656
202	0xbd611a52	-0.05495674
203	0x3d86edaf	0.06588303
204	0x3ce93e76	0.028472167
205	0xbb0811fd	-0.0020762675
206	0x3c2833d7	0.010266266
207	0xbc84c36b	-0.016206464
208	0x3d324415	0.04352196
209	0x3c4781dd	0.012176958
210	0xbd77fb04	-0.06054212
211	0xbc3ac65d	-0.011399833
212	0xbb6eeec3	-0.003645823
213	0x3dbd05ce	0.09229623
214	0xbd75813e	-0.059937708
215	0xbc4a7d4f	-0.012358977
216	0x3de17655	0.11008898
217	0xbb120275	-0.0022279297
218	0x3cafc3cc	0.021455668
219	0xbca2a584	-0.019854315
220	0x3da1351f	0.0787146
221	0xbdc13e1d	-0.09435675
222	0x3d256258	0.04037699
223	0xbc96e798	-0.01842098
224	0x3bb41e32	0.0054967636
225	0x3d789d45	0.06069686
226	0x3cc8d07f	0.024513481
227	0xbdc2a479	-0.09504027
228	0x3d7ac249	0.06122044
229	0x3de71adc	0.1128442
230	0xbe2af133	-0.16693573
231	0xbd7bd82c	-0.061485454
232	0x3d8d44ba	0.06897874
233	0x3cf6a855	0.030109564
234	0x3d80a9da	0.062823966
235	0x3d585e64	0.052824393
236	0xbcffdad8	-0.031232283
237	0xbd1ce490	-0.03830391
238	0x3d33826f	0.043825563
239	0x3dc1c4af	0.094613425
240	0x3d0dff91	0.034667555
241	0xbd6ec635	-0.058294494
242	0x3d1892ae	0.03724926
243	0xbd6861ae	-0.05673378
244	0x3cedade0	0.029013574
245	0xbdb483f1	-0.08814228
246	0xbd8170ed	-0.06320367
247	0xbc507fcc	-0.012725782
248	0x3cd2a868	0.025715068
249	0x3c16110e	0.00915934
250	0xbd30d939	-0.04317591
251	0x3d2a49d6	0.04157432
252	0x3de55333	0.111975096
253	0xbdb75ee5	-0.089536466
254	0x3d7aa31b	0.061190706
255	0x3daf79d1	0.085681565

gru.bias_ih_l0 f4 [366]
0	0x3d66554e	0.056233697
1	0xbd926386	-0.07147889
2	0x3db527ac	0.088454574
3	0x3da23e46	0.07922034
4	0xbcfaa3ee	-0.030595746
5	0x3d61503f	0.05500817
6	0x3d84410a	0.06457718
7	0xbd7447b2	-0.059638686
8	0xbbac4f79	-0.0052584973
9	0xbd3489de	-0.044076793
10	0x3d95d4d5	0.07315985
11	0xbdbf4a87	-0.09340387
12	0xbd0d06cd	-0.034430314
13	0x3d324b2e	0.04352873
14	0xbcd5ffad	-0.026122892
15	0xb98da035	-0.0002701298
16	0x3dc893cd	0.09793816
17	0xbbc002d9	-0.0058597145
18	0xbd40641b	-0.046970468
19	0xbd440a72	-0.047861524
20	0x3cadeedb	0.02123206
21	0x3d7d3b28	0.061823994
22	0xbc5e4629	-0.013566532
23	0x3c1a47ce	0.009416534
24	0x3da60aa9	0.08107502
25	0xbc9f55f3	-0.019450163
26	0xbd0f8d82	-0.03504706
27	0xbd83b26c	-0.06430516
28	0xbd00262c	-0.031286404
29	0xbce7a2ac	-0.02827581
30	0x3dedc58c	0.11609945
31	0xbc29c1a2	-0.010361107
32	0xbd956f74	-0.072966486
33	0xbc7c0207	-0.015381343
34	0xbcdce4e0	-0.026964605
35	0x3d5eb542	0.05437208
36	0xbd2ff576	-0.0429587
37	0xbda24225	-0.07922772
38	0x395c38f8	0.00021002057
39	0xbc35b67a	-0.011090869
40	0x3db711b8	0.089389265
41	0x3d558794	0.05213125
42	0x3c5d60f3	0.013511884
43	0xbdac063c	-0.083996266
44	0x3d56f09b	0.052475553
45	0xbc8682fd	-0.016419882
46	0xbd47167a	-0.04860542
47	0xbd91fcdf	-0.071283095
48	0xbc706353	-0.014672118
49	0x3d7c7d56	0.061642967
50	0xbd22b66e	-0.03972476
51	0x3cde5855	0.02714173
52	0x3cb11429	0.021616058
53	0x3c45c25d	0.012070266
54	0xbd24245c	-0.040073738
55	0xbd06eb42	-0.032939203
56	0xbd81c60e	-0.06336604
57	0x3bc8639f	0.0061153914
58	0x3dcfb56f	0.101420276
59	0x3d75653b	0.059910994
60	0xbd0c7268	-0.034288794
61	0xbd9b6a55	-0.075886406
62	0xbdd1ed1d	-0.10250304
63	0xbc81f775	-0.015865067
64	0x3cdcf148	0.02697052
65	0xbd3527fc	-0.044227585
66	0x3c559386	0.013035661
67	0xbd8caa69	-0.06868441
68	0xbd9f0140	-0.0776391
69	0xbd161213	-0.03663833
70	0xbca48dd6	-0.020087164
71	0xbd99a38b	-0.075018965
72	0x3da2eb55	0.07955042
73	0x3d8616dc	0.06547329
74	0x3bd2cb69	0.00643294
75	0xbd2ea25d	-0.04263531
76	0xbd2006fe	-0.03906917
77	0x3d5085f1	0.050908986
78	0x3d0d4d17	0.034497347
79	0x3e03fafa	0.12888709
80	0xbd8d4bf9	-0.06899256
81	0xbcb47bdf	-0.022031723
82	0xbcb8f18f	-0.022576122
83	0xbd5ceb14	-0.053935125
84	0x3d92ab9b	0.071616374
85	0xbca8d4b6	-0.020609241
86	0xbc5f9341	-0.013645948
87	0x3c44a70e	0.01200272
88	0x3d27fea2	0.04101432
89	0x3dbd09bb	0.092303716
90	0xbd56b2f6	-0.052416764
91	0x3d400b11	0.046885554
92	0xbd7cfa8c	-0.061762378
93	0x3c1b574a	0.009481261
94	0x3d64859b	0.05579148
95	0x3db89dc2	0.09014465
96	0x3e0465cf	0.12929462
97	0xbd970008	-0.07373053
98	0x3dbfcb9c	0.09365007
99	0xbd07c769	-0.033149157
100	0xbd8dd3fb	-0.06925198
101	0xbce9d2b1	-0.028542848
102	0x3dc92735	0.09821931
103	0x3d4accb1	0.049511615
104	0xbd8c1907	-0.06840711
105	0x3cd2e4f2	0.025743935
106	0x3d6b3b60	0.05742967
107	0xbd68102f	-0.05665606
108	0x3c8f8662	0.017520133
109	0x3da2fd59	0.079584785
110	0xbde1217d	-0.109927155
111	0xbd34fd92	-0.044187136
112	0xbd5bb1ba	-0.05363629
113	0x3cd6d9d2	0.026226912
114	0xbd6a78d4	-0.057244137
115	0x3d1f6166	0.038911246
116	0x3d618a3c	0.05506347
117	0xbd744954	-0.059640244
118	0xbc6f2427	-0.014596022
119	0xbdbdc466	-0.09265976
120	0x3c674ff5	0.014118184
121	0xbb460f51	-0.0030221532
122	0x3c9d19a4	0.019177265
123	0xbea62ca5	-0.32455936
124	0xbed1564b	-0.4088615
125	0xbe432102	-0.1905556
126	0xbc7fe7fe	-0.015619276
127	0xbe2530ce	-0.16131899
128	0x3de34a17	0.11098116
129	0xbe1d8d7e	-0.15386006
130	0xbe8bb4fb	-0.27286515
131	0xbe3eab13	-0.18619947
132	0xbe03f0ea	-0.1288487
133	0xbe05c91a	-0.13064995
134	0xbc838515	-0.01605467
135	0xbdc97cb9	-0.09838242
136	0xbdfca79a	-0.12336655
137	0xbe1d8394	-0.15382224
138	0xbeb28c1f	-0.3487253
139	0xbda52c12	-0.08065046
140	0xbe839d6d	-0.25706044
141	0xbb6b623a	-0.0035916702
142	0xbe02c3b4	-0.12769967
143	0x3bb1f189	0.0054304046
144	0xbb3add5d	-0.002851329
145	0xbeaa90cb	-0.33313593
146	0xbe857ca8	-0.26071668
147	0xbda32667	-0.07966309
148	0xbe632367	-0.22181474
149	0xbed18e17	-0.40928718
150	0xbef86c41	-0.4852009
151	0xbeef99db	-0.4679707
152	0xbeeef59d	-0.46671763
153	0xbe4d110f	-0.20026039
154	0xbe2020f2	-0.15637568
155	0xbe01ed2f	-0.12688135
156	0xbe64204e	-0.22277948
157	0xbe091955	-0.1338857
158	0xbe967d0f	-0.29392287
159	0xbe32b1d4	-0.17450649
160	0xbdd17c2b	-0.10228761
161	0xbdd575d5	-0.10422865
162	0xbe4151f6	-0.18878922
163	0xbe216d1c	-0.15764278
164	0xbe3aa5a0	-0.18227243
165	0xbe1b3875	-0.15158255
166	0xbd8decf4	-0.06929961
167	0xbe48c263	-0.19605403
168	0xbeb4a7aa	-0.35284168
169	0xbe4688b1	-0.19388081
170	0x3dc8defe	0.098081574
171	0xbe6fda2e	-0.23423073
172	0xbe315936	-0.17319188
173	0xbe3c6801	-0.1839905
174	0xbe90845c	-0.28225982
175	0xbd90e05a	-0.07074042
176	0xbdd13bd7	-0.10216492
177	0xbe3d5dff	-0.18492888
178	0x3df6da6c	0.120533794
179	0xbe56ebcd	-0.20988388
180	0xbe570739	-0.20998849
181	0xbe887ff7	-0.2666013
182	0xbea621fa	-0.32447797
183	0xbe17258c	-0.14760417
184	0xbdc54259	-0.096317954
185	0xbe012705	-0.12612541
186	0xbe218785	-0.15774353
187	0xbeb9f1a7	-0.3631718
188	0xbc8191dd	-0.015816623
189	0x3db16a37	0.08662837
190	0xbd738fbc	-0.059463248
191	0xbeae8542	-0.34086043
192	0xbe03ae33	-0.1285942
193	0xbeb226ec	-0.3479532
194	0xbe20bd23	-0.1569715
195	0xbebe1f26	-0.3713314
196	0xbe2dcb4d	-0.16972084
197	0x3c6c4705	0.014421229
198	0xbe48f8b5	-0.19626124
199	0xbdd80e95	-0.10549656
200	0xbec19223	-0.37806806
201	0xbe9abffe	-0.30224603
202	0xbcddbb76	-0.027066927
203	0xbe900dfe	-0.28135675
204	0xbd86abfa	-0.06575771
205	0xbedf626d	-0.4362978
206	0xbdd0d090	-0.1019603
207	0xbe08cabd	-0.13358589
208	0xbdf9241b	-0.1216509
209	0xbe3a4f7f	-0.18194388
210	0xbe20049d	-0.1562676
211	0xbd898a7e	-0.067158684
212	0xbe5c85a2	-0.21535352
213	0xbd063bc4	-0.03277184
214	0xbe6c7564	-0.23091656
215	0xbdb782c6	-0.0896049
216	0xbe9a3902	-0.30121619
217	0xbe1295af	-0.14314912
218	0xbe9a25e3	-0.3010703
219	0xbe2f77b0	-0.17135501
220	0xbd281be7	-0.041042235
221	0xbd45bdfd	-0.04827689
222	0xbee2b552	-0.4427896
223	0xbdd10186	-0.10205369
224	0xbe05aa03	-0.13053136
225	0xbe06fa71	-0.13181473
226	0xbe1d3d57	-0.1535543
227	0xbe47f216	-0.19525942
228	0xbd7c174f	-0.061545666
229	0xbed0a79d	-0.4075288
230	0xbe99c1fa	-0.30030805
231	0xbe203e5d	-0.1564879
232	0xbcbd4914	-0.023106135
233	0xbea71b59	-0.32638052
234	0xbe0825d0	-0.13295674
235	0x3defa74a	0.1170183
236	0xbeba0165	-0.3632919
237	0xbeaa06e4	-0.33208382
238	0xbec2f4c1	-0.38077357
239	0xbdb64749	-0.08900315
240	0xbddab231	-0.106785186
241	0xbd8db175	-0.06918613
242	0xbeb760e6	-0.35816115
243	0xbdac08c4	-0.084001094
244	0xbd145808	-0.036216766
245	0xbceebb4a	-0.02914204
246	0xbcc92cfe	-0.024557587
247	0x3d0ea0b5	0.03482123
248	0xbd98bda2	-0.074580446
249	0x3d805346	0.06265883
250	0xbce89822	-0.028392855
251	0xbdad170e	-0.08451663
252	0x3d18b1bc	0.037278876
253	0xbd8ff0c0	-0.07028341
254	0xbccccce2	-0.02500004
255	0xbd57614d	-0.052583028

gru.bias_hh_l0 f4 [366]
0	0xbd59f80d	-0.053215075
1	0xbd58b5fc	-0.05290793
2	0x3c1dc833	0.009630251
3	0xbc0bcf89	-0.008533367
4	0x3c8b0df3	0.016974425
5	0x3d121aad	0.03566997
6	0xbdb57e16	-0.088619396
7	0xbda9850b	-0.08277329
8	0xbc6b4913	-0.014360684
9	0x3c287b63	0.010283324
10	0x3d916121	0.07098604
11	0x3da13857	0.07872074
12	0xbd7386a7	-0.059454586
13	0xbd29a064	-0.041412726
14	0xbd3c994b	-0.04604463
15	0xbcb4f756	-0.022090595
16	0x3daade52	0.083431855
17	0xbd0ee2be	-0.034884207
18	0x3d1857a9	0.037192974
19	0xbcca6fb1	-0.024711462
20	0xbdcbe179	-0.09955115
21	0xbb2325e0	-0.0024894401
22	0xbd819a80	-0.06328297
23	0xbdaced8e	-0.084437475
24	0xbd68b340	-0.05681157
25	0x3dd9679b	0.10615464
26	0x3d583498	0.052784532
27	0x3c719d12	0.014746921
28	0x3cbf0f7b	0.023322811
29	0xbd471bab	-0.04861037
30	0x3d100219	0.03515825
31	0x3d325243	0.043535482
32	0xbd41b9c4	-0.0472963
33	0xbca0926c	-0.01960107
34	0xbd6d8202	-0.057985313
35	0xbd9629a7	-0.07332163
36	0xbd7cdabc	-0.06173204
37	0x3b966e52	0.004590788
38	0x3d88aaba	0.066731885
39	0x3d16d3b9	0.03682301
40	0x3db366e7	0.087598614
41	0x3d91b91c	0.07115385
42	0x3de89416	0.1135637
43	0x3d92aeac	0.07162222
44	0xbc642f19	-0.013927245
45	0xbd029d1b	-0.03188811
46	0x3c12cbd4	0.008959729
47	0x3aa158f6	0.0012309838
48	0xbdb0f278	-0.08639997
49	0xbdcb798f	-0.09935295
50	0x3c867f6e	0.016418185
51	0xbd887fd5	-0.06665007
52	0x3d1e1450	0.03859359
53	0x3b2a0713	0.0025944158
54	0xbdaf52e4	-0.08560732
55	0xbda852d3	-0.082189225
56	0x3c8a04a5	0.016847918
57	0x3c3ea603	0.01163626
58	0x3d24ded4	0.040251568
59	0xbbd446ad	-0.006478152
60	0xbd3947c9	-0.045234475
61	0xbd2feae7	-0.04294863
62	0xbbf9cf2e	-0.0076235747
63	0xbd70a0d0	-0.058747113
64	0xbd3e8b0e	-0.04651933
65	0xbd2f3642	-0.042776354
66	0x3d42f8ac	0.047600433
67	0x3d59c74f	0.05316859
68	0xbcfdf47d	-0.03100037
69	0xbd2147fc	-0.03937529
70	0x3c3286d3	0.010896402
71	0xbd81278e	-0.063063726
72	0xbc564e27	-0.013080156
73	0xbc921336	-0.017831426
74	0xbdbb7897	-0.0915386
75	0x3c5b808c	0.013397347
76	0x3d415fa9	0.04721037
77	0xbd9350f9	-0.07193179
78	0x3d525f22	0.051360257
79	0x3dc009d6	0.09376876
80	0x3d1a895d	0.037728656
81	0xbca16b50	-0.01970449
82	0x3d86f83b	0.06590315
83	0xbc3e6f3a	-0.011623198
84	0xbd2269c7	-0.03965166
85	0x3c7e0226	0.015503442
86	0xbd2eea45	-0.042703886
87	0xbd110b27	-0.035411026
88	0x3d954639	0.072887845
89	0x3d4a041e	0.049320333
90	0x398decb2	0.00027069967
91	0xbdc0dde6	-0.09417324
92	0x3c6925bc	0.014230188
93	0x3da405c0	0.08008909
94	0x3da1fc44	0.07909444
95	0x3e068ce3	0.13139682
96	0x3d672859	0.056434963
97	0x3cc9be21	0.024626793
98	0x3cf9c0e4	0.030487485
99	0xbb728dcb	-0.0037010785
100	0x3dad7819	0.084701724
101	0x3c7752ee	0.015095456
102	0x3dbe920d	0.09305201
103	0x3dcfd869	0.10148699
104	0xbc964d0d	-0.018347288
105	0xbdc5bf8c	-0.09655675
106	0x3c2936ee	0.010328038
107	0x3d9555dc	0.07291767
108	0xbddd903e	-0.10818528
109	0x3b2d255c	0.0026419973
110	0xbdc7bc32	-0.09752692
111	0x3d9fa746	0.07795577
112	0xbd83e978	-0.06441015
113	0x3d3cbb76	0.046077214
114	0xbd6e1040	-0.058120966
115	0xbd0778c3	-0.03307415
116	0x3da2d674	0.0795106
117	0xbd4d99a2	-0.050195344
118	0xbd0e02eb	-0.03467075
119	0x3d2121de	0.03933894
120	0x3d596976	0.05307909
121	0xbd8e5575	-0.069498934
122	0x3e297579	0.16548719
123	0xbed540e2	-0.41651064
124	0xbeca8ddb	-0.39561352
125	0xbe870459	-0.26370504
126	0xbe3c3568	-0.18379748
127	0xbc00210c	-0.007820379
128	0x3d86dd6d	0.06585202
129	0xbe42d3ea	-0.19026151
130	0xbec359cb	-0.38154444
131	0xbeb69aad	-0.35664883
132	0xbdbea4ae	-0.09308754
133	0xbe0b1913	-0.13583784
134	0xbdacdefe	-0.0844097
135	0xbe64d993	-0.22348623
136	0xbe3e6c1a	-0.18595925
137	0xbda7e475	-0.081978716
138	0xbec9b34b	-0.39394602
139	0xbdbaa2ab	-0.09113058
140	0xbdeff322	-0.11716296
141	0xbd99b200	-0.07504654
142	0xbe5e5fc6	-0.21716222
143	0x3e0ab964	0.13547283
144	0xbd61bcda	-0.055111744
145	0xbee2d8af	-0.4430594
146	0xbe10c899	-0.14139022
147	0xbdecefd8	-0.11569184
148	0xbe45b47a	-0.19307128
149	0xbece3fca	-0.40283042
150	0xbefb0769	-0.4902909
151	0xbec222d9	-0.37917212
152	0xbee665a5	-0.44999424
153	0xbe4b745d	-0.19868608
154	0xbe799f73	-0.24377231
155	0xbdb8b27d	-0.09018419
156	0xbe400f91	-0.18755938
157	0xbe6d623b	-0.23182003
158	0xbe9c6b71	-0.3055072
159	0xbe81c63e	-0.2534656
160	0xbd53ce99	-0.0517107
161	0xbe5367ad	-0.20645018
162	0xbe6d5a28	-0.23178923
163	0xbe144bb5	-0.14482005
164	0xbe0c3b83	-0.13694577
165	0xbcdaadde	-0.026694234
166	0xbdbade25	-0.09124402
167	0xbe853821	-0.26019385
168	0xbe8cdb2a	-0.2751096
169	0xbe6f8be7	-0.23393212
170	0x3da0b5c8	0.07847172
171	0xbeb094d0	-0.34488535
172	0xbd26418f	-0.040589865
173	0xbe64533a	-0.22297373
174	0xbeb87243	-0.36024675
175	0xbe2bf84a	-0.16793934
176	0xbcf28fc9	-0.029609578
177	0xbe3cd77e	-0.18441579
178	0x3d8e8596	0.06959073
179	0xbd9226ad	-0.07136283
180	0xbd9f2c11	-0.07772077
181	0xbe3d3d43	-0.184804
182	0xbe9264b9	-0.2859247
183	0xbdcc194d	-0.09965763
184	0xbe367010	-0.17816186
185	0xbe2bb43c	-0.16767973
186	0xbdbc1de8	-0.09185392
187	0xbee0e5ea	-0.4392541
188	0xbe2738e1	-0.16330291
189	0x3e321d26	0.17393932
190	0xbe132474	-0.14369375
191	0xbf00cbf6	-0.5031122
192	0xbe40ac3a	-0.18815699
193	0xbe3cb5fc	-0.18428797
194	0xbe49dabd	-0.19712348
195	0xbed0c522	-0.407754
196	0xbe4cb283	-0.19989972
197	0xbe1ddf20	-0.15417147
198	0xbe20ad6a	-0.15691152
199	0xbe458fd9	-0.19293155
200	0xbeab24d7	-0.33426544
201	0xbe63fcf5	-0.22264464
202	0xbd8b846a	-0.06812365
203	0xbe50fbcd	-0.20408554
204	0xbc41dd64	-0.011832569
205	0xbee4d2e6	-0.44692153
206	0xbe1ef792	-0.15524128
207	0xbdbb0670	-0.09132087
208	0xbe02e2cb	-0.12781827
209	0xbe3c4366	-0.18385085
210	0xbd19b0fd	-0.037522305
211	0xbd8f90be	-0.07010029
212	0xbe2c3093	-0.16815405
213	0xbd872c79	-0.06600279
214	0xbe0cf260	-0.13764334
215	0xbe33716f	-0.1752374
216	0xbef4dbc8	-0.4782393
217	0xbe60d6fd	-0.21957012
218	0xbeb67f0e	-0.3564381
219	0xbe77be91	-0.24193789
220	0xbd73c6cb	-0.059515756
221	0xbd7f1179	-0.062272523
222	0xbef62a42	-0.48079115
223	0xbe3cff60	-0.18456793
224	0xbe4fd7ac	-0.20297116
225	0xbe3c4539	-0.18385781
226	0xbe3aa330	-0.18226314
227	0xbe62877a	-0.22121993
228	0xbe28751b	-0.16450922
229	0xbebe4ccb	-0.37167963
230	0xbe4a3ac9	-0.19748987
231	0xbe82c073	-0.25537452
232	0xbe21360f	-0.15743278
233	0xbe623458	-0.2209028
234	0xbddcdee8	-0.107847035
235	0x3da4ca72	0.08046426
236	0xbecbafba	-0.39782506
237	0xbea064c6	-0.31326884
238	0xbee019ad	-0.4376959
239	0xbe073665	-0.13204344
240	0xbe873fd8	-0.26415896
241	0xbe1b5474	-0.15168935
242	0xbeca84d0	-0.39554453
243	0xbe5a8b82	-0.2134228
244	0x3d1e1255	0.0385917
245	0x3b949c52	0.0045352364
246	0xbda806b1	-0.08204401
247	0xbd750b16	-0.059825025
248	0xbc68bf06	-0.0142057
249	0x3d0b89a3	0.034066807
250	0xbd90224d	-0.07037792
251	0xbc00d287	-0.007862694
252	0x3d8bb9a4	0.068225175
253	0x3d2f66d8	0.04282269
254	0xbd3abbdf	-0.045589324
255	0xbd7fc211	-0.062440936

fc.weight f4 [1, 122]
0	0x3d581213	0.052751612
1	0x3e50ecd9	0.2040285
2	0x3d5d9605	0.054098148
3	0xbdbc376a	-0.09190257
4	0xbd4109e8	-0.047128588
5	0xbb74cf2a	-0.0037354925
6	0x3d750eab	0.05982844
7	0xbda5917c	-0.080843896
8	0xbe0d3ec8	-0.1379348
9	0x3db61eb9	0.08892579
10	0xbd1be35d	-0.038058627
11	0xbd28de0a	-0.041227378
12	0x3d587798	0.05284843
13	0x3d5904ca	0.052983083
14	0x3decbb2f	0.1155914
15	0x3d81d1b8	0.06338829
16	0x3ddc7f32	0.10766448
17	0x3d65ebe9	0.056133185
18	0x3df32afb	0.11873432
19	0x3d9f39d9	0.077747054
20	0x3dd1e4d2	0.10248722
21	0x3d6d1c91	0.05788857
22	0xbd2017b8	-0.03908512
23	0x3e4ffede	0.20312068
24	0xbd34c15a	-0.044129707
25	0x3cb4dca6	0.02207787
26	0xbd09a8fe	-0.03360843
27	0x3e04be93	0.12963323
28	0x3e6d146d	0.23152323
29	0xbe4980f2	-0.19678095
30	0x3e485bd6	0.19566283
31	0x3e3c4a99	0.18387832
32	0x3d8ff9af	0.07030045
33	0xbdc585c7	-0.09644657
34	0x3db720f4	0.08941832
35	0xbd88e9e4	-0.06685236
36	0x3e53fc6d	0.20701762
37	0x3e2d2eea	0.16912428
38	0xbc55dc59	-0.013053023
39	0xbdd09576	-0.101847574
40	0xbd8534c0	-0.06504202
41	0xbde59790	-0.11210549
42	0xbda92b34	-0.082601935
43	0xbd768fe0	-0.060195804
44	0xbda7e08e	-0.08197127
45	0xbde14cc9	-0.11000974
46	0x3dc85c54	0.09783235
47	0xbd82b448	-0.06382042
48	0x3bb2ef65	0.005460667
49	0x3e2e9598	0.17049253
50	0xbd2e8951	-0.042611424
51	0xbdf1098a	-0.117693976
52	0x3d9575fa	0.07297893
53	0xbdb1a580	-0.08674145
54	0xbd95fcf8	-0.073236406
55	0xbde3aa20	-0.11116433
56	0xbd6bd8d4	-0.05757983
57	0x3df3c008	0.119018614
58	0xbd2b41f1	-0.041810934
59	0x3ce51d35	0.027968029
60	0x3e05759b	0.13033144
61	0x3dad3cb2	0.08458842
62	0xbd83fcfb	-0.064447366
63	0xbdf86176	-0.12127964
64	0x3d421863	0.04738654
65	0xbe1eb7a2	-0.15499738
66	0x3d410a7c	0.04712914
67	0xbcefa556	-0.029253643
68	0x3d4be615	0.04977997
69	0x3e868503	0.26273355
70	0x3d979017	0.0740053
71	0xbd79518d	-0.06086879
72	0x3d9df52a	0.07712777
73	0xbe3a1a18	-0.18174016
74	0xbe17c661	-0.1482177
75	0xbd9cb6fd	-0.0765209
76	0xbd416e25	-0.047224183
77	0x3dacc598	0.084361255
78	0xbdf268a7	-0.11836367
79	0x3db83452	0.08994354
80	0x3d51d0dd	0.05122458
81	0x3e01765d	0.12642808
82	0xbca14c1a	-0.019689608
83	0x3e4e8588	0.20168126
84	0x3ddd3c4d	0.10802517
85	0xbdc7dfdc	-0.09759495
86	0xbd6bd6e9	-0.057578
87	0xbde89d91	-0.113581784
88	0xbcfc6965	-0.030811975
89	0x3d18b312	0.03728015
90	0xbda9123c	-0.08255431
91	0x3d9525b6	0.072825834
92	0x3da90dc9	0.082545824
93	0xbe0ce34c	-0.13758582
94	0x3e6162b5	0.2201031
95	0x39cd1ca3	0.00039121983
96	0x3da76fa8	0.081755936
97	0x3d78f87b	0.060783844
98	0x3ce767c4	0.028247721
99	0xbdf4af60	-0.119475126
100	0x3e713e0c	0.23558825
101	0xbd26aee0	-0.040694118
102	0xbdbd2df4	-0.092372805
103	0xbb8cdc6a	-0.0042987363
104	0x3ddcd880	0.107834816
105	0xbe146bf0	-0.144943
106	0x3d7a4099	0.06109676
107	0x3e415841	0.18881322
108	0xbda29985	-0.07939438
109	0xbe00b0d9	-0.12567462
110	0x3dd6a638	0.104809225
111	0xbc9150e4	-0.017738767
112	0x3df02538	0.11725849
113	0xbc232f3e	-0.009959994
114	0xbe3bd120	-0.18341494
115	0xbde44f2f	-0.111479156
116	0x3debace0	0.11507583
117	0x3dfb9dc2	0.12285949
118	0x39ae1bd7	0.00033208609
119	0xbd09d829	-0.033653412
120	0x3e589ba4	0.21153122
121	0xbdd4a177	-0.103823595
