covid_forecasting/cumulative/best_models/gruanfis.pth (torch, 6119 bytes, 9 tensors)

memberships.0.c f4 [9]
000000 eb df 0e bb 8d fa 8e 3e b4 41 15 3f 2f 98 1f 3f
       -0.0021800946 0.2792553 0.5830338 0.6234159
000010 63 a1 67 3f 58 ad 85 3f 29 94 99 3f 28 dd ac 3f
       0.9048063 1.0443525 1.199834 1.3504992
000020 79 31 c0 3f
       1.5015098

memberships.0.a f4 [9]
000000 be be 65 3f 26 bc 55 3f 5f 3f e1 3e 29 80 87 bc
       0.89744174 0.83490217 0.4399366 -0.016540604
000010 ab ce a5 bc 96 da 26 3f 74 af 44 3c 8e e4 0a bc
       -0.020240149 0.65177286 0.012004722 -0.008477343
000020 72 48 31 bc
       -0.010820495

memberships.0.b f4 [9]
000000 3d ba e5 3f c2 26 2f 40 e5 a1 23 bd c7 e3 04 40
       1.794746 2.7367406 -0.039949317 2.0764024
000010 ab a7 e1 3f 17 7b d6 bc b7 47 04 40 92 77 05 40
       1.7629293 -0.02618174 2.0668771 2.085423
000020 88 50 03 40
       2.0517902

consequents.linear.weight f4 [9, 1]
000000 e0 72 7d 3f da 4e 91 3f 96 44 27 3f e3 89 76 be
       0.9900341 1.1352189 0.6533903 -0.24076037
000010 53 19 2d 3e 21 b2 95 3f 1a 0d a5 be e1 1f 9b 3d
       0.16904192 1.1694986 -0.32236558 0.0757444
000020 fd 2c 47 be
       -0.19450755

consequents.linear.bias f4 [9]
000000 46 dc 80 bf f5 ee 64 3f b7 7e 8b 3e 5f 5e 37 bf
       -1.0067222 0.8942712 0.27245113 -0.71628374
000010 e0 5c 8d be 05 83 8c bf 13 d1 4a 3f 0e 69 f3 bf
       -0.2760992 -1.0977484 0.7922527 -1.9016435
000020 c2 eb 18 bf
       -0.5973474

recurrent.weight_ih_l0 f4 [27, 9]
000000 5b d3 77 3e 61 84 ad be 46 ce 6e 3d 4f db ce 3e
       0.2420172 -0.3389006 0.058302186 0.40401694
000010 0e 92 a2 3d b3 ba 3d 3e a4 bb 1d be d5 cd cf 3e
       0.07938014 0.18528251 -0.1540361 0.40586725
000020 25 55 5b 3e c1 a3 f8 be 8f bd c1 3c 55 84 f5 3e
       0.21419199 -0.48562434 0.023649959 0.47952524
000030 04 2f 7d be b3 31 34 bf 91 77 24 bf 17 97 ef 3e
       -0.24724966 -0.70388335 -0.64244944 0.4679496
000040 f3 d9 f5 be 43 8e c9 be 3d 34 62 bc e7 83 aa 3e
       -0.48017845 -0.3936635 -0.0138064 0.33303759
000050 d1 ed c7 3e 27 ea 5b be 15 9a 69 3d e9 c7 e0 3d
       0.39048627 -0.21476041 0.05703171 0.1097563
000060 4b e9 31 be 9e 04 84 3e 9f e4 9b 3e 8e bc 0e 3e
       -0.1737415 0.25784773 0.30447862 0.13939115
000070 be d2 65 be 62 84 7a 3e d8 cf ac bd 9f 2e 13 3e
       -0.22443673 0.24464563 -0.084380805 0.14373253
000080 73 d8 bb 3e 38 40 ec bd 8d 44 9c 3e 09 2a 27 3e
       0.36688575 -0.11535686 0.3052105 0.16324629
000090 fc 08 0a 3d 81 41 fd be f7 7a 1d bf 6c 9b db 3d
       0.033699974 -0.49464038 -0.61515754 0.10723004
0000a0 55 12 2a be b7 5b 02 3f b0 66 34 3d f9 9f 2b 3c
       -0.16608556 0.50921196 0.044043243 0.010475152
0000b0 18 91 8d 3d e8 9d d3 3d 6a 0c 8a be 00 cf 0c bf
       0.0691244 0.103328526 -0.26962596 -0.55003357
0000c0 e9 55 b5 bd 68 67 97 bd b6 94 15 bf fa 4f 9f be
       -0.08854277 -0.0739277 -0.5843004 -0.31115705
0000d0 16 d2 50 be 51 fc ab 3e 56 9f 2a be 4a a2 0d be
       -0.20392641 0.3359094 -0.16662344 -0.1383144
0000e0 6c 75 1c be b7 a5 fe 3d ff 67 82 bd 8f 76 1a 3e
       -0.15279168 0.12433951 -0.06367492 0.15084289
0000f0 8b f1 57 3e e9 39 a2 3e a4 d0 93 3d b8 d3 36 3e
       0.21088235 0.31684807 0.072175294 0.17854202
000100 ee 12 b5 bd 62 1b cd bd e2 85 e9 bd 74 92 66 be
       -0.08841501 -0.100149885 -0.11402489 -0.22516805
000110 a7 67 09 3e de 59 03 be 43 c7 c7 3e fe 95 95 3e
       0.13418446 -0.1282725 0.39019212 0.29215997
000120 3d 6d 13 3e 92 e6 41 3e f7 06 64 bd 5e 0b 3a be
       0.1439714 0.18935612 -0.055670705 -0.18168399
000130 67 45 13 3e 54 d4 61 3e 53 d8 61 3c d6 8e 70 3e
       0.14381944 0.22053653 0.013784486 0.23491988
000140 2f c2 80 bd 6f 4f 03 3f ef b1 2e bf 1e e0 da 3e
       -0.062870376 0.5129308 -0.68240255 0.42749113
000150 fd 0b 67 3f 5a 05 5f 3e 94 53 40 3f a2 14 4f bf
       0.9025267 0.21779385 0.7512753 -0.8089086
000160 ca 59 2d 3f ad b6 1c 3f 07 3e 1a 3f 5d b0 25 bf
       0.6771513 0.6121624 0.60250896 -0.64722234
000170 3f 36 b0 bf 08 fc 34 3f b2 52 8c 3d 81 94 00 3f
       -1.3766555 0.7069707 0.068517104 0.502266
000180 c7 9f 4e bf da 53 9b 3f f5 13 bf 3f d3 57 ed be
       -0.8071255 1.2134964 1.4927965 -0.46356067
000190 49 86 6a 3f e0 04 f6 3f cc 7d 70 bf d3 60 5f bf
       0.9161115 1.9220238 -0.9394195 -0.8725712
0001a0 83 b3 29 bf ff be 59 3f 8c cd a5 bf 91 5f 50 bf
       -0.6628954 0.8505706 -1.2953353 -0.8139582
0001b0 38 33 3b be 0c 8e ee bd a8 8b 12 bf 1b 94 43 3e
       -0.18281257 -0.11648187 -0.5724435 0.19099467
0001c0 cb 0e 2c 3d b6 37 0a be ec 8e 54 be 84 f5 72 3e
       0.042006295 -0.13497815 -0.20757645 0.2372647
0001d0 66 af 93 3e c6 68 4f 3f 7a 68 5e bf 5a ce 7d bf
       0.28844756 0.81019247 -0.8687817 -0.9914299
0001e0 69 22 03 3f 30 bb 7a bf 56 42 c6 be e7 16 34 be
       0.5122438 -0.97941875 -0.38722485 -0.17586862
0001f0 6f 12 1b 3f 13 4d 28 3f 95 cd ab 3f ac 6f ba bf
       0.60575 0.65742606 1.3422114 -1.456533
000200 a3 71 1e bf 7c 85 94 3f 4e 77 b9 bf ec 8d e3 be
       -0.61892146 1.1603236 -1.4489534 -0.44444215
000210 30 15 33 bf da 79 99 3e 0b 30 56 3f 98 7e 1b 3f
       -0.69954205 0.29975778 0.8366706 0.6074004
000220 57 11 91 be 3a 09 74 bf ec 4d bf 3d 3d 3b c9 be
       -0.28333542 -0.9532658 0.09341034 -0.39303008
000230 79 0a ad be 80 b8 1a bd 85 19 88 3e 01 2f cf 3e
       -0.33797053 -0.03777361 0.2658197 0.4046555
000240 06 b2 49 be 4d 72 84 3e 7a 58 15 bf ce 46 21 3b
       -0.19696817 0.25868455 -0.5833813 0.0024608853
000250 bd d5 30 3d 7c ac 84 3e f2 ec c6 bd a1 ff 24 be
       0.043172587 0.25912845 -0.097131625 -0.1611314
000260 4c 56 86 3e 92 f3 b7 3e 5d 08 3b be 22 cf 58 bf
       0.26237714 0.35928017 -0.18264909 -0.8469106
000270 f4 68 14 3e 25 ef 0d 3f 61 4f 0e 3f 93 79 06 bf
       0.14493161 0.5544303 0.5558987 -0.5252926
000280 03 f1 6b 3e 29 4f 18 3e 31 f7 75 bf 96 f9 1b 3f
       0.23041157 0.14873947 -0.9608031 0.6092771
000290 41 a6 33 be fd 95 2b be 2c 70 dc be c0 01 1b bf
       -0.1754389 -0.16756435 -0.4305433 -0.60549545
0002a0 ec 7c 12 3e 4a 89 fa be 7e a5 25 bf 30 0d a1 3e
       0.14305466 -0.48932868 -0.64705646 0.31455374
0002b0 a6 84 c3 be e4 2b 40 bf bc 79 88 ba 57 e9 01 3e
       -0.3818714 -0.7506697 -0.0010412256 0.12686668
0002c0 e5 c6 a4 3d e7 f0 01 bf 66 55 ef 3e 02 84 67 3f
       0.080457486 -0.5075821 0.4674484 0.904358
0002d0 94 03 82 3e f5 c0 6f 3e 52 8a 92 bd 71 f1 7f 3e
       0.25393355 0.23413451 -0.07155289 0.24994446
0002e0 bd a8 51 3d bb c3 90 be c1 f3 58 3e e3 a7 9a 3c
       0.051186312 -0.2827433 0.21186735 0.018878883
0002f0 63 4b e0 3d e4 9b 78 bd 9d 79 e4 bc 6c 72 1b 3e
       0.10951879 -0.060695544 -0.027890021 0.15180367
000300 a3 40 4f be cd 8c 7a be 9c c5 90 3d f2 d2 94 3e
       -0.202395 -0.24467774 0.07068941 0.29067189
000310 ee 8f 03 be 83 24 98 be 86 d7 4b be 87 de 39 3e
       -0.12847874 -0.29715356 -0.19906434 0.18151294
000320 d5 e2 04 3e 91 1c db be 46 74 b0 be 00 80 4a be
       0.12977155 -0.42795232 -0.3446371 -0.1977539
000330 68 4c 75 3c 8f 5b 2c be e1 3b 8c bd 2b 38 0d bf
       0.01497183 -0.16831802 -0.068473585 -0.5516383
000340 1f 95 83 3e 5b de 5a 3f 7b 74 22 bf 46 ff ec bd
       0.25699708 0.8549554 -0.63458985 -0.11572127
000350 b2 15 63 bf 6f 31 29 3f 57 d4 4a bf d8 e2 cd bd
       -0.8870498 0.66091055 -0.79230255 -0.10053033
000360 a8 12 84 bd 2f f3 cd 3e 2c a3 1e 3e 96 23 05 3d
       -0.06448871 0.40224597 0.15491933 0.03250464
000370 c6 5f 00 be 01 5f 9a 3d 62 aa 8e be 49 6f 24 3e
       -0.12536535 0.07537652 -0.27864367 0.16058077
000380 7c 4f 43 be e9 0c 21 3d ec 98 71 3e 5b 73 b6 3e
       -0.1907329 0.039318953 0.23593491 0.35634884
000390 f6 e6 80 bd d7 a1 8b be 6c 15 c4 bd 8e 80 92 be
       -0.06294052 -0.27271912 -0.095743984 -0.28613704
0003a0 15 e8 de 3a 07 4b 4d bd 5f d1 0a bd 81 2a 50 bd
       0.0017006422 -0.05012038 -0.033891078 -0.050821785
0003b0 ba be 4c 3f 60 c7 ec bd a9 c0 e4 be dd e5 dd be
       0.79978526 -0.11561465 -0.44678238 -0.43339434
0003c0 e6 ed ab 3e c1 9d d3 bd cc cb 3f 3e
       0.3357994 -0.103328235 0.18730086

recurrent.weight_hh_l0 f4 [27, 9]
000000 64 49 15 bf 3d a1 c9 3e 3a ba ce bd 90 4e a9 be
       -0.5831511 0.39380828 -0.10094114 -0.3306775
000010 6f d6 fa be 51 99 0e bd 6b 44 54 be 8f 41 03 be
       -0.48991725 -0.034814183 -0.20729224 -0.12817977
000020 bb b5 2b be bf c9 04 3f a5 52 ba be 77 01 24 3e
       -0.16768543 0.5187034 -0.36391178 0.16016184
000030 c1 e2 d6 3e b8 d1 fe 3e 5f 75 55 bd d8 80 4f 3e
       0.41969875 0.49769378 -0.052113887 0.20263994
000040 67 a0 3b 3e cc a3 b1 3c 73 3f 11 3e 12 57 e0 3e
       0.18322907 0.02168455 0.1418436 0.4381643
000050 d3 5f 08 3d d1 e2 dd be e5 28 03 3e 3b ab c3 bc
       0.03329451 -0.4333711 0.12808569 -0.02388536
000060 f4 12 a6 bc 11 7f 90 3e 90 3d 95 be 1e e4 97 be
       -0.02027271 0.28221944 -0.2914853 -0.29666227
000070 8b 18 10 3e c7 a7 12 bd d9 a5 8b be 14 32 ab 3d
       0.14071862 -0.035804536 -0.2727497 0.08359161
000080 82 75 94 3d 3f f0 3f 3e 69 00 2d 3e 42 f0 ba 3b
       0.07248975 0.1874399 0.16894688 0.0057049105
000090 21 48 c2 be bb e6 8a 3e c6 61 c0 3d f2 06 b3 be
       -0.37945655 0.27129158 0.09393649 -0.34966236
0000a0 50 91 49 bf 1d ba d2 be ec 59 33 bd e4 cc a6 be
       -0.78737354 -0.41157618 -0.043786928 -0.32578194
0000b0 71 5f 8e bd 5f 8b 8e bd 75 92 5a be 16 e9 70 be
       -0.06951798 -0.06960177 -0.21344931 -0.23526415
0000c0 01 ee af be 7f 5f 33 be 86 fe cc 3d c3 38 b8 be
       -0.3436127 -0.17516898 0.10009484 -0.35980806
0000d0 35 1f 07 3e 6e e1 16 be 98 72 b9 be 18 cf 83 3e
       0.13195498 -0.14734432 -0.3622024 0.25743937
0000e0 05 86 03 be 58 b6 c8 be 1f 19 bf be 5f bc 0e bf
       -0.12844093 -0.39201617 -0.37323853 -0.5575618
0000f0 17 ca 0c be 22 50 7c be a9 6b 09 3d 16 c8 27 be
       -0.13748966 -0.24639943 0.03354994 -0.1638492
000100 2c 9d 49 3e a6 d1 70 3e cf a1 80 bd ef 56 26 bd
       0.19688863 0.23517475 -0.062808625 -0.04061025
000110 85 ce 00 3e 1a c8 d1 bd fb 46 48 3e f5 a1 c5 bd
       0.12578781 -0.102432445 0.19558327 -0.096500315
000120 96 e8 7c 3d 96 cf fa 3d b4 c3 85 3e 91 79 30 bd
       0.06174525 0.12246625 0.26125872 -0.043084685
000130 7f 03 0a bd eb 5e a7 be 5e bc d5 bd d3 9c 9a 3c
       -0.03369474 -0.32689604 -0.10436319 0.018873608
000140 19 12 24 bc 65 6f bd 3e b7 62 98 3f 4d 07 13 be
       -0.01001408 0.3699905 1.1905125 -0.14358254
000150 e0 e1 29 bf e5 f4 a7 be a7 b0 2f bf f3 49 10 bf
       -0.6636028 -0.32804027 -0.68628925 -0.5636284
000160 14 0c ed bd 16 db 02 bf 5c 74 9b be a5 39 d1 3e
       -0.11574569 -0.5111555 -0.30362213 0.40864292
000170 bc 62 71 3e f1 9e 27 3e b8 27 d8 bd 9c 1e a7 be
       0.2357282 0.16369225 -0.10554451 -0.3264054
000180 56 58 7c be 2b 81 65 3e 26 48 b0 3e 8a f4 f0 3e
       -0.24643072 0.22412555 0.34430045 0.47061568
000190 93 cb 35 bf e3 ab e7 3e aa a0 1a 3f df 7b 1e 3f
       -0.71013755 0.45248327 0.60401404 0.6190776
0001a0 be 56 13 3f 9e 22 9a 3e d2 71 d6 3e df 74 63 3f
       0.57554233 0.30104536 0.41883713 0.88850206
0001b0 4a 5a cf be b7 a3 80 bd fc 32 c7 3d 31 aa 0c be
       -0.40498573 -0.06281226 0.097265214 -0.13736798
0001c0 25 db 6d bd 83 75 1a be ab 4c 3b 3d 46 9f 11 be
       -0.05807032 -0.1508389 0.045727413 -0.14220914
0001d0 48 0e 9d 3e ec a3 b4 bd e4 e7 7f bc 10 34 d7 bd
       0.30674958 -0.08820328 -0.015619252 -0.10507977
0001e0 03 df 98 be 44 ed b6 3e 57 9f 85 3d dd 00 3c be
       -0.29857644 0.35727894 0.06524532 -0.18359704
0001f0 0e 75 ad 3e 34 31 0f 3d 0f 22 91 be 08 21 ab 3e
       0.33878368 0.034959033 -0.28346297 0.33423638
000200 22 35 bf be d0 f7 17 bf 66 5b 78 bf c0 9e 27 bf
       -0.37345225 -0.59362507 -0.9701446 -0.6547661
000210 37 2b 0f 3d d6 89 32 3d 6a 92 8c be bc 7a b6 bc
       0.034953322 0.04358848 -0.27455455 -0.022275321
000220 f8 79 50 be 3b d7 9c 3e 8f eb 1b 3d 93 26 52 bb
       -0.20359027 0.30632958 0.038066443 -0.003206645
000230 78 cb d6 3e 82 6c 84 bd 55 34 99 be b2 b3 ad 3e
       0.4195211 -0.06466009 -0.2992274 0.3392616
000240 66 2e 2c be 98 4e 68 3d ff 01 0b 3d 83 a9 03 3e
       -0.16814575 0.056715578 0.03393745 0.12857632
000250 49 c0 ee 3d 9e 15 9f 3e a1 ae d0 3e b3 e5 ab 3e
       0.11657769 0.3107118 0.4075823 0.33573684
000260 16 4e ad 3e 38 fc 97 be 60 18 b5 be 95 b7 4c bd
       0.33848637 -0.29684615 -0.3537016 -0.049979765
000270 e2 92 1e 3e b3 91 5e 3d dc 25 d9 be 05 df 1c 3e
       0.15485719 0.05433817 -0.42411697 0.1531945
000280 2b 72 40 3e 86 fd 0d 3e 53 71 b2 be 29 9a a4 be
       0.18793552 0.13866243 -0.34852085 -0.32148865
000290 a6 7c 12 bd 62 ac c5 bd c5 fe ba 3d 09 93 67 3d
       -0.035763405 -0.0965202 0.09130625 0.056536708
0002a0 22 5b 0a bc 9a cd 27 3e 0d 27 3a 3e e4 2d 29 be
       -0.008444579 0.16387025 0.18178959 -0.16521412
0002b0 65 8f 0f bd c0 c9 97 be 05 f7 ff be a1 4d 70 be
       -0.03504886 -0.2964611 -0.49993148 -0.23467113
0002c0 0e ff 0c bf f2 ae 18 be f1 4d f7 bd 7d dd f8 be
       -0.5507668 -0.14910486 -0.12075413 -0.48606482
0002d0 7d 84 ba 3b 8c 79 a8 be 04 7c fc be dc f0 82 3e
       0.0056920634 -0.32905233 -0.49313366 0.25574386
0002e0 23 ba 9f bd 5f 53 ae be dc d1 2f 3d 5b 33 b2 3d
       -0.07799175 -0.34047982 0.042924747 0.087012015
0002f0 b6 a2 36 3e a8 83 0b 3e 3e a4 c9 bd 6f 3c ef bd
       0.17835507 0.13624442 -0.0984578 -0.11681449
000300 aa ad dd bc 69 0a c1 3e f2 1a 71 3d 74 96 d7 bd
       -0.027060349 0.37703255 0.058863588 -0.105267435
000310 4b 18 2d be ab f6 36 be 33 c9 fa bc 94 e2 2a 3e
       -0.16903798 -0.17867534 -0.030613517 0.16687995
000320 5c 20 7f be de 71 e0 bd 1d 14 85 be a8 af 3e 3d
       -0.24914688 -0.109592184 -0.25991908 0.046554238
000330 9a 54 bd 3e 7a 57 a2 3d 25 00 13 3d 8a 0a 10 bc
       0.36978608 0.07926841 0.03588881 -0.008791575
000340 46 3c 5e bd 70 9f a1 3e ee 21 e2 3c c9 35 b7 3e
       -0.0542567 0.31566954 0.02760407 0.35783222
000350 76 98 fe bd df d6 7e be 2b 59 15 3e 91 d1 cc 3e
       -0.12431423 -0.24886654 0.14584796 0.40003636
000360 83 d7 0c be c5 26 12 3e e3 61 9c bd d1 3f a9 be
       -0.13754086 0.14272602 -0.07635858 -0.330565
000370 08 8b 99 bd b9 67 c0 bd 69 01 5e be 15 0d 9c 3e
       -0.07497221 -0.093947835 -0.21680225 0.3047873
000380 03 28 47 3e 27 0e a7 be 62 ad b5 bd 5d ca 9e 3e
       0.19448857 -0.32627985 -0.08870961 0.31013766
000390 d8 31 12 3e 3c 6b d6 3d b5 ff 58 3d 13 22 7f bd
       0.14276826 0.10469672 0.052978236 -0.062288355
0003a0 33 3f 83 be a9 b8 47 3e bc 9a ae 3e a3 b5 19 3e
       -0.25634155 0.19504036 0.34102428 0.15010695
0003b0 80 a2 46 be 8a 8c 86 3e a6 2b 23 3e 1f 3e d9 ba
       -0.19397926 0.26279098 0.1593462 -0.00165743
0003c0 c7 1b 47 3e 56 16 c3 bd 47 d7 02 bd
       0.1944419 -0.095257446 -0.031943586

recurrent.bias_ih_l0 f4 [27]
000000 2e 58 83 be 35 e8 97 3d ce 6c 94 bd 2c 46 27 3e
       -0.25653213 0.07417337 -0.07247315 0.16335362
000010 dd c8 a7 3d 4e 04 0a 3e d4 47 24 3c 31 23 14 3e
       0.081926085 0.13478205 0.010026891 0.1446655
000020 2e c5 c6 be 4a 10 6d bf 16 cc 1a bf fc 1f 08 3f
       -0.3882231 -0.9260298 -0.6046766 0.53173804
000030 8e e1 1e be 5c 7f e3 be 18 b1 6f bf b1 f2 11 bf
       -0.1551573 -0.44433105 -0.936296 -0.5701094
000040 e7 e7 bd 3d 77 32 60 3d b2 8b 31 3f e0 b2 e9 bd
       0.092727475 0.054735627 0.69353783 -0.11411071
000050 75 a7 76 3e 9e 6b d0 3e b0 4c 70 3e 92 cc 42 3f
       0.24087317 0.40707105 0.23466754 0.760934
000060 82 77 ba 3b 85 65 ac 3e b3 98 b8 3e
       0.005690516 0.33671203 0.36054

recurrent.bias_hh_l0 f4 [27]
000000 56 62 25 3e b3 62 f0 3e 9a 4f 89 be 1b f0 0b 3b
       0.16150793 0.46950302 -0.26818544 0.002135283
000010 06 45 83 be 9a f7 85 bd b5 6a 64 3e bd 5f 88 be
       -0.25638598 -0.06541367 0.2230633 -0.26635543
000020 59 31 93 be b8 78 72 bf de 0b 51 bf 92 bf 54 3f
       -0.28748587 -0.9471545 -0.8165873 0.83104813
000030 55 04 c3 be cb 23 0c bf 7a 1f 94 bf ed 53 a0 be
       -0.38089243 -0.54742116 -1.1572106 -0.3131403
000040 91 35 f5 3d 2a 43 c6 be c8 6a 1e 3e c7 db f0 be
       0.119731076 -0.38723117 0.15470421 -0.47042677
000050 b3 92 8d be 68 57 f7 bc 12 fc 2a bd 63 16 7a 3e
       -0.27650985 -0.030193046 -0.0417443 0.24422602
000060 fa 1c c1 3e b2 a0 28 3e d3 37 ab 3d
       0.3771742 0.1646755 0.08360257
