covid_forecasting/cumulative/best_models/mlp.pth (torch, 11301 bytes, 5 tensors)

model.0.weight f4 [44, 1]
000000 b2 a0 24 be 38 a5 30 3f d6 64 21 3f bf 53 53 bf
       -0.16076925 0.69002104 0.6304449 -0.8254966
000010 aa e9 e4 be 7a 3a ac be d9 91 5c 3e 23 ba 3a bf
       -0.44709522 -0.33638364 0.21540011 -0.7294027
000020 68 db 66 3f fd 03 af be 13 36 e7 3e 75 eb 84 3e
       0.9017854 -0.3418273 0.45158443 0.2596089
000030 2f be 19 bf 53 7d f9 3e 82 60 11 bf a0 61 ee bd
       -0.6005582 0.48728427 -0.56787884 -0.11639714
000040 f1 97 58 3f d9 c6 30 be 10 8f 7a 3f 52 b4 37 bf
       0.84606844 -0.17263354 0.97874546 -0.7175952
000050 14 50 92 3e 4d fd 67 bf 9f 93 25 bf e1 35 13 3f
       0.2857672 -0.9062088 -0.64678377 0.5750409
000060 ad c5 43 3e 79 18 3b 3e 32 d8 52 3f 56 c1 2e 3f
       0.19118376 0.18271054 0.8236114 0.6826376
000070 5d a1 ab 3d 5f 5e 6c 3f af be 36 bf 6e 95 6e bf
       0.08380387 0.923315 -0.7138471 -0.9319676
000080 26 a2 97 3d 23 1f 11 bf 21 e4 2f 3f 79 bf 70 bf
       0.07403974 -0.56688136 0.6870747 -0.94042164
000090 45 35 06 bf 8b 56 51 3f 0e ab dc be 7e ea 06 bf
       -0.5242503 0.8177268 -0.43099254 -0.52701557
0000a0 19 d2 27 3f 07 0e 27 3f 8d 2e b1 3e d8 dd 5a bf
       0.6555496 0.6525578 0.34605828 -0.85494757

model.0.bias f4 [44]
000000 d2 aa 73 3f 3c ea 5a bf 0d 16 b4 3e 02 51 35 3f
       0.95182526 -0.85513663 0.35173073 0.70826733
000010 75 03 61 3f f5 4f e7 3e e4 a4 1c 3e 14 3e 17 bd
       0.878959 0.4517819 0.15297276 -0.036924437
000020 7a bb c2 bd 50 3e 20 bd f6 02 44 3f 47 f6 06 3c
       -0.095084146 -0.039121926 0.7656702 0.008237428
000030 d5 75 e6 3e 31 1c 44 bf df f9 50 3f 53 40 39 bf
       0.45011774 -0.76605517 0.81631273 -0.72363776
000040 92 42 da 3e 54 a6 6c bf ba ab 44 bf 4e da 35 bf
       0.42628914 -0.92441297 -0.76824534 -0.7103623
000050 b6 c4 86 bd 80 c0 62 3f 24 5b 68 3f 22 b1 2e bf
       -0.065804884 0.8857498 0.9076407 -0.68239033
000060 49 11 70 bf 2a 01 50 3f dc b0 eb 3d 45 d0 f1 3e
       -0.93776375 0.81251776 0.115083426 0.4722921
000070 01 5e 2c 3e cd 85 20 3f 7b 31 59 bf f2 70 1a 3f
       0.16832735 0.62704164 -0.84841126 0.6032859
000080 b0 ef e3 3d 0c 0c 66 bf 1e dc 42 bf 1d ab 08 3f
       0.11129701 -0.8986213 -0.7611712 0.533861
000090 1c c8 ba be 37 9e 1b 3e e5 33 10 bf 64 73 7c bd
       -0.36480796 0.15197073 -0.56329185 -0.061633483
0000a0 37 9f 71 be e3 99 f0 3e ce ef 40 3f 68 be 30 bf
       -0.23595892 0.46992406 0.7536591 -0.69040537

model.2.weight f4 [44, 44]
000000 c4 9b 0c bc 51 63 af 3d ed dd 0c 3e 16 7e b5 3d
       -0.008582059 0.08563865 0.13756533 0.088619396
000010 57 56 d8 3c 91 69 ff bc e1 63 dd 3d 8b 90 1b 3d
       0.026408358 -0.031178268 0.10810066 0.037979644
000020 b8 0f fe bd e8 86 13 bd 51 4e f6 3d 8c 2d 2d bd
       -0.12405342 -0.03601733 0.120266564 -0.042279765
000030 13 cb 15 be f9 70 99 bd 00 21 9e 3c 8b ec 93 bc
       -0.14628248 -0.07492251 0.019302845 -0.018057128
000040 f6 53 a7 3d cd 64 35 bd 28 74 00 3e f1 86 8a bd
       0.08170311 -0.044285584 0.1254431 -0.06764019
000050 e3 9e 6c 3d d3 2f 87 bc 2a 36 85 3d 6c 45 b1 3d
       0.057768714 -0.016502297 0.065044716 0.08655819
000060 09 88 f3 3d ae 9d d4 3d c1 2b ae bd 5e db 0b be
       0.11891181 0.103816375 -0.08504439 -0.136579
000070 12 55 e4 3d dd bb 60 bd 0d 05 a0 bd bf 5b ce bc
       0.111490384 -0.05486666 -0.07813463 -0.025190232
000080 15 56 cf 3d fd 2a f6 3c f2 6b 4f bd da d3 b7 3c
       0.10123841 0.030049795 -0.050640054 0.022439886
000090 e3 24 78 bd 32 e6 86 3d 7a 75 c5 3d 4d ea 97 3d
       -0.060582053 0.06586875 0.096415475 0.07417736
0000a0 62 6d 75 bd 2d 21 a8 bd d5 8d 19 3e e0 39 1b be
       -0.05991877 -0.08209453 0.14995511 -0.15158796
0000b0 e0 78 04 3e 39 e4 b5 3c 32 54 d8 3d 66 41 97 3d
       0.12936735 0.022203552 0.10562934 0.07385521
0000c0 11 da 8e bd 76 09 14 3e 29 da 03 3e 9d ee 0d 3d
       -0.069751866 0.14456734 0.1287619 0.034651387
0000d0 d5 f7 70 3c 42 57 df 3d 4b b1 e4 bd 18 ca ed 3d
       0.014707525 0.10905315 -0.111666285 0.11610812
0000e0 7d af d8 bc 5c e2 f0 3d dc 6a 04 be 87 e9 a2 bd
       -0.026450867 0.117619246 -0.12931389 -0.07954698
0000f0 9a 24 03 3c 99 5b 07 be ea a9 08 be 27 44 c3 3c
       0.008004332 -0.13218535 -0.13346067 0.023836209
000100 e9 04 ae 3d ab 15 d4 3d fa b8 ad bd a8 e2 fe 3d
       0.0849703 0.10355695 -0.08482547 0.12445575
000110 da b1 00 3d 7c 48 e4 bd 84 d9 93 bd e4 bb e8 3c
       0.031419612 -0.11146638 -0.07219222 0.028409906
000120 79 a1 95 3d 84 45 5a 3d 18 41 d4 3d 8e ea d3 bc
       0.07306189 0.05328895 0.10363978 -0.02586868
000130 03 a3 50 3b 7b b0 e4 bd 33 52 d2 3d a8 2b 8c bd
       0.0031835444 -0.111664735 0.102695845 -0.06844264
000140 f5 8c 0a 3e 8f 90 e0 3d be 8f c7 bd 3c 53 05 3e
       0.13530333 0.10965072 -0.097442135 0.13020033
000150 e4 6c 17 be 59 9c f9 bd f9 cb 98 3c 2f 6e 0e be
       -0.14787632 -0.12188024 0.01865195 -0.13909219
000160 3f 8c 0c 3e 8d d8 85 bd 6a dd 2f bd 09 e5 3a 3d
       0.13725375 -0.065354444 -0.042935766 0.04562858
000170 71 a3 f4 bc 83 36 1b bd 17 cd d4 3d c1 8d 54 3d
       -0.029863091 -0.037893783 0.1039068 0.051893
000180 45 bd 1d bd 36 81 8b 3d 3f 23 2b bd 7d 73 5c bd
       -0.03851058 0.068117544 -0.04178166 -0.053821076
000190 6a 03 70 bd 2d 25 ec bc b1 3a 0c 3e 04 1d e0 3d
       -0.058597006 -0.02882632 0.13694264 0.10943034
0001a0 07 30 1c 3e fd a5 29 3d 50 32 82 3d a5 8c 1e be
       0.15252696 0.041418064 0.063572526 -0.15483339
0001b0 2d f2 fd 3d 7a 64 74 bd fe f0 8e bd e1 16 c8 bd
       0.12399707 -0.059666134 -0.06979559 -0.09769989
0001c0 b8 cf 08 be 9c 8a ef 3d df 83 1d 3e d6 46 c5 bd
       -0.13360488 0.116963595 0.15382336 -0.096326515
0001d0 b7 d0 a7 3d 79 d4 18 bd 0c ce 15 be 19 61 bc bc
       0.08194106 -0.037312005 -0.14629382 -0.022995519
0001e0 53 d3 11 bd 18 90 83 3d b3 d3 09 bc f4 c2 9a bd
       -0.035601925 0.06423968 -0.008412289 -0.075567156
0001f0 e5 cb b2 bd 1f e1 18 3e cb 3e 0a be 60 f3 77 3b
       -0.08730296 0.14929627 -0.13500516 0.0037834272
000200 7b 07 95 3d 04 41 b2 3c 9c 03 bc 3d d8 d3 06 3e
       0.072768174 0.021759517 0.09180376 0.1316675
000210 6a 0b 08 bc e7 9e 0b 3e b1 84 b2 bc 6f 87 b2 bd
       -0.008303503 0.13634835 -0.021791788 -0.08717238
000220 78 6b db 3d 8c 6c e7 bd 45 f9 34 bd f2 93 c0 3d
       0.107138574 -0.113000005 -0.044183034 0.09403218
000230 2f 36 fd bc 5b a3 ee bd be c2 f6 bd c3 01 d0 bc
       -0.030909626 -0.11652251 -0.12048863 -0.025391465
000240 c7 5d 04 be b1 93 24 bd d6 83 0b be 87 54 c5 bd
       -0.12926398 -0.040179912 -0.1362451 -0.09635263
000250 c5 b1 22 3e 26 51 44 3d ec 3c a4 bd ee da 35 bd
       0.15888126 0.04792895 -0.080194324 -0.04439824
000260 41 15 7f 3c 17 aa 8f 3d 53 fc 07 3e e6 65 fa 3d
       0.015569032 0.07014864 0.13279848 0.12226467
000270 bb 00 6b bd 41 46 80 3d 7e b3 f7 bd 27 34 83 3c
       -0.057373744 0.062634 -0.12094782 0.01601608
000280 94 db 8b bd 14 45 55 bd 11 7b 5f 3d 8e 6a 0c bc
       -0.068289906 -0.05206783 0.054560725 -0.0085703265
000290 ec 11 06 3e d3 71 86 3d 06 80 0b be c4 12 b2 bd
       0.13092774 0.06564679 -0.13623056 -0.086949855
0002a0 5c ee 4e 3d ed c4 9a bd 71 02 86 3d 1b 4e 09 3c
       0.050520286 -0.07557092 0.065434344 0.008380438
0002b0 5c 06 c7 3d e1 1c 6a 3d 2e f0 c4 bd a2 22 12 3c
       0.0971801 0.057156447 -0.09616123 0.00891939
0002c0 d7 69 4a bd 11 f9 a5 bd 65 07 67 3b 72 de f5 bd
       -0.049417343 -0.08104146 0.003525221 -0.12005319
0002d0 f3 63 f7 bc 4b fc cf bd f2 9b f4 3a 85 a3 2d 3d
       -0.030199027 -0.10155543 0.0018662198 0.042392273
0002e0 e0 b0 be 3c 94 0b ae bd 6e 0a 9c 3d 36 0e 9e bd
       0.0232777 -0.08498302 0.07619177 -0.07717554
0002f0 bb 1c d7 bd 7b 9e 7b bd 4b e4 cc 3d b1 12 0d 3c
       -0.10503527 -0.061430436 0.10004481 0.008610413
000300 43 0a 31 3d 03 51 03 be 36 0d d2 3d 8d ac ea 3d
       0.043222677 -0.12823872 0.10256426 0.11458693
000310 1c 4a de bd dd 3f e7 3d a9 81 d1 bd 57 5d 84 3d
       -0.10853979 0.11291478 -0.10229809 0.06463116
000320 47 0b 9b 3d ef 77 b5 bd 5b b3 d5 3d b7 27 5f 38
       0.0757051 -0.08860766 0.104346 5.320433e-05
000330 0e dc 33 3d 2b a6 1b 3e 9e 44 70 bd 4c 9f ed bd
       0.043911032 0.15200107 -0.05865919 -0.11602649
000340 b2 b8 97 3b 81 78 68 3d ae 55 b5 bd e2 14 da 3d
       0.0046301717 0.056755546 -0.08854233 0.10648514
000350 22 4e 0c 3e 45 5f 13 3e cf dc 0d bd 43 d8 f7 3d
       0.1370168 0.14391811 -0.034634408 0.121017955
000360 87 47 27 bc 1c a6 0d bd 28 1c 6e bd b5 90 ac bd
       -0.010209925 -0.034582242 -0.05813232 -0.08426038
000370 5d 55 41 bd d1 de 9f 3d 2e be 13 bc 42 f5 de bd
       -0.04720055 0.07806171 -0.00901751 -0.10886623
000380 5f 54 07 be 11 28 13 bd 63 33 ae 39 6c af b1 bd
       -0.13215779 -0.035926882 0.00033226152 -0.08676037
000390 0c 4f c1 3c 98 34 dd 3b 06 90 12 bd ad 45 59 3d
       0.023597263 0.0067506544 -0.035781883 0.053044964
0003a0 6e bc 84 bd aa 42 fe bc 7e a6 b7 bd ec e0 d4 3d
       -0.064812526 -0.031037647 -0.08967303 0.10394463
0003b0 24 c8 be bd 20 26 03 be dd 74 9a bd ea 75 d7 3d
       -0.093155175 -0.12807512 -0.07541821 0.10520537
0003c0 42 1a 63 3d 7e 56 02 3e 86 66 98 bc 1c ed 94 3d
       0.055444963 0.12728307 -0.018603574 0.072717875
0003d0 9a e7 26 bd 63 c3 1d bd f6 ed 1f be b4 bc 45 3c
       -0.040748216 -0.038516413 -0.15618119 0.012068916
0003e0 c1 3b e1 3d 7c 1c b5 bd df 05 80 bc 42 0a 8f 3d
       0.10997725 -0.088433236 -0.0156278 0.069843784
0003f0 04 00 6a bd cf 5f cb 3d 44 97 06 be 86 94 d0 bd
       -0.05712892 0.099303834 -0.13143641 -0.101845786

model.2.bias f4 [44]
000000 e2 65 d7 bd 7a 7f df 3c 2e 93 7c 3d c9 1c 05 be
       -0.105174795 0.027282465 0.0616638 -0.12999262
000010 2e 3e f7 3c 40 2c e4 bd e5 dd 31 3d 35 0f b7 3d
       0.030181017 -0.111412525 0.043424506 0.089384474
000020 f1 e1 01 be e1 e2 1a bd b3 d1 c9 3d 59 67 c3 3c
       -0.12683846 -0.037814025 0.0985445 0.023852991
000030 39 f1 02 3e 00 5c 39 bc 5f 59 08 3c af 55 05 3e
       0.12787332 -0.011313438 0.008322089 0.13020967
000040 a1 ad 1a 3e ae 9f 1e bb 8b 8d f2 bd 39 b1 01 bd
       0.15105297 -0.0024204063 -0.118434034 -0.031663153
000050 46 13 6b 3d 24 c0 a8 bc ee ae 77 bd 80 d7 07 3e
       0.057391427 -0.020599432 -0.06046956 0.132658
000060 3c 88 84 3d 3e 63 75 3d e5 3d e0 bb 42 0a 06 3e
       0.06471297 0.059909098 -0.006843316 0.1308985
000070 02 a5 42 3c 7b 4b 2f 3d 4d 08 e9 3d 3c f1 80 bd
       0.011880161 0.042796593 0.113785364 -0.06296012
000080 61 37 06 3e 45 b1 9b 3d a4 60 8e 3d d2 59 72 3c
       0.13107063 0.07602171 0.069520265 0.014791923
000090 05 e4 11 3e 15 a2 b0 3d 31 a5 c6 3d d6 e8 0c be
       0.14247139 0.08624665 0.096994765 -0.13760695
0000a0 5f f8 44 3d 65 fe c8 bd aa 45 8d bb 00 d0 9e bd
       0.048088428 -0.09814147 -0.004311283 -0.077545166

model.4.weight f4 [1, 44]
000000 c6 55 e1 3d 3d 0d db bd 1c d2 0d 3d 0e 3a f0 3d
       0.11002688 -0.106958844 0.034624204 0.11729823
000010 21 f7 0c 3e 8d 78 d4 bd 49 60 d3 bd 74 f3 ef 3d
       0.13766147 -0.10374556 -0.10321099 0.11716357
000020 35 5c ae bd 50 f7 07 3c 22 d2 98 3d 47 8a 83 bd
       -0.08513681 0.00829871 0.07461955 -0.06422859
000030 5c 2c 02 be 73 4c 07 3e 4e b8 87 bc e7 a6 98 bd
       -0.12712234 0.13212757 -0.016567376 -0.07453709
000040 90 26 ad 3d 5a ce ca 3d bf fe 1f 3e 06 96 d8 3d
       0.08454621 0.0990264 0.15624522 0.1057549
000050 a8 7d 71 bc ee 50 ef 3d 06 96 85 3d 8e 5a be 3c
       -0.014739431 0.11685358 0.06522755 0.02323654
000060 9c 91 a7 bd 39 f5 97 3d 0b 89 8e 3d 78 31 03 be
       -0.0818207 0.074198194 0.069597326 -0.1281184
000070 22 8a 50 3d c0 40 a0 bc ee 5d 10 be 53 12 01 3e
       0.050912984 -0.019562125 -0.14098331 0.12604646
000080 04 a0 14 bd 6e eb 13 be af 9c 21 be ae 18 02 be
       -0.036285415 -0.14445278 -0.15782426 -0.12704727
000090 fe ba a0 bd 27 43 d8 3d 31 8e 30 3d d5 4c e2 bd
       -0.07848166 0.10559683 0.043104354 -0.11049811
0000a0 4b fa ea bd 9e b4 96 bd 67 41 a5 3d b5 28 e5 3d
       -0.11473521 -0.07358669 0.08069115 0.11189405
