covid_forecasting/cumulative/best_models/rnn.pth (torch, 65253 bytes, 5 tensors)

rnn.weight_ih_l0 f4 [123, 1]
0.09104473 0.09398683 -0.0854408 0.086148165 -0.087086186 0.089503825 -0.08607739 -0.08570384
-0.08921345 -0.086998634 -0.100148365 -0.08614355 0.09861706 0.08713738 -0.08493 -0.12614913
-0.09400037 -0.08491958 0.086585894 -0.085733786 0.12133804 0.08568995 -0.0918041 -0.08473524
0.08592309 -0.13018203 0.09567388 0.08516032 0.08608348 -0.085373566 0.08599267 -0.1004315
-0.12471995 0.08561887 0.08847357 0.08666395 0.08610598 0.08571652 0.08605901 -0.089271545
0.086221814 0.10809045 -0.091758996 0.08631869 0.08665966 -0.08559155 -0.110693686 0.08552493
-0.08671713 0.092063926 0.1022352 0.08526205 -0.08795281 0.085456304 0.10871386 0.086467996
0.08497691 -0.090846695 -0.086626954 -0.08572142 -0.085492015 0.08548706 -0.08591986 -0.08638892
0.08645504 0.12970856 -0.08691242 0.088713974 0.085843034 0.0941288 0.08519509 0.088230476
0.12840624 -0.087780915 0.09637067 0.08594429 0.09127976 -0.08569318 -0.096043296 0.0864281
0.0859494 0.086749814 -0.085643485 -0.08590277 0.087038085 -0.08578917 -0.08879972 0.0851684
0.08587842 -0.08961834 -0.0855918 -0.08935436 0.08816884 0.08511614 0.08579867 -0.08910804
0.08871768 0.08557692 -0.11107064 0.08593698 0.08543792 -0.086702906 -0.08766128 0.088174716
-0.09664882 -0.09234643 0.08643422 -0.0859707 0.08591038 0.08746298 -0.084992774 0.12292782
0.08544956 0.086575 -0.08588242 0.11449038 0.08595527 -0.08679118 -0.08771392 0.08549681
-0.08504808 -0.124812886 -0.0861325
00000000: a975 ba3d 2b7c c03d 96fb aebd 736e b03d
00000010: 3e5a b2bd c84d b73d 5849 b0bd 7f85 afbd
00000020: 8bb5 b6bd 572c b2bd 961a cdbd 086c b0bd
00000030: bef7 c93d 1575 b23d c8ef adbd 3d2d 01be
00000040: 4483 c0bd 51ea adbd f253 b13d 3295 afbd
00000050: 1480 f83d 367e af3d ca03 bcbd ab89 adbd
00000060: 72f8 af3d 704e 05be abf0 c33d 8968 ae3d
00000070: 894c b03d 56d8 aebd ed1c b03d 08af cdbd
00000080: 2c6d ffbd f258 af3d a231 b53d de7c b13d
00000090: 5558 b03d 258c af3d b53f b03d 00d4 b6bd
000000a0: 1095 b03d 875e dd3d 24ec bbbd dac7 b03d
000000b0: 9f7a b13d 9f4a afbd 5fb3 e2bd b227 af3d
000000c0: c098 b1bd 038c bc3d b060 d13d df9d ae3d
000000d0: 9a20 b4bd b703 af3d 5fa5 de3d 2216 b13d
000000e0: 6008 ae3d d50d babd 7969 b1bd b68e afbd
000000f0: 7016 afbd d713 af3d c0f6 afbd adec b0bd
00000100: 570f b13d 52d2 043e 24ff b1bd acaf b53d
00000110: 79ce af3d 9ac6 c03d c37a ae3d 2eb2 b43d
00000120: ed7c 033e 7bc6 b3bd fc5d c53d 8f03 b03d
00000130: e2f0 ba3d e87f afbd 59b2 c4bd 3701 b13d
00000140: 3d06 b03d e3a9 b13d da65 afbd cbed afbd
00000150: 0641 b23d 3bb2 afbd a1dc b5bd c56c ae3d
00000160: 06e1 af3d d289 b7bd c14a afbd 6bff b6bd
00000170: dd91 b43d 5f51 ae3d 37b7 af3d 477e b6bd
00000180: 9db1 b53d f442 af3d 0179 e3bd baff af3d
00000190: 14fa ae3d 4b91 b1bd c287 b3bd f294 b43d
000001a0: d1ef c5bd 2020 bdbd 6d04 b13d 6811 b0bd
000001b0: c8f1 af3d ca1f b33d b110 aebd 95c1 fb3d
000001c0: 2e00 af3d 3c4e b13d 1fe3 afbd ef79 ea3d
000001d0: 5109 b03d 93bf b1bd 5ba3 b3bd f418 af3d
000001e0: b02d aebd e69d ffbd 3c66 b0bd

rnn.weight_hh_l0 f4 [123, 123]
-2.9068715e-06 3.8161495e-05 7.021373e-05 -5.7901412e-05 4.1712294e-05 -1.726075e-05 5.3943797e-05 5.1088144e-05
2.060288e-05 3.9063794e-05 -0.00012317335 5.4463206e-05 0.000103651684 -4.8780184e-05 6.55827e-05 -0.0004319817
-4.3143456e-05 6.9586866e-05 -4.7835e-05 5.8043002e-05 0.00037869802 -6.410971e-05 -1.6284823e-05 6.9062975e-05
-6.1391795e-05 -0.00045696317 6.833163e-05 -6.7799454e-05 -6.025533e-05 6.490611e-05 -5.8011046e-05 -0.0001289144
-0.00040147908 -6.1010946e-05 -3.492376e-05 -5.345863e-05 -5.8351307e-05 -6.670679e-05 -5.9373087e-05 2.0556463e-05
-5.9423528e-05 0.00022372586 -1.0163598e-05 -5.7618552e-05 -5.020106e-05 6.5961554e-05 -0.0002484451 -6.940363e-05
4.8456575e-05 1.5501262e-05 0.00014861103 -6.92409e-05 3.5622143e-05 -6.712855e-05 0.0002286487 -5.2576706e-05
-6.9503214e-05 -3.8074495e-07 4.691473e-05 6.111178e-05 6.708138e-05 -6.2401334e-05 5.8828307e-05 4.9332048e-05
-5.1280203e-05 0.00045160978 4.4869717e-05 -2.838291e-05 -5.806882e-05 4.671986e-05 -7.038153e-05 -3.202836e-05
0.00045692784 4.0642313e-05 7.87921e-05 -6.310592e-05 6.588955e-06 6.778379e-05 -6.804773e-05 -4.7292015e-05
-5.7875073e-05 -4.519258e-05 5.335549e-05 6.0046747e-05 -4.2170133e-05 6.4645974e-05 3.1524734e-05 -6.5797816e-05
-5.7588226e-05 1.4456995e-05 6.0158207e-05 2.0075002e-05 -3.579605e-05 -7.4384385e-05 -6.40319e-05 2.2314693e-05
-2.761398e-05 -6.902593e-05 -0.0002577443 -6.159476e-05 -6.7945504e-05 4.3140673e-05 4.1835297e-05 -3.1550848e-05
-8.017205e-05 -2.199489e-05 -5.2376246e-05 6.0966566e-05 -5.6309047e-05 -4.2112162e-05 7.386573e-05 0.00038864577
-6.917871e-05 -4.193553e-05 6.025558e-05 0.00029493668 -4.9021255e-05 4.039194e-05 4.030839e-05 -6.76839e-05
7.079211e-05 -0.00038382996 5.9143134e-05 1.810985e-05 6.074638e-05 5.0887953e-05 -3.7923674e-05 2.0870651e-05
3.7768687e-06 3.342358e-05 2.9809753e-05 -3.612663e-07 1.7808576e-05 -0.00014899329 3.407858e-05 0.00012885439
-2.8819824e-05 4.5162175e-05 -0.00046559793 -6.6308065e-05 4.9623435e-05 -2.7160344e-05 3.7622674e-05 0.00041136538
-4.4353365e-05 -3.8722923e-05 4.8835853e-05 -4.157269e-05 -0.000488781 9.263021e-05 -4.7891674e-05 -4.0477556e-05
4.4897843e-05 -3.787798e-05 -0.00015511745 -0.00043284032 -4.0812407e-05 -1.4813622e-05 -3.3524524e-05 -3.8378395e-05
-4.727431e-05 -3.946773e-05 -3.5134963e-07 -3.9699695e-05 0.0002526986 -3.1922395e-05 -3.7790698e-05 -2.9886462e-05
4.6311383e-05 -0.0002773734 -5.0073806e-05 2.7997896e-05 3.7551457e-05 0.00017512607 -4.9616247e-05 1.5027541e-05
-4.7468206e-05 0.000257483 -3.2326832e-05 -4.9593484e-05 -2.2002421e-05 2.6176705e-05 4.10406e-05 4.7452948e-05
-4.221986e-05 3.8709102e-05 2.8611614e-05 -3.0866977e-05 0.00048332626 2.4206876e-05 -7.776532e-06 -3.7777558e-05
7.017206e-05 -5.0812283e-05 -1.1318373e-05 0.0004909842 2.0438156e-05 0.00010356312 -4.3507076e-05 2.8459266e-05
4.8448896e-05 -9.18839e-05 -2.6375848e-05 -3.7675814e-05 -2.4387711e-05 3.2280328e-05 4.004687e-05 -2.1330015e-05
4.5059238e-05 1.136967e-05 -4.566599e-05 -3.7281894e-05 -6.781145e-06 3.9830946e-05 -7.971785e-07 -1.545688e-05
-5.518877e-05 -4.438199e-05 1.4338591e-06 -6.922108e-06 -4.971053e-05 -0.00028743932 -4.181353e-05 -4.835871e-05
2.2038972e-05 2.1640843e-05 -1.0721428e-05 -0.0001047876 -4.4502827e-05 -3.206703e-05 4.1149466e-05 -3.588554e-05
-2.1736047e-05 5.447909e-05 0.0004205729 -4.9745016e-05 -2.0546178e-05 4.02597e-05 0.00032520475 -2.7778504e-05
1.9061907e-05 1.9996685e-05 -4.8131093e-05 5.1113293e-05 -0.0004129552 3.9291637e-05 4.3767308e-05 5.656837e-06
-0.000108222805 9.7217395e-05 -8.275545e-05 5.838278e-05 -9.443872e-05 -9.3262955e-05 -6.160773e-05 -8.100653e-05
00000000: ac13 43b6 980f 2038 b63f 9338 2bdb 72b8
00000010: 3cf4 2e38 2ecb 90b7 b641 6238 7a47 5638
00000020: 59d4 ac37 6ed8 2338 1828 01b9 6c6f 6438
00000030: 935f d938 5399 4cb8 7289 8938 9a7b e2b9
00000040: eff4 34b8 2aef 9138 71a2 48b8 3373 7338
00000050: fd8b c639 a372 86b8 649b 88b7 e7d5 9038
00000060: 78bf 80b8 8f94 efb9 444d 8f38 8e2f 8eb8
00000070: abba 7cb8 341e 8838 e350 73b8 322d 07b9
00000080: 9c7d d2b9 01e6 7fb8 1a7b 12b8 c438 60b8
00000090: 3dbe 74b8 efe4 8bb8 5e07 79b8 ab70 ac37
000000a0: 873d 79b8 f497 6a39 5284 2ab7 73ab 71b8
000000b0: fa8e 52b8 d754 8a38 bd41 82b9 ca8c 91b8
000000c0: da3d 4b38 b508 8237 78d4 1b39 6d35 91b8
000000d0: fc68 1538 5ec7 8cb8 6bc1 6f39 cf85 5cb8
000000e0: 41c2 91b8 3069 ccb4 4fc6 4438 2329 8038
000000f0: 0bae 8c38 76dd 82b8 6abe 7638 e2e9 4e38
00000100: b315 57b8 0ac6 ec39 7e32 3c38 d617 eeb7
00000110: ec8e 73b8 11f5 4338 cc99 93b8 3156 06b8
00000120: d18f ef39 5a77 2a38 303d a538 bc57 84b8
00000130: b116 dd36 2527 8e38 d9b4 8eb8 6a5b 46b8
00000140: e3be 72b8 2a8d 3db8 05ca 5f38 b4da 7b38
00000150: d6df 30b8 8b92 8738 6d39 0438 effc 89b8
00000160: e38a 71b8 528c 7237 6252 7c38 bd66 a837
00000170: b723 16b8 d0fe 9bb8 dd48 86b8 7030 bb37
00000180: 92a4 e7b7 04c2 90b8 db21 87b9 6f2c 81b8
00000190: f77d 8eb8 f2f1 3438 4f78 2f38 7755 04b8
000001a0: 0b22 a8b8 ab81 b8b7 91ae 5bb8 5ab6 7f38
000001b0: 612d 6cb8 97a1 30b8 5de8 9a38 27c3 cb39
000001c0: 0a14 91b8 efe3 2fb8 f0ba 7c38 bba1 9a39
000001d0: 2c9c 4db8 846a 2938 ce10 2938 84f1 8db8
000001e0: 3a76 9438 c93c c9b9 7510 7838 9bea 9737
000001f0: eec9 7e38 8670 5538 3c10 1fb8 6213 af37
00000200: 1c76 7d36 4c30 0c38 f50f fa37 10f4 c1b4
00000210: a063 9537 153b 1cb9 99ef 0e38 161d 0739
00000220: 1ac2 f1b7 846c 3d38 7f1b f4b9 df0e 8bb8
00000230: c222 5038 65d6 e3b7 0acd 1d38 87ac d739
00000240: 1008 3ab8 6c6a 22b8 19d5 4c38 565e 2eb8
00000250: 8a21 00ba 7742 c238 4bdf 48b8 72c6 29b8
00000260: b150 3c38 2cdf 1eb8 06a7 22b9 d8ee e2b9
00000270: fd2d 2bb8 0688 78b7 af9c 0cb8 7df8 20b8
00000280: 6748 46b8 278a 25b8 20a1 bcb4 3983 26b8
00000290: a27c 8439 69e4 05b8 7481 1eb8 b0b4 fab7
000002a0: 783e 4238 6d6c 91b9 5706 52b8 06dd ea37
000002b0: 9280 1d38 0ca2 3739 0a1b 50b8 cc1e 7c37
000002c0: 9918 47b8 c9fe 8639 ac96 07b8 9902 50b8
000002d0: d791 b8b7 0c96 db37 0223 2c38 3708 4738
000002e0: 3b15 31b8 955b 2238 f902 f037 2a77 01b8
000002f0: f466 fd39 df0f cb37 f377 02b7 5873 1eb8
00000300: 5629 9338 461f 55b8 0be4 3db7 64b5 003a
00000310: 9b72 ab37 0730 d938 5e7b 36b8 cfbb ee37
00000320: 9b35 4b38 cbb1 c0b8 b441 ddb7 1906 1eb8
00000330: 3694 ccb7 bd64 0738 00f8 2738 dced b2b7
00000340: fdfd 3c38 5cc0 3e37 7c89 3fb8 215f 1cb8
00000350: 9889 e3b6 2710 2738 b0fd 55b5 66a9 81b7
00000360: 7e7a 67b8 cd26 3ab8 0673 c035 7444 e8b6
00000370: 4680 50b8 74b3 96b9 f060 2fb8 c5d4 4ab8
00000380: 55e0 b837 5b89 b537 2fe0 33b7 6ac1 dbb8
00000390: 8ca8 3ab8 b67f 06b8 e797 2c38 ce83 16b8
000003a0: ce55 b6b7 7a80 6438 5780 dc39 4ea5 50b8
000003b0: 955a acb7 86dc 2838 3e80 aa39 e205 e9b7
000003c0: 22e7 9f37 8ebe a737 5ee0 49b8 7b62 5638
000003d0: e981 d8b9 13cd 2438 ca92 3738 dccf bd36
000003e0: adf5 e2b8 31e1 cb38 fe8c adb8 08e0 7438
000003f0: 670d c6b8 2b96 c3b8 6633 81b8 0de2 a9b8

rnn.bias_ih_l0 f4 [123]
-0.00290573 -0.0032052677 0.0014722584 -0.0012716624 0.0011122682 -0.0021670472 0.00089338736 0.00037983357
0.002136458 0.000856115 0.0037808644 0.0010530088 -0.0035527174 -0.0018133636 0.00066962244 0.0107649835
0.0027905742 0.00083347305 -0.0010645435 0.00096118555 -0.0090914965 -0.0011356646 0.0022827876 0.0007006794
-0.0012861707 0.014249569 -0.0027471404 -0.00093567325 -0.0014599405 0.0009650223 -0.0012413916 0.0037077833
0.011782959 -0.00095369207 -0.0023056266 -0.0016095584 -0.001291165 -0.0015427825 -0.0014158423 0.0021926803
-0.0015475727 -0.0054263016 0.0026834751 -0.0015225216 -0.0013532455 0.0012784903 0.006668149 -0.0015553082
0.0014054185 -0.0027140013 -0.004293743 -0.0009764532 0.0017368146 -0.0010409134 -0.005813054 -0.0013009594
-0.00085492514 0.0024179865 0.0011224971 0.0010288925 0.0011546313 -0.0009146325 0.0010211278 0.0009259924
-0.0012185726 -0.014081926 0.0013145539 -0.0022082303 -0.000991666 -0.0026651411 -0.0009520064 -0.0018214477
-0.011575686 0.0019410206 -0.002825498 -0.0015113701 -0.0024967561 0.0015589149 0.0032990007 -0.00085005735
-0.0009972256 -0.0010865765 0.0002852798 0.0012182548 -0.0011254678 0.0014390749 0.002468031 -0.0007973821
-0.00094390544 0.00207528 0.00086744875 0.002209932 -0.0020024977 -0.0013888704 -0.0014030137 0.0020524312
-0.0020419378 -0.0016103802 0.006289716 -0.0013596098 -0.0013839764 0.00083515735 0.0018702316 -0.0016859407
0.0030435296 0.0024907996 -0.001071554 0.0013557519 -0.00088649103 -0.0016785789 0.0010315897 -0.010396251
-0.0014442075 -0.0005709127 0.0011544022 -0.0075501115 -0.00044621874 0.00073081895 0.0018266996 -0.0011822591
0.0009740783 0.013680782 0.0014473741
00000000: 0f6e 3ebb 780f 52bb cbf8 c03a e9ad a6ba
00000010: 87c9 913a 0505 0ebb 3632 6a3a 6624 c739
00000020: d103 0c3b e86c 603a 61c8 773b 1d05 8a3a
00000030: b5d4 68bb 63ae edba 9a89 2f3a 9d5f 303c
00000040: 11e2 363b 6e7d 5a3a 2788 8bba 12f8 7b3a
00000050: 80f4 14bc 95da 94ba d29a 153b ccad 373a
00000060: ba94 a8ba 0677 693c 5e09 34bb f847 75ba
00000070: 795b bfba 8df9 7c3a 31b6 a2ba 48fe 723b
00000080: 500d 413c 3101 7aba ff19 17bb d1f7 d2ba
00000090: 4f3c a9ba 3137 caba c993 b9ba 12b3 0f3b
000000a0: ecd7 caba 1ecf b1bb 3edd 2f3b 598f c7ba
000000b0: 625f b1ba 0493 a73a 7d80 da3b 7cdb cbba
000000c0: 0536 b83a 63dd 31bb 87b2 8cbb aaf8 7fba
000000d0: d4a5 e33a 426f 88ba 6e7b bebb f484 aaba
000000e0: 0e1d 60ba 1577 1e3b c120 933a e7db 863a
000000f0: ff56 973a f3c3 6fba 5dd7 853a 4cbe 723a
00000100: 83b8 9fba e1b7 66bc 1c4d ac3a f5b7 10bb
00000110: cafa 81ba a6a9 2ebb 1190 79ba a5bd eeba
00000120: f2a7 3dbc d869 fe3a fe2b 39bb 2a19 c6ba
00000130: 9ea0 23bb 8154 cc3a 0c34 583b 62d6 5eba
00000140: 57b5 82ba 756b 8eba 9b91 9539 d9ad 9f3a
00000150: 6f84 93ba 579f bc3a b0be 213b 6807 51ba
00000160: 6c70 77ba 6c01 083b 8065 633a 82d4 103b
00000170: 563c 03bb c20a b6ba 54e5 b7ba 1582 063b
00000180: 08d2 05bb 6513 d3ba f619 ce3b ef34 b2ba
00000190: 8b66 b5ba 76ee 5a3a 8f22 f53a c8fa dcba
000001a0: f475 473b af3c 233b 6373 8cba 7cb3 b13a
000001b0: 6863 68ba c303 dcba 6836 873a 0a55 2abc
000001c0: 904b bdba 4ea9 15ba 4f4f 973a ed66 f7bb
000001d0: 77f2 e9b9 6e94 3f3a de6d ef3a 08f6 9aba
000001e0: 4a59 7f3a 5c25 603c d1b5 bd3a

rnn.bias_hh_l0 f4 [123]
-0.0029056778 -0.0032026763 0.001441662 -0.00141146 0.0012677391 -0.0021796778 0.0009958488 0.00014782656
0.0020393217 0.00088640413 0.00390305 0.001079271 -0.0035522142 -0.0018055334 0.00030487703 0.010754068
0.002821169 0.0007466233 -0.0010823568 0.000750301 -0.009090591 -0.0014253686 0.0022819603 0.00035700834
-0.0014054808 0.014198746 -0.0028532867 -0.00093804917 -0.0014349689 0.0009676279 -0.0010882003 0.0037003548
0.011821211 -0.00095049123 -0.0023481247 -0.001609459 -0.0013613412 -0.0014814402 -0.0012850161 0.002115282
-0.0015473654 -0.0053154444 0.002774327 -0.001521976 -0.0013455356 0.0013364949 0.006665732 -0.0014324175
0.0011549583 -0.0026276605 -0.0043875617 -0.0013663947 0.001773719 -0.0014346035 -0.0057381857 -0.0013114541
-0.000848266 0.00237776 0.0009759556 0.0011376964 0.0013979888 -0.00089308346 0.0012625586 0.0009818062
-0.0011585883 -0.014043528 0.0011484942 -0.001993831 -0.0009887103 -0.0026679998 -0.0014091549 -0.0017896064
-0.011527394 0.0019451889 -0.0027647775 -0.0014959506 -0.0023592706 0.0015762768 0.0032991208 -0.0008274079
-0.0012075034 -0.0010345236 0.00046129592 0.001213709 -0.0012113057 0.0014400731 0.0024303556 -0.00078201416
-0.0010463333 0.0021026665 0.00083760096 0.0022232556 -0.0020565628 -0.0014008727 -0.0014024009 0.0021403832
-0.0020463634 -0.0014425701 0.0062848637 -0.0013961131 -0.0011742056 0.0008434989 0.0019168501 -0.0017134616
0.0030294666 0.002484657 -0.0014287919 0.0013819186 -0.0009778023 -0.0016768078 0.0013889119 -0.010518963
-0.0013311091 -0.0006015536 0.0012623034 -0.0075125666 -0.00035954913 0.00071956473 0.0018481143 -0.0014751022
0.001102537 0.013500619 0.0013923326
00000000: 2f6d 3ebb fee3 51bb 26f6 bc3a bd00 b9ba
00000010: 442a a63a edd8 0ebb 2487 823a e401 1b39
00000020: 24a6 053b 935d 683a 50ca 7f3b 5376 8d3a
00000030: 44cc 68bb a6a7 ecba e7d7 9f39 d531 303c
00000040: 5de3 383b 0bb9 433a dedd 8dba d9af 443a
00000050: b4f0 14bc 6fd3 baba f18c 153b d92c bb39
00000060: 1c38 b8ba dba1 683c 35fe 3abb 6ae7 75ba
00000070: 9115 bcba 69a8 7d3a f1a1 8eba a781 723b
00000080: c1ad 413c 632a 79ba ffe2 19bb 7cf4 d2ba
00000090: 086f b2ba e22c c2ba fc6d a8ba 8ba0 0a3b
000000a0: f8d0 caba 2e2d aebb 7cd1 353b 0a7d c7ba
000000b0: af5c b0ba 542d af3a 366c da3b f5bf bbba
000000c0: f861 973a d434 2cbb 89c5 8fbb 9918 b3ba
000000d0: 227c e83a 4e09 bcba 6407 bcbb 19e5 abba
000000e0: 2b5e 5eba 31d4 1b3b 46d7 7f3a c21e 953a
000000f0: b83c b73a d11d 6aba 707c a53a f3af 803a
00000100: c6db 97ba d316 66bc 1289 963a efaa 02bb
00000110: 9d97 81ba 9cd9 2ebb 64b3 b8ba 3a91 eaba
00000120: 65dd 3cbc b5f5 fe3a 4531 35bb c613 c4ba
00000130: fe9d 1abb 139b ce3a 1036 583b 67e6 58ba
00000140: 1745 9eba da98 87ba 17da f139 5115 9f3a
00000150: adc4 9eba d6c0 bc3a 9a46 1f3b 1500 4dba
00000160: 1f25 89ba e4cc 093b 7392 5b3a 0ab4 113b
00000170: 66c7 06bb 7d9d b7ba c4d0 b7ba ac45 0c3b
00000180: 481c 06bb 9f14 bdba 42f1 cd3b c8fd b6ba
00000190: cde7 99ba 411e 5d3a d13e fb3a 3b96 e0ba
000001a0: 048a 463b a1d5 223b 4d46 bbba 7e21 b53a
000001b0: 9a29 80ba 55c8 dbba 260c b63a bb57 2cbc
000001c0: 9c78 aeba 94b1 1dba e073 a53a fa2b f6bb
000001d0: de81 bcb9 2ca1 3c3a 6d3c f23a 3758 c1ba
000001e0: 0183 903a b331 5d3c ee7e b63a

fc.weight f4 [1, 123]
0.087812684 0.090625435 -0.08244399 0.083141394 -0.08403669 0.086324625 -0.083077006 -0.08280331
-0.08607146 -0.08397912 -0.09657079 -0.08315723 0.09510944 0.08404844 -0.08203197 -0.12186732
-0.09066604 -0.08198486 0.08359163 -0.082758576 0.117228195 0.08271493 -0.08854814 -0.081838
0.08292385 -0.12564349 0.09230573 0.08219887 0.083058976 -0.0824553 0.08301289 -0.096883416
-0.12054317 0.08264377 0.08534202 0.083607584 0.08309638 0.082700506 0.08305877 -0.086100176
0.0831858 0.10428218 -0.08849515 0.08328024 0.08362744 -0.08261238 -0.1069025 0.08252358
-0.08367452 0.08878794 0.098597355 0.08231879 -0.08487332 0.08249862 0.10487745 0.08343651
0.08203236 -0.08762698 -0.0836057 -0.082744084 -0.08252229 0.082524106 -0.082946874 -0.08338108
0.083434775 0.12512498 -0.08386347 0.08558108 0.08289277 0.090785116 0.08225309 0.08512806
0.12404713 -0.084670074 0.092981495 0.082921244 0.08805299 -0.08267443 -0.092602216 0.083435215
0.08297735 0.083728194 -0.08273413 -0.08289902 0.08399244 -0.08278818 -0.08560146 0.08222296
0.082929336 -0.086453356 -0.08262342 -0.086184576 0.08507061 0.082134366 0.08278512 -0.085967794
0.08557614 0.08257291 -0.10703989 0.08292326 0.08246814 -0.08369307 -0.084563926 0.08507794
-0.09322086 -0.08906381 0.08342151 -0.08295974 0.08295939 0.08439622 -0.08204938 0.11888024
0.08245848 0.083594285 -0.08288489 0.110331066 0.083016515 -0.08378509 -0.084630355 0.08252313
-0.082127005 -0.12028509 -0.083118975
00000000: 23d7 b33d d499 b93d 65d8 a8bd 0946 aa3d
00000010: 6e1b acbd f7ca b03d 4724 aabd c894 a9bd
00000020: 3c46 b0bd 3ffd abbd e8c6 c5bd 564e aabd
00000030: bdc8 c23d 9721 ac3d 6100 a8bd 9395 f9bd
00000040: 1eaf b9bd aee7 a7bd 1732 ab3d 547d a9bd
00000050: 5615 f03d 7266 a93d ba58 b5bd ae9a a7bd
00000060: fbd3 a93d b0a8 00be c90a bd3d e257 a83d
00000070: d31a aa3d 53de a8bd a902 aa3d d06a c6bd
00000080: 56df f6bd 2341 a93d ccc7 ae3d 743a ab3d
00000090: 6f2e aa3d e25e a93d b71a aa3d 4a55 b0bd
000000a0: 515d aa3d e591 d53d f23c b5bd d58e aa3d
000000b0: dd44 ab3d ae30 a9bd b3ef dabd 1f02 a93d
000000c0: 8c5d abbd 74d6 b53d 69ed c93d c196 a83d
000000d0: 10d2 adbd 09f5 a83d fdc9 d63d c3e0 aa3d
000000e0: 9500 a83d c675 b3bd 7739 abbd bb75 a9bd
000000f0: 7201 a9bd 6602 a93d 0de0 a9bd b3c3 aabd
00000100: dadf aa3d c320 003e 9cc0 abbd 2245 af3d
00000110: afc3 a93d 8ced b93d 4f74 a83d 9f57 ae3d
00000120: 6c0c fe3d 8167 adbd 156d be3d 9dd2 a93d
00000130: 2055 b43d 3651 a9bd 3ba6 bdbd 15e0 aa3d
00000140: 07f0 a93d b079 ab3d 8370 a9bd f6c6 a9bd
00000150: 3a04 ac3d d98c a9bd d14f afbd 8364 a83d
00000160: dbd6 a93d 750e b1bd 7836 a9bd 8a81 b0bd
00000170: 8039 ae3d 1036 a83d 3f8b a93d e20f b0bd
00000180: 8b42 af3d fc1b a93d bb37 dbbd acd3 a93d
00000190: 0ee5 a83d 4667 abbd da2f adbd 583d ae3d
000001a0: 94ea bebd 1667 b6bd e6d8 aa3d cce6 a9bd
000001b0: 9de6 a93d edd7 ac3d 8109 a8bd 7c77 f33d
000001c0: fedf a83d 7b33 ab3d 8ebf a9bd 41f5 e13d
000001d0: 9004 aa3d 8497 abbd ae52 adbd e301 a93d
000001e0: 3432 a8bd 0758 f6bd 483a aabd
