wavefunction_approximation/data_400/bell_400.pth (torch, 3404 bytes, 8 tensors)

memberships.0.c f4 [3]
000000 8f 38 a5 bf 91 ca 74 3f 50 a4 09 40
       -1.2907885 0.9562159 2.1506538

memberships.0.a f4 [3]
000000 3c 22 8e 3f d1 41 01 40 4c a6 d6 3f
       1.1104198 2.019642 1.67695

memberships.0.b f4 [3]
000000 33 c9 d5 40 6b fe 69 40 92 b3 b3 40
       6.6808105 3.6561534 5.61567

memberships.1.c f4 [3]
000000 c6 0e 17 c0 91 3a 84 bf d6 49 e3 3f
       -2.3602767 -1.0330373 1.7756908

memberships.1.a f4 [3]
000000 c8 5d 04 40 b5 e7 aa 3f 18 4e d0 3f
       2.068224 1.3351961 1.6273832

memberships.1.b f4 [3]
000000 bc f8 bd 40 f9 76 b4 40 9f 18 6f 41
       5.936613 5.639523 14.943511

consequents.linear.weight f4 [9, 2]
000000 ce ab df bf 68 48 d6 39 8f 88 e3 3f 77 28 0f bc
       -1.7474306 0.00040871208 1.7776049 -0.008737675
000010 dd be dc 3b d2 8b 8e 3b 52 f2 6f c0 73 2d 1a 3e
       0.00673662 0.004350164 -3.749165 0.150564
000020 5d e8 6e 40 70 f3 66 3d 47 a7 98 bc db 4b b5 bd
       3.7329323 0.056384504 -0.018634452 -0.08852359
000030 6c c6 7d 40 f9 9c 8f bd 64 a5 80 c0 31 bf 4f bd
       3.9652357 -0.07012362 -4.0201893 -0.050719444
000040 c8 77 8c bc 42 d7 3c 3d
       -0.01714696 0.046103723

consequents.linear.bias f4 [9]
000000 9e 48 6a c0 42 cc 6b 40 12 91 46 3a 54 d0 50 be
       -3.6606822 3.684342 0.0007574718 -0.20391971
000010 21 6a 04 3f 46 c6 0a 3e 88 64 14 bc 64 c3 90 bd
       0.5172444 0.13552198 -0.009057172 -0.07068518
000020 cf d1 af bc
       -0.02146235
