wavefunction_approximation/data_400/gaussian_400.pth (torch, 2938 bytes, 6 tensors)

memberships.0.mu f4 [3]
-3.0553303 3.0185778 1.5426618
00000000: 888a 43c0 6130 4140 f175 c53f

memberships.0.sigma f4 [3]
0.46996593 0.69652814 0.26639703
00000000: 609f f03e ab4f 323f 3165 883e

memberships.1.mu f4 [3]
-3.0153654 -3.0420513 3.0179281
00000000: bffb 40c0 f8b0 42c0 bc25 4140

memberships.1.sigma f4 [3]
0.8441876 0.7827135 0.7668725
00000000: ae1c 583f e95f 483f c251 443f

consequents.linear.weight f4 [9, 2]
0.46785128 0.18949562 -0.64068377 -0.10508556 0.032956127 -0.025463361 0.054605037 2.5260818
-0.07660585 -2.3135452 0.0026050922 -0.10014196 -0.3300802 -0.19350746 0.4411884 0.22354513
-0.029077312 -0.013093197
00000000: 348a ef3e 240b 423e da03 24bf 1937 d7bd
00000010: 01fd 063d 8a98 d0bc 88a9 5f3d 53ab 2140
00000020: 87e3 9cbd 2011 14c0 32ba 2a3b 3a17 cdbd
00000030: 4600 a9be d226 46be 72e3 e13e 04e9 643e
00000040: 8b33 eebc d984 56bc

consequents.linear.bias f4 [9]
0.59990495 -0.60021687 0.08024171 0.88561517 0.31286097 0.1521825 0.34791934 -0.5014103
0.05756966
00000000: 5f93 193f d0a7 19bf c455 a43d adb7 623f
00000010: 502f a03e bbd5 1b3e 7c22 b23e 6d5c 00bf
00000020: 2ace 6b3d
