wavefunction_approximation/data_400/sigmoid_400.pth (torch, 2928 bytes, 6 tensors)

memberships.0.c f4 [3]
-0.51800966 -0.84169877 0.6271171
00000000: 489c 04bf 9279 57bf bf8a 203f

memberships.0.a f4 [3]
14.6600895 17.574327 12.533676
00000000: ba8f 6a41 3998 8c41 f089 4841

memberships.1.c f4 [3]
-0.14571267 -0.05985144 0.20103633
00000000: b435 15be c926 75bd 78dc 4d3e

memberships.1.a f4 [3]
6.240329 10.220925 5.910765
00000000: c6b0 c740 e988 2341 fd24 bd40

consequents.linear.weight f4 [9, 2]
-0.19768175 -0.024934096 -0.88911957 0.50406015 1.0056059 -0.75161994 0.20599373 0.08259858
0.92417604 0.06611509 -1.0450165 -0.20694317 -0.3178876 0.17845431 -1.3387212 -0.33257076
1.4719331 0.30769873
00000000: 166d 4abe 9742 ccbc 579d 63bf 160a 013f
00000010: b2b7 803f 2a6a 40bf 05f0 523e 7229 a93d
00000020: cd96 6c3f 5967 873d 1ac3 85bf e9e8 53be
00000030: 2ac2 a2be babc 363e 375b abbf b746 aabe
00000040: 4e68 bc3f b08a 9d3e

consequents.linear.bias f4 [9]
0.37357312 3.0580482 -3.0882955 0.29459658 1.0663122 -1.1668072 -0.09105789 -2.2830708
2.3477573
00000000: fa44 bf3e 10b7 4340 a2a6 45c0 5dd5 963e
00000010: eb7c 883f f059 95bf 8f7c babd d51d 12c0
00000020: a841 1640
