covid_forecasting/daily/best_models/bigru_daily.pth (torch, 286981 bytes, 9 tensors)

gru.weight_ih_l0 f4 [321, 1]
-0.027848208 -0.19221966 -0.32750678 -0.04999872 0.03609742 -0.116819136 -0.39276576 -0.15255499
0.0025766979 -0.22314793 -0.05558714 0.07241518 -0.39249128 -0.14225928 -0.035510167 0.02958768
-0.23152478 -0.111186005 -0.29152784 -0.066494584 -0.5724866 -0.07832407 -0.080077134 -0.036245372
0.14677224 0.3791095 -0.3785476 0.069634244 -0.36854 -0.17893803 -0.11585333 0.013695013
-0.03814352 0.05717755 -0.3291909 -0.371664 0.026648767 -0.24125275 -0.07004138 0.06953603
-0.03717833 -0.03369204 -0.02372821 -0.11155121 -0.17182463 0.18452092 -0.15555884 -0.2020958
-0.08921315 -0.24623996 -0.30163682 -0.04041253 -0.27582434 0.0015401235 -0.17174467 -0.12077397
-0.14283624 -0.19321127 -0.0055525545 0.10802846 -0.21201882 -0.23902492 -0.24419841 -0.4632756
-0.27095786 -0.042124666 -0.013631346 -0.2209429 -0.27308086 -0.2869122 0.025762226 -0.25681344
-0.07145711 -0.08740312 -0.084628746 -0.10773917 -0.1534297 -0.1290552 -0.123229824 -0.21577017
0.04869345 -0.17961815 -0.15886632 0.022335537 -0.21730666 -0.12543474 -0.40899205 -0.1570201
-0.068039335 -0.29517743 0.06141448 -0.4949391 -0.16864887 -0.11549482 -0.09977585 -0.45310974
-0.0582199 0.08218957 0.016558312 -0.07535402 -0.050073616 -0.12999736 -0.26341185 -0.01914541
0.09584984 -0.21248576 -0.24503954 0.48865318 0.7824296 0.45943543 -0.26578605 0.25693038
0.7721016 -0.18690579 0.18627343 0.15408963 0.84891057 0.6409136 0.52055943 -0.071755305
0.5881335 0.25622147 0.8742349 0.80435246 0.08699109 -0.34230828 0.5474241 0.8309128
0.17422083 0.68558717 -0.13626699 0.57040745 -0.28421393 0.5579994 0.857038 0.46753076
0.51345426 0.5450138 0.8037024 0.30693734 0.18440999 0.06561823 0.94566065 0.8876769
0.5958572 0.59589267 -0.4827498 0.8985154 0.09790333 0.10370075 0.8359084 0.4104559
0.5047923 0.8605387 0.8872378 0.6913932 0.85710955 -0.20619537 0.37112442 0.9319206
0.551075 0.16334724 -0.08162586 0.5155601 -0.6284007 0.019676594 -0.20016676 0.4707414
0.6022064 0.84790176 0.6845366 0.71439135 0.4821718 0.76901805 0.7783783 0.88412964
0.79802126 0.3966121 0.6556553 0.0036239699 0.4032312 -0.2695739 0.7739688 0.45241284
0.5503377 0.8138691 0.4158485 -0.0780046 0.23602222 0.6409359 0.47063226 0.43770212
0.14122067 0.95754915 -0.015547069 -0.026602078 0.26257282 0.48900783 0.7691709 0.16968237
0.8030007 0.37778115 0.53975695 1.0150192 0.72235984 0.44367763 -0.30221853 0.80035484
-0.046929877 0.79925925 0.42398605 -0.4434297 -0.08211113 0.097000666 -0.11835003 -0.032597773
0.037198037 0.14267221 0.17592502 0.04020158 0.30367032 -0.046116717 -0.30708566 0.03634439
-0.11915933 0.14070588 0.1855006 0.07244318 -0.10381685 0.107142664 0.05672995 -0.05069734
-0.29566592 0.18186481 0.0067971926 -0.17901276 0.07502863 -0.12931275 0.20741704 -0.4105986
0.032589585 -0.15042628 0.050617814 -0.0027090884 0.071263656 0.12053852 0.20872468 0.17677048
0.3711917 0.007280852 -0.14316225 -0.08763156 0.11904516 0.0053948537 -0.11796915 -0.3218847
00000000: ed21 e4bc 3bd5 44be f8ae a7be 75cb 4cbd
00000010: e3da 133d df3e efbd 9818 c9be 6037 1cbe
00000020: d1dd 283b e480 64be 57af 63bd 694e 943d
00000030: 9ef4 c8be 6bac 11be 1c73 11bd dd61 f23c
00000040: d514 6dbe 7db5 e3bd 2343 95be 502e 88bd
00000050: 7b8e 12bf 5f68 a0bd 7bff a3bd 0776 14bd
00000060: 764b 163e a41a c23e fed0 c1be 669c 8e3d
00000070: 46b1 bcbe 883b 37be 8344 edbd 0c61 603c
00000080: 613c 1cbd 0233 6a3d b68b a8be be4a bebe
00000090: 844e da3c f60a 77be db71 8fbd e868 8e3d
000000a0: 4e48 18bd aa00 0abd aa61 c2bc f674 e4bd
000000b0: ccf2 2fbe 0df3 3c3e d14a 1fbe 34f2 4ebe
000000c0: 62b5 b6bd 5426 7cbe 2470 9abe 9c87 25bd
000000d0: d938 8dbe f8dd c93a d6dd 2fbe 5858 f7bd
000000e0: aa43 12be 2dd9 45be 34f2 b5bb 063e dd3d
000000f0: 761b 59be f3c2 74be 260f 7abe 7632 edbe
00000100: fdba 8abe ea8a 2cbd 0256 5fbc db3e 62be
00000110: 41d1 8bbe 28e6 92be 4e0b d33c 0d7d 83be
00000120: 1b58 92bd 6800 b3bd d651 adbd 5ba6 dcbd
00000130: ad1c 1dbe 0c27 04be eb5f fcbd dbf2 5cbe
00000140: c872 473d d2ed 37be daad 22be 04f9 b63c
00000150: a385 5ebe f771 00be 6867 d1be e1c9 20be
00000160: 3558 8bbd 7f21 97be c08d 7b3d a868 fdbe
00000170: 4ab2 2cbe 8c88 ecbd 4857 ccbd 00fe e7be
00000180: fd77 6ebd 0153 a83d 4ca5 873c 3553 9abd
00000190: fe19 4dbd 071e 05be ebdd 86be d6d6 9cbc
000001a0: ec4c c43d de95 59be a5eb 7abe c030 fa3e
000001b0: 4e4d 483f 1f3b eb3e 1c15 88be 618c 833e
000001c0: 73a8 453f 3b64 3fbe 76be 3e3e acc9 1d3e
000001d0: 3452 593f ea12 243f 6243 053f 72f4 92bd
000001e0: eb8f 163f 762f 833e dccd 5f3f 0bea 4d3f
000001f0: 6228 b23d 0843 afbe fc23 0c3f b4b6 543f
00000200: f266 323e a482 2f3f 9389 0bbe 3906 123f
00000210: 7d84 91be 0cd9 0e3f d866 5b3f 3160 ef3e
00000220: bd71 033f 0686 0b3f 71bf 4d3f e426 9d3e
00000230: f9d5 3c3e da62 863d d116 723f cb3e 633f
00000240: 198a 183f 6c8c 183f fb2a f7be 1b05 663f
00000250: 8b81 c83d 0f61 d43d 18fe 553f 4727 d23e
00000260: 113a 013f 444c 5c3f 0422 633f 25ff 303f
00000270: 886b 5b3f e124 53be 0504 be3e 5992 6e3f
00000280: 4013 0d3f 8044 273e 752b a7bd bffb 033f
00000290: dede 20bf cf30 a13c 84f8 4cbe 0405 f13e
000002a0: 332a 1a3f 1710 593f ca3d 2f3f 5ae2 363f
000002b0: 39df f63e 5ede 443f cd43 473f 5256 623f
000002c0: 1f4b 4c3f be10 cb3e 07d9 273f 2080 6d3b
000002d0: 5274 ce3e 9705 8abe d222 463f a8a2 e73e
000002e0: eee2 0c3f ba59 503f 18ea d43e e0c0 9fbd
000002f0: cfaf 713e 6014 243f b6f6 f03e 7e1a e03e
00000300: 279c 103e f121 753f 22b9 7ebc 9aec d9bc
00000310: f26f 863e 3c5f fa3e 62e8 443f 37c1 2d3e
00000320: 7491 4d3f 886c c13e 832d 0a3f 26ec 813f
00000330: 93ec 383f b729 e33e 63bc 9abe 0ee4 4c3f
00000340: 8b39 40bd 419c 4c3f b314 d93e 3809 e3be
00000350: e129 a8bd 49a8 c63d 8061 f2bd 3e85 05bd
00000360: f85c 183d aa18 123e b025 343e 69aa 243d
00000370: ad7a 9b3e e2e4 3cbd 553a 9dbe dbdd 143d
00000380: cf09 f4bd 3415 103e dff3 3d3e 175d 943d
00000390: ee9d d4bd 9d6d db3d aa5d 683d 04a8 4fbd
000003a0: 8661 97be c53a 3a3e fcba de3b 1f4f 37be
000003b0: 9ca8 993d 906a 04be 2265 543e fb39 d2be
000003c0: a87c 053d 5909 1abe a054 4f3d f68a 31bb
000003d0: aef2 913d e6dc f63d ecbb 553e 5203 353e
000003e0: d70c be3e 3794 ee3b 2099 12be 2d78 b3bd
000003f0: f3cd f33d 50c7 b03b cf99 f1bd 12ce a4be

gru.weight_hh_l0 f4 [321, 107]
-0.2907071 0.059940584 0.04738648 0.0495676 -0.036482718 0.069017984 0.015715998 -0.047426358
-0.053893723 0.082551666 -0.11294471 -0.04814358 0.045932937 -0.105485246 0.119935356 0.036044113
0.036672175 -0.08069929 0.008917212 0.052136254 0.08474543 0.04343156 -0.09927558 0.0080403825
0.121701665 0.047674093 -0.050568122 0.030296754 0.11220753 -0.0070734695 0.1427647 -0.06975958
0.074982055 -0.07508773 -0.02515926 0.08597338 0.15639141 -0.018671002 -0.067095 0.013520309
-0.012829823 -0.15552396 -0.101570524 -0.01521053 -0.10053885 -0.104211286 -0.009460201 0.16692227
-0.002585924 -0.11271371 0.08221125 -0.07316278 0.15329114 0.020074604 0.08169759 -0.046099275
0.0010241661 0.019998165 0.016742839 0.14073831 -0.0671248 0.011637336 -0.10175035 -0.0697259
0.03003972 0.10500839 -0.0056652073 0.062139962 -0.034368847 0.13686742 -0.043962996 0.018334167
0.16368861 -0.14860953 0.025652088 -0.011258311 -0.13308065 0.05568059 -0.04867699 -0.07058999
-0.057655547 -0.101976775 0.028371712 -0.02449641 0.036511827 -0.13444364 -0.051107056 0.14284422
0.055621948 0.05591401 0.056687824 -0.06744522 -0.22248511 0.01244063 -0.019411173 0.074695244
-0.07033496 0.09566342 -0.07612598 0.021093337 0.0332415 -0.011013766 -0.023914097 0.15888014
-0.12946893 0.0008975226 -0.031149657 0.06280232 -0.5624757 -0.102680266 -0.09582054 0.021975815
0.09506788 0.022226239 0.05356317 0.037320033 -0.08745862 0.08250512 -0.08686173 -0.011409356
-0.1393761 -0.11382891 0.14679007 -0.0830249 0.24935484 -0.02366782 0.046801962 -0.18499291
-0.07991345 -0.06988853 0.09830626 -0.124576755 -0.0019968387 -0.09312017 0.03772055 0.0003915907
0.1259486 0.018817753 0.14620814 -0.17535925 0.036097452 -0.06596107 -0.116844445 -0.031521127
-0.12156549 0.046274774 0.029047875 -0.08265376 0.08595164 -0.03745017 -0.036007863 -0.08859094
0.0045790034 -0.034989607 0.060991496 0.12724687 -0.21801075 0.0062737423 0.10454136 -0.24396677
0.015364212 -0.012829891 0.03969995 0.10363779 0.27772188 0.017210802 -0.22768342 -0.17333177
0.08355999 -0.012178059 0.10471365 -0.077087626 -0.07575582 -0.05036854 0.16423479 0.122795135
-0.025426092 -0.03492665 0.07641807 -0.090299204 -0.092530385 -0.07604987 -0.053705372 0.06622395
0.038913496 0.007871449 0.011197665 -0.030004987 -0.00016947443 0.06784031 -0.11269927 0.02522042
0.06466435 0.074713506 0.011215997 0.017800197 0.010169944 0.042993337 0.21859929 0.09257557
0.11293535 0.030326204 0.050513323 -0.03990942 -0.046191026 0.041011717 -0.03731656 -0.1647241
0.009692799 0.08709606 -0.06602722 -0.22732791 -0.035892863 -0.013453323 0.02688776 -0.03369976
-0.16910449 0.107878394 0.13269038 -0.0057312227 -0.16237995 0.053906396 0.04959389 0.027577873
-0.03743548 0.03575121 -0.10187883 -0.117136456 -0.015838824 -0.04105991 -0.06745821 -0.0634594
0.2328458 0.011333552 0.10263897 0.029479252 -0.024620323 -0.12543 -0.08573675 0.27387503
0.052967943 -0.07226852 -0.11614604 -0.07627481 -0.01352422 -0.017018571 -0.1662639 0.04915791
-0.16988322 0.05194133 -0.03497667 0.13026991 0.05344143 -0.102009796 0.02211129 0.24809791
00000000: 90d7 94be 4284 753d 5318 423d 6507 4b3d
00000010: e76e 15bd 4d59 8d3d d6be 803c 2442 42bd
00000020: aabf 5cbd d910 a93d 8e4f e7bd 3432 45bd
00000030: 2d24 3c3d a608 d8bd aba0 f53d fea2 133d
00000040: 9035 163d ab45 a5bd 7f19 123c d38c 553d
00000050: 038f ad3d 4be5 313d ff50 cbbd cfbb 033c
00000060: b93e f93d e945 433d 8520 4fbd e630 f83c
00000070: 10cd e53d 90c8 e7bb e930 123e 1cde 8ebd
00000080: 3190 993d 99c7 99bd cb1a cebc d012 b03d
00000090: 1225 203e eef3 98bc 1a69 89bd 4984 5d3c
000000a0: 2e34 52bc ac41 1fbe 3504 d0bd 9635 79bc
000000b0: 50e7 cdbd ba6c d5bd f5fe 1abc aced 2a3e
000000c0: 9b78 29bb 72d6 e6bd 5f5e a83d 5ed6 95bd
000000d0: 5af8 1c3e 7f73 a43c 1151 a73d 98d2 3cbd
000000e0: 503d 863a 31d3 a33c 4728 893c b41d 103e
000000f0: ba78 89bd 86aa 3e3c 7d62 d0bd 74cc 8ebd
00000100: dc15 f63c a40e d73d 34a3 b9bb 7986 7e3d
00000110: 59c6 0cbd f926 0c3e 8b12 34bd 8931 963c
00000120: fd9d 273e 192d 18be 5424 d23c c774 38bc
00000130: 4b46 08be 5511 643d 8661 47bd 7c91 90bd
00000140: 3928 6cbd 33d9 d0bd cb6b e83c b2ac c8bc
00000150: 6d8d 153d 98ab 09be a255 51bd c145 123e
00000160: d7d3 633d 1706 653d 7e31 683d b820 8abd
00000170: 23d3 63be c9d3 4b3c 2e04 9fbc d2f9 983d
00000180: c70b 90bd 2feb c33d f0e7 9bbd efcb ac3c
00000190: 3d28 083d 1573 34bc 7fe7 c3bc 7ab1 223e
000001a0: 8193 04be b947 6b3a 912d ffbc 819e 803d
000001b0: 68fe 0fbf 084a d2bd 8f3d c4bd a006 b43c
000001c0: f3b2 c23d cd13 b63c 0e65 5b3d e4dc 183d
000001d0: 811d b3bd 72f8 a83d 90e4 b1bd 4fee 3abc
000001e0: 9cb8 0ebe 221f e9bd 2350 163e f508 aabd
000001f0: e056 7f3e 04e3 c1bc 6ab3 3f3d c86e 3dbe
00000200: aaa9 a3bd b821 8fbd cb54 c93d 1922 ffbd
00000210: 65dd 02bb cab5 bebd dd80 1a3d 6a4e cd39
00000220: abf8 003e b027 9a3c 96b7 153e 6091 33be
00000230: ecda 133d 9916 87bd 244c efbd 4c1c 01bd
00000240: 54f7 f8bd 9e8a 3d3d cff5 ed3c 6046 a9bd
00000250: 6a07 b03d 5965 19bd fb7c 13bd 2b6f b5bd
00000260: 770b 963b 4351 0fbd 38d2 793d 014d 023e
00000270: 363e 5fbe f793 cd3b c819 d63d 6dd2 79be
00000280: 2dba 7b3c 7734 52bc 6a9c 223d 0d40 d43d
00000290: 9031 8e3e abfd 8c3c d825 69be e27d 31be
000002a0: 8021 ab3d 7b86 47bc 1c74 d63d 1ee0 9dbd
000002b0: de25 9bbd 3e4f 4ebd 2a2d 283e 047c fb3d
000002c0: 614a d0bc 3f0f 0fbd 1481 9c3d caee b8bd
000002d0: 9280 bdbd 09c0 9bbd 2afa 5bbd 6ca0 873d
000002e0: c263 1f3d 40f7 003c 6976 373c 05cd f5bc
000002f0: f2b4 31b9 dcef 8a3d e0ce e6bd 0e9b ce3c
00000300: be6e 843d 6503 993d 4dc3 373c b8d1 913c
00000310: d69f 263c c819 303d 7ed8 5f3e 4398 bd3d
00000320: a64a e73d a96e f83c 0fe7 4e3d 0f78 23bd
00000330: cd32 3dbd e7fb 273d 40d9 18bd 6fad 28be
00000340: 8cce 1e3c 6b5f b23d 4739 87bd a6c8 68be
00000350: 6504 13bd 546b 5cbc b843 dc3c c208 0abd
00000360: ba29 2dbe 59ef dc3d fddf 073e fbcc bbbb
00000370: ee46 26be f4cc 5c3d f622 4b3d feea e13c
00000380: f255 19bd dc6f 123d d9a5 d0bd 3de5 efbd
00000390: 6cc0 81bc 702e 28bd 8827 8abd 00f7 81bd
000003a0: 216f 6e3e 5db0 393c 6134 d23d 797e f13c
000003b0: 8fb0 c9bc b970 00be c096 afbd 5939 8c3e
000003c0: eaf4 583d 8501 94bd fadd edbd f835 9cbd
000003d0: b194 5dbc 886a 8bbc 1541 2abe ce59 493d
000003e0: def5 2dbe 6fc0 543d b243 0fbd 7a65 053e
000003f0: 67e5 5a3d 83ea d0bd bc22 b53c 610d 7e3e

gru.bias_ih_l0 f4 [321]
-0.04374391 -0.015347817 -0.12648928 0.025527114 -0.07503022 -0.074137285 -0.07533711 -0.1463204
-0.17374516 -0.17451096 -0.12545481 -0.15923122 -0.6211296 -0.023691038 -0.17926872 -0.20996843
-0.21171331 -0.025015064 -0.6784481 0.042624783 -0.3418824 -0.066912726 -0.077847674 0.093806885
-0.10474043 -0.143543 -0.18758886 -0.0075564524 -0.23392361 -0.2928844 -0.2512571 -0.103215106
0.00666082 -0.0066991644 -0.45171696 -0.3959548 -0.10019457 -0.0567107 -0.110157914 -0.023349343
-0.06901349 -0.29771647 0.0758171 -0.23957956 -0.17803718 -0.092099346 -0.18402968 -0.11296054
-0.07354512 -0.44473264 -0.2024832 -0.3018894 -0.17469007 -0.069682226 -0.0006682616 0.0005019247
-0.06033235 -0.08123195 -0.16524597 -0.15745346 -0.2064391 -0.15586266 -0.27538836 -0.4731
-0.0857823 -0.24007075 -0.30459937 0.021592317 -0.19860096 -0.086781785 -0.0049784943 -0.17410146
0.015103146 -0.12469872 -0.47613946 -0.123171106 -0.26043388 -0.17126729 -0.09579144 -0.11499338
-0.122961804 0.050413616 -0.17723821 -0.1088422 -0.028200144 -0.028103746 -0.19197997 -0.19405888
-0.0937329 0.04184721 -0.056774177 -0.5324781 -0.5376251 -0.2564544 0.01310812 -0.54228735
-0.27491462 -0.005707843 -0.06521702 -0.095281705 -0.18618175 -0.093474075 -0.30278063 -0.19494231
-0.0059969192 -0.028310785 -0.23197679 0.6490732 1.2865688 0.5770102 0.17352416 0.38476467
1.1722863 0.0060759 0.96856076 0.10617722 0.9266056 0.9435321 0.7617794 0.22762552
0.9963925 0.65342975 0.9169359 0.8196808 0.60112065 -0.0908369 0.69671273 0.99249744
0.39923668 0.8519064 0.04285539 0.9500869 0.06274868 0.81803685 1.1244205 0.8090272
0.77128375 0.91966885 1.0971196 0.5213537 0.44813862 -0.13087165 0.99783343 0.96733207
0.90418524 0.56467944 0.31815973 1.1754555 -0.13124622 0.32489538 0.93827426 0.7828646
0.8624826 0.97851723 1.0768282 0.6820876 0.934614 0.10058148 -0.00042904497 0.7169435
0.7720476 0.64259225 -0.023487065 0.62701535 -0.8070474 0.4551559 -0.04671711 0.8213497
0.8927912 1.1135906 1.096661 0.45431274 0.8422567 0.8557388 0.9237026 1.0631901
1.0628991 0.7064249 0.5557382 -0.16762334 0.4597712 -0.028680379 1.1505122 0.7590604
0.87719196 0.9842396 0.70164585 0.3487137 0.30701724 0.8138001 0.8838811 0.53152937
0.6767819 0.7463864 0.29451954 0.06932496 0.6259256 0.61145633 1.0756295 0.049408216
1.003589 0.8318622 1.0030115 1.0057847 0.87961346 0.7429731 0.059738804 1.0084386
0.28016034 0.95143265 0.7835684 -0.6918711 0.2473727 0.15619041 0.0142043615 -0.044467207
-0.02927653 -0.019640883 -0.017364448 -0.048954193 -0.015010281 0.044099145 0.09314009 0.015116549
0.04457382 -0.02607886 -0.03320927 0.029909242 0.029280478 -0.033882447 -0.019064553 -0.015569683
-0.013419499 -0.050872438 -0.006905402 0.026886705 -0.014044685 -0.03895846 -0.06539624 0.117971614
-0.027219323 0.04755165 -0.037074216 -0.011799388 -0.02092547 -0.020696022 -0.033840727 -0.037265003
-0.07575142 -0.0023110565 0.05017462 -0.014787961 -0.039583195 -0.055214137 0.041882515 0.07935689
00000000: d02c 33bd 6975 7bbc 6886 01be 3d1e d13c
00000010: 72a9 99bd 4ad5 97bd 584a 9abd 04d5 15be
00000020: 40ea 31be 00b3 32be 3a77 00be 820d 23be
00000030: 5902 1fbf b513 c2bc 3892 37be f701 57be
00000040: 60cb 58be 64ec ccbc c6ae 2dbf 5397 2e3d
00000050: 360b afbe 8a09 89bd 9a6e 9fbd d31d c03d
00000060: 2782 d6bd f0fc 12be 4b17 40be 1e9c f7bb
00000070: ac89 6fbe f2f4 95be c5a4 80be 7162 d3bd
00000080: 0243 da3b aa84 dbbb 7247 e7be 96ba cabe
00000090: d032 cdbd 7b49 68bd 799a e1bd 1f47 bfbc
000000a0: f256 8dbd 4b6e 98be ff45 9b3d 5854 75be
000000b0: 614f 36be 959e bcbd 4772 3cbe db57 e7bd
000000c0: d39e 96bd ffb3 e3be c257 4fbe 3f91 9abe
000000d0: f4e1 32be 8eb5 8ebd 472e 2fba 9993 033a
000000e0: 0e1f 77bd f05c a6bd 3d36 29be 7b3b 21be
000000f0: c564 53be 769a 1fbe b4ff 8cbe 2a3a f2be
00000100: a1ae afbd 1bd5 75be 73f4 9bbe 5fe2 b03c
00000110: 0d5e 4bbe a6ba b1bd a322 a3bb a747 32be
00000120: 3073 773c 0b62 ffbd 8dc8 f3be 2241 fcbd
00000130: 9757 85be b160 2fbe 4d2e c4bd a681 ebbd
00000140: 66d3 fbbd 827e 4e3d ef7d 35be a9e8 debd
00000150: fd03 e7bc d439 e6bc 6696 44be 5fb7 46be
00000160: 09f7 bfbd fb67 2b3d 0a8c 68bd 7c50 08bf
00000170: cca1 09bf fe4d 83be 71c3 563c 58d3 0abf
00000180: 9cc1 8cbe dc08 bbbb 8090 85bd 0e23 c3bd
00000190: 6ea6 3ebe 566f bfbd 1006 9bbe f59e 47be
000001a0: ce81 c4bb 05ec e7bc 538b 6dbe a929 263f
000001b0: 49ae a43f f1b6 133f 51b0 313e e0ff c43e
000001c0: 7a0d 963f 5818 c73b 99f3 773f 7173 d93d
000001d0: 0636 6d3f 528b 713f fa03 433f aa16 693e
000001e0: 9413 7f3f 2c47 273f 50bc 6a3f 9ad6 513f
000001f0: 0be3 193f b208 babd c45b 323f 5014 7e3f
00000200: c068 cc3e 8a16 5a3f 2289 2f3d e538 733f
00000210: 6182 803d dd6a 513f 03ed 8f3f 681c 4f3f
00000220: da72 453f 6b6f 6b3f 6a6e 8c3f 7077 053f
00000230: 6d72 e53e 3803 06be 0372 7f3f 13a3 773f
00000240: af78 673f d58e 103f d5e5 a23e 5375 963f
00000250: 6965 06be b058 a63e be32 703f d069 483f
00000260: a9cb 5c3f 1b80 7a3f 82d5 893f 4b9d 2e3f
00000270: dd42 6f3f aafd cd3d 71f1 e0b9 9c89 373f
00000280: e9a4 453f ed80 243f f267 c0bc 1484 203f
00000290: a99a 4ebf 320a e93e 715a 3fbd f943 523f
000002a0: f78d 643f 238a 8e3f 635f 8c3f ae9b e83e
000002b0: 239e 573f b311 5b3f c677 6c3f 9d16 883f
000002c0: 140d 883f 43d8 343f dc44 0e3f 74a5 2bbe
000002d0: 2167 eb3e 1df3 eabc fc43 933f c851 423f
000002e0: a78f 603f 20f7 7b3f 109f 333f 9a8a b23e
000002f0: 5d31 9d3e 3455 503f 0846 623f 4f12 083f
00000300: 9441 2d3f 2e13 3f3f 44cb 963e 3ffa 8d3d
00000310: a93c 203f 6788 1c3f 3aae 893f 4560 4a3d
00000320: 9b75 803f ecf4 543f ae62 803f 8ebd 803f
00000330: 592e 613f 7c33 3e3f adb0 743d 8414 813f
00000340: 2d71 8f3e 1791 733f f097 483f 771e 31bf
00000350: 454f 7d3e 61f0 1f3e 69b9 683c 3f23 36bd
00000360: 55d5 efbc ebe5 a0bc e33f 8ebc 3184 48bd
00000370: aeed 75bc 4ea1 343d 3bc0 be3d 67ab 773c
00000380: 0a93 363d 55a3 d5bc 7206 08bd 3a04 f53c
00000390: 9ddd ef3c 52c8 0abd 442d 9cbc fc17 7fbc
000003a0: 75dd 5bbc 9e5f 50bd b646 e2bb 8241 dc3c
000003b0: ae1b 66bc e892 1fbd 77ee 85bd 1a9b f13d
000003c0: 0ffb debc 85c5 423d 22db 17bd 3852 41bc
000003d0: e46b abbc b48a a9bc 939c 0abd 30a3 18bd
000003e0: 8f23 9bbd 1875 17bb e783 4d3d 3449 72bc
000003f0: fd21 22bd 3828 62bd 008d 2b3d dd85 a23d

gru.bias_hh_l0 f4 [321]
-0.069460265 -0.048548292 -0.22136657 0.108439505 -0.11779415 -0.08097796 -0.24639551 -0.034813587
-0.28689802 -0.12500815 -0.11512805 -0.11897182 -0.6044672 -0.01614795 -0.14924864 -0.16323954
-0.15287761 0.03936652 -0.7348459 -0.06449973 -0.5094475 -0.159842 -0.06780991 0.036372427
-0.08200313 -0.15246093 -0.18347065 -0.024257721 -0.20434728 -0.13852192 -0.32571426 -0.1733912
-0.041838937 -0.11574509 -0.5700381 -0.42288962 -0.084904745 -0.17414126 0.021349985 0.01895875
-0.0874782 -0.4878392 0.06971832 -0.17343843 -0.25113648 -0.09402629 -0.009157211 -0.06270775
-0.058006532 -0.36633682 -0.19368784 -0.37683514 -0.14577223 -0.14083944 -0.16461432 -0.10925911
-0.1724403 -0.09841044 -0.04779043 -0.011889599 -0.24965557 -0.12277601 -0.27158773 -0.4422903
-0.117211185 -0.15514562 -0.21424869 0.024180505 -0.047147725 -0.0112564005 -0.064689994 -0.049439263
-0.04458397 -0.1216002 -0.4732585 -0.14540628 -0.15586121 -0.11198886 -0.24394555 -0.21766305
-0.19274113 0.04428286 -0.17727341 -0.008563357 0.039258458 -0.13238086 -0.228127 -0.11518513
0.041085932 0.030331451 -0.19929154 -0.45344007 -0.36740005 -0.1930449 0.035205826 -0.54743266
-0.21483776 -0.013452362 -0.053558555 -0.21038654 -0.25252858 -0.11407264 -0.35177997 -0.102481335
-0.03576267 -0.055223037 -0.27913505 0.5853707 1.2285187 0.6084042 0.18165402 0.4727514
1.2051895 0.02958926 0.8469401 0.1788239 1.0469519 0.76711977 0.6822666 0.22506239
1.0416228 0.703648 0.7666652 1.0052328 0.67993546 -0.06689273 0.63832223 1.1037816
0.46110302 0.8727832 0.005481101 0.824598 -0.051112562 0.74678254 1.1957756 0.8153853
0.7954194 0.84344685 1.1440088 0.38231844 0.3747807 -0.17367034 0.94395894 0.97206324
0.93125725 0.5385955 0.40227914 1.1379775 -0.058705404 0.41480675 0.9356491 0.75614065
0.7036062 0.86812395 1.037441 0.6791167 1.1040555 0.19364709 -0.014610116 0.7346585
0.818383 0.5300693 -0.01990782 0.6285728 -0.68539983 0.45503065 -0.03426237 0.78527397
0.7766191 0.99044794 1.0460017 0.47483945 0.92780775 0.803675 0.97058636 1.0562541
1.0420026 0.6670446 0.708712 -0.1292079 0.56429434 0.027246764 1.090739 0.720145
0.90574896 1.0548645 0.76247066 0.27737862 0.21657696 0.81546503 0.8851023 0.7102758
0.67995524 0.70672727 0.1512755 0.16727392 0.456531 0.4336981 1.0750886 0.113462515
0.94983226 0.73934305 1.0128185 1.0853531 0.8633725 0.6612364 0.17258376 0.9950687
0.19809107 1.0186465 0.82180506 -0.6412007 0.17105591 0.17678861 0.025795145 0.10880142
0.044543207 -0.03828286 -0.031593557 0.08123884 -0.07016927 -0.07802009 -0.03036785 -0.03289974
-0.029917866 0.005666902 0.033839475 -0.08374959 -0.0333792 0.012002166 0.026433561 0.045159932
-0.016098129 0.02965874 0.022701679 0.03278164 -0.024067516 0.050479036 0.031184135 -0.07083629
0.04553672 -0.044260006 0.043686166 0.04806769 -0.003644514 -0.00994959 -0.024157653 0.0027154514
0.007493542 0.022936366 -0.042035952 0.07010443 0.023936747 0.08843886 -0.028880322 -0.055678688
00000000: 2f41 8ebd 93da 46bd ebad 62be 8815 de3d
00000010: 0f3e f1bd c6d7 a5bd 1b4f 7cbe b198 0ebd
00000020: 4ce4 92be 2302 00be 41c8 ebbd 7fa7 f3bd
00000030: 5dbe 1abf b548 84bc a3d4 18be 4428 27be
00000040: f38b 1cbe ca3e 213d dc1e 3cbf 6f18 84bd
00000050: 276b 02bf 9fad 23be ecdf 8abd 41fb 143d
00000060: 42f1 a7bd b81e 1cbe bbdf 3bbe 21b8 c6bc
00000070: 6a40 51be b1d8 0dbe 05c4 a6be 768d 31be
00000080: 4e5f 2bbd c30b edbd 04ee 11bf fd84 d8be
00000090: 8ae2 adbd 1652 32be 2ae6 ae3c 614f 9b3c
000000a0: c527 b3bd 0fc6 f9be 7bc8 8e3d d899 31be
000000b0: f694 80be db90 c0bd 2008 16bc ec6c 80bd
000000c0: 4298 6dbd 8090 bbbe 1b56 46be 89f0 c0be
000000d0: 5145 15be 3738 10be a890 28be 3ec3 dfbd
000000e0: 3194 30be 6a8b c9bd e6bf 43bd 98cc 42bc
000000f0: b6a5 7fbe fd71 fbbd 8c0d 8bbe e073 e2be
00000100: 6b0c f0bd 7ede 1ebe 0264 5bbe 3216 c63c
00000110: f91d 41bd c46c 38bc 307c 84bd d380 4abd
00000120: ae9d 36bd 8709 f9bd f04e f2be 62e5 14be
00000130: 159a 1fbe 6a5a e5bd ddcc 79be 10e3 5ebe
00000140: ee5d 45be f261 353d 2987 35be 534d 0cbc
00000150: 7acd 203d d98e 07be 209a 69be 2ee6 ebbd
00000160: b949 283d aa79 f83c 1513 4cbe 4c29 e8be
00000170: dc1b bcbe 90ad 45be fc33 103d 8c24 0cbf
00000180: 6efe 5bbe 4c67 5cbc 3760 5bbd 926f 57be
00000190: 6d4b 81be eb9e e9bd 811c b4be bce1 d1bd
000001a0: e17b 12bd 8d31 62bd caea 8ebe dbda 153f
000001b0: 1a40 9d3f 61c0 1b3f 8303 3a3e 790c f23e
000001c0: a643 9a3f 2d65 f23c 11d1 583f 9d1d 373e
000001d0: 8502 863f f661 443f 06a9 2e3f c176 663e
000001e0: e553 853f 4622 343f 2c44 443f 78ab 803f
000001f0: 4010 2e3f 0eff 88bd 1669 233f b748 8d3f
00000200: b215 ec3e b86e 5f3f cf9a b33b db18 533f
00000210: 685b 51bd 242d 3f3f 2d0f 993f 17bd 503f
00000220: 9ba0 4b3f 22ec 573f e16e 923f 3ebf c33e
00000230: 42e3 bf3e a3d6 31be 4ba7 713f 23d9 783f
00000240: e066 6e3f 65e1 093f 88f7 cd3e 3fa9 913f
00000250: 1475 70bd 8d61 d43e b386 6f3f 6f92 413f
00000260: 891f 343f 5f3d 5e3f deca 843f 98da 2d3f
00000270: b151 8d3f 6c4b 463e 455f 6fbc 9412 3c3f
00000280: 8c81 513f 9fb2 073f b915 a3bc 26ea 203f
00000290: 5d76 2fbf c7f9 e83e b356 0cbd b707 493f
000002a0: 82d0 463f ff8d 7d3f 62e3 853f 281e f33e
000002b0: cf84 6d3f a5bd 4d3f 5978 783f 5633 873f
000002c0: 5760 853f 6fc3 2a3f 266e 353f 134f 04be
000002d0: 9875 103f 9b34 df3c 569d 8b3f 6c5b 383f
000002e0: 2adf 673f cd05 873f 4731 433f 9204 8e3e
000002f0: 5ac6 5d3e 51c2 503f 1096 623f a3d4 353f
00000300: 8c11 2e3f 14ec 343f f7e7 1a3e db49 2b3e
00000310: 6ebe e93e ad0d de3e 819c 893f 095f e83d
00000320: 3528 733f 9645 3d3f 09a4 813f daec 8a3f
00000330: fb05 5d3f ca46 293f ccb9 303e d3bc 7e3f
00000340: 63d8 4a3e 0263 823f d161 523f bb25 24bf
00000350: 4829 2f3e 1308 353e 5750 d33c 47d3 de3d
00000360: f072 363d 7dce 1cbd 3f68 01bd 8d60 a63d
00000370: e8b4 8fbd ffc8 9fbd ffc5 f8bc e1c1 06bd
00000380: 5016 f5bc 6bb1 b93b 439b 0a3d e884 abbd
00000390: a1b8 08bd bca4 443c 328b d83c 9ff9 383d
000003a0: 39e0 83bc e3f6 f23c dff8 b93c 0a46 063d
000003b0: 3d29 c5bc 1bc3 4e3d df75 ff3c 9e12 91bd
000003c0: b684 3a3d fb49 35bd 44f0 323d a0e2 443d
000003d0: ccd8 6ebb 9b03 23bc 45e6 c5bc b7f5 313b
000003e0: 638c f53b 0ce5 bb3c e42d 2cbd e992 8f3d
000003f0: ff16 c43c 6f1f b53d 6d96 ecbc 560f 64bd

gru.weight_ih_l0_reverse f4 [321, 1]
-0.068749405 -0.38365433 -0.28532112 -0.35797587 0.04122111 -0.06210253 -0.09682806 -0.09200742
-0.13385965 0.31270373 -0.08264121 -0.31948856 0.050796386 -0.21071033 -0.25975823 0.033454485
-0.05306119 -0.32192206 -0.1708594 0.28690493 -0.04803658 -0.082173236 -0.19041237 -0.49166507
-0.33163458 -0.12871623 -0.09472497 -0.35215724 -0.401175 -0.5067752 -0.20926493 -0.30825394
-0.2193922 -0.03891881 -1.2260705 0.023943871 0.07024273 -0.31291062 -0.12129791 0.012756597
-0.064586446 -0.9113494 0.026585864 0.055278067 -0.4045151 -0.06907068 -0.0567703 -0.06257266
-0.38058856 -0.07327628 -1.2243342 -0.3767203 -0.064425774 -0.037539568 -0.5105563 -0.30319944
0.118599094 0.18052079 -0.089382604 0.8402384 -0.039247278 -0.302887 -0.4044092 0.18497704
-0.941902 0.089579575 -0.09972158 -0.27082774 0.19492084 0.002678105 -1.1328584 -0.8245841
0.070404544 -0.35376245 -0.35282362 0.02244351 -0.21340334 -0.19392665 -0.56558985 0.20143391
-0.123360515 0.05588547 0.2650159 0.06849837 0.19526973 -0.29118508 -0.64026606 -0.94844526
0.06395585 0.28374344 -1.0256866 -0.15182194 0.031015439 -0.23900019 0.029550474 -0.047863074
0.00070923596 -0.24795346 -0.25455466 -0.57243997 -0.05255154 0.21570541 -0.03013476 0.0277258
0.07178551 -0.21625943 -0.7879439 -1.2707746 0.13072726 -0.6095216 0.08925603 -0.99825674
0.76639766 -0.68963087 -1.0012097 -0.9480887 0.7486784 -0.40923598 -0.30278942 -0.41591907
0.9806892 -0.2934546 -0.23343958 -0.27763152 -0.32174918 -0.5843798 -0.80273616 0.43524626
-0.31953296 -0.123432994 -0.13113797 -0.6000003 -0.028864067 0.2828309 0.6832952 -0.05305274
-1.2656717 -0.037876632 0.69979167 -0.15341121 -0.33433285 -0.6730961 -0.040315535 -0.09960275
-0.75898755 1.0364895 0.47519994 0.7201941 -0.2709279 0.13245034 0.06123906 -0.77357405
0.19241843 0.71032774 0.51538044 0.91367644 -0.28896308 -0.9670262 -0.3688947 0.6941578
-0.20202397 -0.40932295 -0.6951949 -0.061054986 -0.48199448 -0.07631394 -1.6461395 -0.3420584
0.15740219 0.4099282 0.8059704 0.39109114 0.692242 -0.27717903 0.9042676 -0.76451695
-0.6616456 -0.115866005 0.40826395 0.6074307 0.10188592 0.19918525 0.5255553 -0.31706345
0.6463895 -0.71830267 -0.45008636 0.64773256 -0.6335028 -1.1059896 -0.6911141 -1.1338351
-0.64745563 0.16103303 -0.7734278 0.34497505 -1.2292321 -0.69080484 -0.08927876 -0.9339958
0.657148 -0.444373 0.78852856 -0.029547324 0.06722613 0.7785195 -0.6886017 0.31210205
-1.0040884 -0.38143572 -0.8089165 0.088081144 -0.14845218 -0.41785002 0.17753936 -0.2638999
0.15864973 -0.31270832 -0.033835784 -0.024274465 0.41719663 -0.3018582 -0.3519764 0.1840031
-0.26079357 -0.40955514 0.36710137 -0.08122767 -0.20724684 0.179101 0.19420414 0.3292783
-0.35714215 0.3141996 -0.09497683 -0.23051204 0.30769858 -0.22853443 0.3285966 -0.25643253
0.11900425 -0.017842604 0.25924203 -0.401042 -0.20611136 0.028888093 0.08492504 0.18242323
0.44086096 -0.21361049 -0.028367408 -0.34155476 0.13865905 0.09143352 0.10239055 -0.36627325
00000000: 7dcc 8cbd 576e c4be 9c15 92be 9d48 b7be
00000010: 77d7 283d 395f 7ebd ca4d c6bd 636e bcbd
00000020: 8112 09be b41a a03e cb3f a9bd 0194 a3be
00000030: df0f 503d 73c4 57be 08ff 84be 9207 093d
00000040: b156 59bd f8d2 a4be c4f5 2ebe 34e5 923e
00000050: 01c2 44bd 714a a8bd 76fb 42be 86bb fbbe
00000060: 02cc a9be 30ce 03be 2aff c1bd f44d b4be
00000070: cf66 cdbe 05bc 01bf 8c49 56be 76d3 9dbe
00000080: 59a8 60be 5569 1fbd e1ef 9cbf f025 c43c
00000090: 6cdb 8f3d d235 a0be 0a6b f8bd 0c01 513c
000000a0: e645 84bd 324e 69bf 99ca d93c 416b 623d
000000b0: 9a1c cfbe ee74 8dbd f987 68bd 1826 80bd
000000c0: 81dc c2be e011 96bd fcb6 9cbf 7ce1 c0be
000000d0: a9f1 83bd 17c3 19bd d1b3 02bf f53c 9bbe
000000e0: 15e4 f23d 71da 383e 3a0e b7bd dd19 573f
000000f0: c1c1 20bd 0114 9bbe b90e cfbe 9f6a 3d3e
00000100: 7d20 71bf 7f75 b73d d43a ccbd efa9 8abe
00000110: 5499 473e 2583 2f3b 8101 91bf f217 53bf
00000120: 4230 903d 5a20 b5be 4ca5 b4be 74db b73c
00000130: 6886 5abe b594 46be 7fca 10bf b144 4e3e
00000140: 70a4 fcbd 2ae8 643d 2ab0 873e e048 8c3d
00000150: caf4 473e 3616 95be 7ae8 23bf 4fcd 72bf
00000160: 49fb 823d d246 913e b349 83bf 3677 1bbe
00000170: 1714 fe3c 77bc 74be d613 f23c 120c 44bd
00000180: 05ec 393a 83e7 7dbe fd54 82be 6d8b 12bf
00000190: 4940 57bd e1e1 5c3e 2cdd f6bc 3821 e33c
000001a0: 4804 933d 1d73 5dbe b1b6 49bf bea8 a2bf
000001b0: 5edd 053e 9c09 1cbf decb b63d c18d 7fbf
000001c0: a332 443f a68b 30bf a427 80bf f1b5 72bf
000001d0: 63a9 3f3f 6187 d1be 3707 9bbe 58f3 d4be
000001e0: 730e 7b3f ae3f 96be c90a 6fbe b825 8ebe
000001f0: 4fbc a4be ea99 15bf 1e80 4dbf 99d8 de3e
00000200: d399 a3be 70ca fcbd 0849 06be 9f99 19bf
00000210: 5674 ecbc 36cf 903e 6fec 2e3f d44d 59bd
00000220: 8801 a2bf 8724 1bbd 8c25 333f d417 1dbe
00000230: ad2d abbe 0750 2cbf e721 25bd 87fc cbbd
00000240: 024d 42bf b0ab 843f 684d f33e a45e 383f
00000250: 10b7 8abe 10a1 073e cfd5 7a3d f308 46bf
00000260: 5609 453e 0ad8 353f f9ef 033f b3e6 693f
00000270: f8f2 93be 078f 77bf c4df bcbe 53b4 313f
00000280: 5fdf 4ebe c792 d1be 4bf8 31bf cb14 7abd
00000290: fbc7 f6be 7c4a 9cbd b3b4 d2bf 4722 afbe
000002a0: 0a2e 213e 1ce2 d13e 1354 4e3f 193d c83e
000002b0: c636 313f 69ea 8dbe 157e 673f 62b7 43bf
000002c0: 9b61 29bf 284b edbd f907 d13e 9480 1b3f
000002d0: 91a9 d03d 38f7 4b3e cb8a 063f 2456 a2be
000002e0: c879 253f afe2 37bf b871 e6be cdd1 253f
000002f0: 3d2d 22bf 1191 8dbf dbec 30bf 8221 91bf
00000300: a7bf 25bf d8e5 243e 5dff 45bf 92a0 b03e
00000310: 7a57 9dbf 96d8 30bf c8d7 b6bd 591a 6fbf
00000320: da3a 283f dc84 e3be 02dd 493f 3b0d f2bc
00000330: daad 893d 0e4d 473f 3348 30bf d7cb 9f3e
00000340: f885 80bf 8b4b c3be 2715 4fbf e363 b43d
00000350: d903 18be 70f0 d5be e1cc 353e e31d 87be
00000360: 1375 223e 4e1b a0be 6497 0abd 3edb c6bc
00000370: cc9a d53e 288d 9abe 4036 b4be 4f6b 3c3e
00000380: bc86 85be 36b1 d1be b6f4 bb3e b15a a6bd
00000390: 8438 54be 4166 373e 73dd 463e 2a97 a83e
000003a0: 56db b6be c5de a03e 3683 c2bd 590b 6cbe
000003b0: ab8a 9d3e ee04 6abe d03d a83e 204b 83be
000003c0: 80b8 f33d a72a 92bc 5fbb 843e 6155 cdbe
000003d0: db0e 53be b9a6 ec3c 2eed ad3d 28cd 3a3e
000003e0: 87b8 e13e b5bc 5abe c462 e8bc 44e0 aebe
000003f0: a3fc 0d3e 7f41 bb3d 23b2 d13d 2b88 bbbe

gru.weight_hh_l0_reverse f4 [321, 107]
-0.5270676 -0.2025594 0.14178182 -0.6205019 0.12605445 -0.103400804 0.25785643 0.08339308
-0.12614523 0.30237198 -0.3306751 0.28622967 0.34591073 -0.006583615 -0.32909933 -0.30083704
0.056080326 0.04284215 -0.33115697 -0.14644472 0.27104935 -0.062201228 -0.33324155 -0.7133701
0.2686774 -0.5037888 -0.12221696 -0.19956304 0.19946133 0.06762648 0.10641036 0.07371365
0.35959518 0.11410584 0.41044322 0.20241717 0.24270831 -0.29785907 0.3406641 0.06970224
-0.07319309 -0.4280362 0.10484802 -0.19719347 -0.11979498 0.0047575687 0.232364 0.0041670976
-0.17028941 0.36956307 0.3302412 -0.5227888 -0.25239685 -0.052055843 -0.24910587 -0.15993522
-0.20983765 -0.26297286 -0.44531637 0.20701998 -0.09035154 -0.1960495 -0.19163106 0.023029594
0.055244993 0.102989696 -0.48072684 -0.3006027 0.3848508 0.05492014 0.2840707 -0.1816863
-0.33437723 0.4445911 0.5128119 -0.17794837 -0.5426834 -0.036936153 -0.29590067 -0.062668234
0.33248654 -0.18491821 -0.09784817 -0.10334431 -0.15138748 -0.26232257 -0.12374241 0.11267126
-0.099582374 0.3689204 0.5342125 -0.27940667 0.049240936 -0.016850287 -0.07076456 -0.0711827
-0.2887935 -0.06335868 0.13289495 -0.21468727 0.17914395 -0.07824724 -0.30915445 -0.003425339
0.6707144 -0.22504684 -0.36235306 -0.123188116 -0.13171552 -0.25478846 -0.0079403315 0.017727237
0.06088697 -0.032553777 -0.10423644 0.0008017214 0.07149708 0.06294367 0.2691534 -0.003211462
0.045161713 0.019286966 -0.01777192 0.12702462 -0.016449628 0.024524296 0.1552186 0.046470463
-0.07266517 -0.058333892 0.00017827206 -0.09125906 -0.12125745 -0.08687458 0.0034953298 -0.16592023
0.17096275 -0.03550895 0.021079328 0.06293644 0.22510134 0.019574065 0.05765555 -0.017905602
0.12440693 0.089561336 0.07471295 -0.13245967 0.05948879 -0.05647573 0.082638174 0.10630212
-0.013073377 0.07767371 -0.011817031 0.05733822 -0.04791416 0.073089376 -0.05151648 -0.0696152
-0.15868023 -0.05210429 0.068958595 -0.072369024 0.09629619 -0.057804786 -0.053165782 -0.04236631
-0.12720275 -0.13103907 0.077749826 0.327456 0.0674617 -0.1561056 -0.03613425 -0.014506805
-0.060194552 -0.2798317 0.34685922 -0.21469617 0.067799784 0.26476616 -0.06918517 -0.15426004
-0.20423794 0.11385588 0.14240839 0.113786295 -0.13974257 0.12552123 -0.02428065 -0.06282908
0.014915449 0.19547758 -0.09859083 0.2247248 0.08849094 0.041601773 0.17182778 0.10193461
0.0074961926 -0.042520363 0.11748749 -0.09018449 -0.11297408 0.050143164 -0.0031621237 -0.074838966
0.14144626 0.06445791 0.036278397 0.45896685 -0.022729764 -0.078753896 -0.3241814 0.112580776
-0.23390774 -0.07348038 0.25813347 -0.06051871 -0.16903089 0.2771974 0.08357178 -0.11209598
0.15104826 0.1738731 0.021977423 0.08560057 0.018032774 -0.082917504 -0.19258013 -0.016038248
0.17797044 -0.07790508 0.2008684 0.106139176 0.03305851 0.019303482 -0.06915101 0.07926258
-0.110045 -0.088464245 -0.015742997 0.27798295 0.0043486413 -0.06401148 0.0021158257 -0.1304188
-0.02716671 -0.013023458 0.01721849 0.012001878 -0.13009252 0.0894589 -0.06481599 0.09380818
00000000: e7ed 06bf bb6b 4fbe 412f 113e 36d9 1ebf
00000010: 6b14 013e cdc3 d3bd c205 843e fec9 aa3d
00000020: 372c 01be 80d0 9a3e 3f4e a9be b28c 923e
00000030: 361b b13e 5ebb d7bb b57f a8be 5007 9abe
00000040: 7cb4 653d 407b 2f3d 688d a9be 9bf5 15be
00000050: fbc6 8a3e b7c6 7ebd a39e aabe 6c9f 36bf
00000060: 1690 893e 4ef8 00bf e34c fabd 415a 4cbe
00000070: 973f 4c3e c07f 8a3d aded d93d 2ff7 963d
00000080: dc1c b83e 53b0 e93d 9d25 d23e 7246 4f3e
00000090: 8788 783e fc80 98be 866b ae3e 0cc0 8e3d
000000a0: 42e6 95bd 9027 dbbe 8fba d63d 16ed 49be
000000b0: 1257 f5bd 61e5 9b3b d4f0 6d3e 268c 883b
000000c0: 5960 2ebe 5f37 bd3e 6015 a93e 7dd5 05bf
000000d0: 293a 81be 8238 55bd 9c15 7fbe 0fc6 23be
000000e0: aedf 56be 61a4 86be 8200 e4be 0cfd 533e
000000f0: 3a0a b9bd 33c1 48be ef3a 44be 8fa8 bc3c
00000100: 9348 623d 43ec d23d d421 f6be 99e8 99be
00000110: 2a0b c53e f1f3 603d b771 913e f90b 3abe
00000120: 7e33 abbe 72a1 e33e a447 033f 1938 36be
00000130: 4ded 0abf 5d4a 17bd 4b80 97be 3458 80bd
00000140: ad3b aa3e 335b 3dbe 9f64 c8bd 2ea6 d3bd
00000150: 5205 1bbe 254f 86be a96c fdbd 31c0 e63d
00000160: d8f1 cbbd 22e3 bc3e 27c2 083f 640e 8fbe
00000170: ddb0 493d 9d09 8abc 02ed 90bd 3cc8 91bd
00000180: bedc 93be 32c2 81bd 9d15 083e fbd6 5bbe
00000190: 8371 373e 1740 a0bd 7e49 9ebe a77b 60bb
000001a0: f0b3 2b3f ae72 66be 5786 b9be 0d4a fcbd
000001b0: 6fe0 06be a273 82be 2a18 02bc b638 913c
000001c0: 9e64 793d 1c57 05bd ea79 d5bd 9d2a 523a
000001d0: 106d 923d 9ce8 803d 79ce 893e 6477 52bb
000001e0: 7dfb 383d b3ff 9d3c 6b96 91bc be12 023e
000001f0: 5fc1 86bc 2de7 c83c a0f1 1e3e d057 3e3d
00000200: 7ad1 94bd 85ef 6ebd 8bee 3a39 08e6 babd
00000210: d355 f8bd 4deb b1bd e711 653b fee6 29be
00000220: dc10 2f3e d571 11bd 8eae ac3c d2e4 803d
00000230: f780 663e ca59 a03c 3a28 6c3d c5ae 92bc
00000240: 0fc9 fe3d ef6b b73d 1a03 993d 82a3 07be
00000250: 84aa 733d 1853 67bd 343e a93d edb4 d93d
00000260: b831 56bc 6513 9f3d 389c 41bc 7bdb 6a3d
00000270: a341 44bd e2af 953d f202 53bd 6a92 8ebd
00000280: 127d 22be 4f6b 55bd 2a3a 8d3d 3636 94bd
00000290: f036 c53d b6c4 6cbd 5dc4 59bd 4c88 2dbd
000002a0: 7041 02be 1b2f 06be 4d3b 9f3d 50a8 a73e
000002b0: 5c29 8a3d 25da 1fbe 8201 14bd f3ad 6dbc
000002c0: 908e 76bd 1a46 8fbe 8897 b13e 50d9 5bbe
000002d0: 9dda 8a3d 6e8f 873e f4b0 8dbd 58f6 1dbe
000002e0: c023 51be 462d e93d 81d3 113e ca08 e93d
000002f0: ad18 0fbe a388 003e 37e8 c6bc 88ac 80bd
00000300: ed5f 743c 462b 483e fde9 c9bd 421e 663e
00000310: bd3a b53d 9f66 2a3d 9ff3 2f3e 18c3 d03d
00000320: 9fa2 f53b d529 2ebd 489d f03d a5b2 b8bd
00000330: f45e e7bd eb62 4d3d a23b 4fbb 2c45 99bd
00000340: 4ad7 103e 8202 843d a898 143d b4fd ea3e
00000350: c533 babc b949 a1bd 1bfb a5be c090 e63d
00000360: 8385 6fbe e27c 96bd 122a 843e 78e2 77bd
00000370: 6f16 2dbe d1ec 8d3e ae27 ab3d 9492 e5bd
00000380: 65ac 1a3e ca0b 323e ff09 b43c 5a4f af3d
00000390: 78b9 933c a7d0 a9bd ba33 45be a562 83bc
000003a0: e23d 363e b38c 9fbd 72b0 4d3e 7f5f d93d
000003b0: 5c68 073d 5622 9e3c 0b9f 8dbd 6b54 a23d
000003c0: 465f e1bd be2c b5bd 75f7 80bc c853 8e3e
000003d0: 0c7f 8e3b 7318 83bd aaa9 0a3b 828c 05be
000003e0: b88c debc 5860 55bc ca0d 8d3c 86a3 443c
000003f0: f936 05be 3a36 b73d 3fbe 84bd 811e c03d

gru.bias_ih_l0_reverse f4 [321]
-0.21724378 -0.005734415 -0.021111997 -0.810372 -0.2699081 -0.21391164 -0.5689513 0.036311712
-0.8478474 -0.1051673 -0.63936204 -0.14337991 -0.5185834 -0.21306404 -0.3050231 -0.11605648
-0.14728627 -0.17353593 -0.51833624 0.11872568 -0.033224966 -0.2174219 -0.1213597 -0.34744656
-0.71316135 -0.4453996 -0.1751464 -0.29703224 -0.16757643 0.09256368 -0.077243395 -0.3259802
-0.3445316 -0.223987 -0.5925212 -0.14316462 -0.20021783 -0.47385827 -0.42556277 -0.062496867
-0.038192898 -1.8773103 -0.10931139 -0.04707779 -0.30343705 -0.20752901 -0.06507104 -0.1298092
-0.27377617 -0.07936738 -0.71008945 -1.1801463 -0.19636232 -0.01326158 -0.36968896 -0.26868603
-0.15583652 -0.21236755 -0.18831627 0.015737137 -0.11413739 -0.032706816 -0.16787805 -0.08902873
-0.050688267 -0.0009850673 -0.26611823 -0.20531297 -0.08921025 -0.14872453 -0.04984387 -0.09222832
-0.14155214 -0.1925132 -0.2224981 -0.18821773 -0.2781059 -0.11028377 -0.036027007 -0.2115925
-0.18869048 -0.15544108 -0.15747091 0.065778196 -0.15878972 -0.5218404 -0.03343082 -0.5610829
-0.1547616 -0.647897 -0.0056251353 -0.19980875 -0.11584553 -0.31452388 -0.14633517 -0.053783808
-0.29961935 -0.12226951 -0.11507293 -0.39496464 -0.16589984 -0.022972612 -0.057049092 -0.1970533
-0.23917961 -0.16941147 -0.63326716 0.009422314 0.0061640725 0.16314635 0.077262364 0.2771649
1.2947823 -0.46520215 -0.22802545 -0.2943838 0.26683453 -0.32073343 0.3619595 -0.44613796
0.9858035 -0.13313416 0.22695127 0.20614107 -0.036250144 -0.30967116 -0.44556093 0.6932111
0.057534415 0.34158832 0.069384985 -0.2533229 -0.08261258 0.67414093 0.70475227 -0.06698791
0.714697 0.38568568 1.0789355 0.23241368 0.15988587 -0.72413546 0.39332733 0.536584
-0.32329565 0.78287154 0.6167678 1.056425 -0.50599414 0.24445778 0.4845806 -0.33539852
0.79904044 1.0729948 0.4865307 0.8879818 0.18656865 -0.57731754 -0.36144188 0.6574545
0.33651638 -0.254622 -0.2295011 0.04522851 0.1994102 0.15503292 -0.25394866 0.27691713
-0.16638768 1.0283554 0.42223656 1.2308514 0.3290708 0.09416568 0.63551414 0.21986839
-0.020389104 1.3104949 1.1945477 0.07244055 0.18688518 -0.175273 0.8651551 0.37922114
0.28303385 0.17664991 -0.11070397 0.4082996 0.037107367 0.26191202 -0.34676996 -0.42787394
-0.37405762 0.8056717 -0.5692924 0.12308293 -0.53228337 0.98771566 0.411019 -0.4000335
0.7288856 0.16754463 0.5736712 0.51988524 0.20819993 0.42752454 -0.40260717 0.3954107
-0.42469016 -0.03763493 0.44108805 0.105977766 0.024283906 -0.5720159 -0.055812918 -0.018201334
-0.06529247 0.09997793 0.034949943 -0.032304555 -0.03789527 -0.02360569 -0.022702588 -0.060276017
0.037041653 0.014098411 -0.06623808 0.009414886 0.054434124 -0.027489541 0.016061515 0.01617867
0.02853046 -0.011376663 -0.028371608 -0.01054978 -0.011260814 0.12591007 0.0060764174 0.074794926
0.022779662 0.0003898492 -0.046291456 0.025962397 -0.051931094 -0.028283289 -0.014045156 -0.030993205
0.03234529 -0.014031617 -0.0114752585 -0.012259078 -0.02736282 0.007653494 0.03827441 0.050401032
00000000: 2775 5ebe c2e7 bbbb 11f3 acbc 8a74 4fbf
00000010: 6531 8abe a70b 5bbe cba6 11bf 97bb 143d
00000020: 870c 59bf f461 d7bd 3bad 23bf 2fd2 12be
00000030: e2c1 04bf 762d 5abe fd2b 9cbe 05af edbd
00000040: 36d2 16be 67b3 31be afb1 04bf 7326 f33d
00000050: e716 08bd d9a3 5ebe 6f8b f8bd 84e4 b1be
00000060: be91 36bf 6b0b e4be 9459 33be 9c14 98be
00000070: 2899 2bbe 0792 bd3d c931 9ebd e0e6 a6be
00000080: 7266 b0be d95c 65be 78af 17bf bf99 12be
00000090: e705 4dbe 8d9d f2be 5de3 d9be b7fc 7fbd
000000a0: 2870 1cbd b44b f0bf a6de dfbd a4d4 40bd
000000b0: 1a5c 9bbe 7c82 54be f743 85bd b4ec 04be
000000c0: 642c 8cbe 5d8b a2bd 6cc8 35bf 090f 97bf
000000d0: 3413 49be 1947 59bc df47 bdbe 3791 89be
000000e0: 9c93 1fbe e176 59be fbd5 40be 2beb 803c
000000f0: ddc0 e9bd 95f7 05bd 39e8 2bbe b254 b6bd
00000100: 809e 4fbd 601d 81ba a640 88be 903d 52be
00000110: ddb3 b6bd 3e4b 18be 1629 4cbd 34e2 bcbd
00000120: 0bf3 10be 2e22 45be 8bd6 63be 26bc 40be
00000130: e663 8ebe 75dc e1bd 0e91 13bd b4ab 58be
00000140: 1438 41be f22b 1fbe 0e40 21be b8b6 863d
00000150: c699 22be 5597 05bf c1ee 08bd 21a3 0fbf
00000160: d379 1ebe 94dc 25bf 0e53 b8bb aa9a 4cbe
00000170: 6c40 edbd 4609 a1be e3d8 15be 694c 5cbd
00000180: b567 99be 7068 fabd 5bab ebbd ce38 cabe
00000190: a6e1 29be 0f31 bcbc 4fac 69bd 57c8 49be
000001a0: 80eb 74be 337a 2dbe cc1d 22bf 0d60 1a3c
000001b0: fdfb c93b d60f 273e bb3b 9e3d 8fe8 8d3e
000001c0: 6dbb a53f fa2e eebe 817f 69be 79b9 96be
000001d0: 899e 883e 2c37 a4be c152 b93e 326c e4be
000001e0: 9e5d 7c3f 5254 08be ea65 683e a516 533e
000001f0: 087b 14bd 388d 9ebe 9020 e4be 4876 313f
00000200: 35a9 6b3d aae4 ae3e b719 8e3d 8ab3 81be
00000210: c930 a9bd 8094 2c3f a56a 343f f530 89bd
00000220: 62f6 363f 9878 c53e 8f1a 8a3f dafd 6d3e
00000230: 1fb9 233e f160 39bf 3362 c93e 925d 093f
00000240: 0287 a5be 456a 483f 7fe4 1d3f ef38 873f
00000250: d588 01bf 2453 7a3e f31a f83e 5bb9 abbe
00000260: ea8d 4c3f e557 893f 8d1a f93e c652 633f
00000270: da0b 3f3e 15cb 13bf e90e b9be f04e 283f
00000280: e04b ac3e d15d 82be 5602 6bbe 8841 393d
00000290: 3032 4c3e f3c0 1e3e 8f05 82be 15c8 8d3e
000002a0: 8861 2abe 26a1 833f 642f d83e 8a8c 9d3f
000002b0: f87b a83e f0d9 c03d 0eb1 223f 2e25 613e
000002c0: 0d07 a7bc 4cbe a73f f0e6 983f b65b 943d
000002d0: d45e 3f3e c47a 33be ce7a 5d3f 4629 c23e
000002e0: d0e9 903e b7e3 343e c3b8 e2bd a50c d13e
000002f0: e5fd 173d 5519 863e d58b b1be 4b12 dbbe
00000300: 7b84 bfbe 8040 4e3f 26bd 11bf e712 fc3d
00000310: b943 08bf efda 7c3f 1571 d23e 31d1 ccbe
00000320: 3f98 3a3f d290 2b3e 1edc 123f 3317 053f
00000330: 5d32 553e 7fe4 da3e 8722 cebe 4573 ca3e
00000340: fd70 d9be 1627 1abd 4bd6 e13e df0a d93d
00000350: 0bef c63c a26f 12bf 169c 64bd f71a 95bc
00000360: 0fb8 85bd 3bc1 cc3d ac27 0f3d c851 04bd
00000370: 1238 1bbd b860 c1bc c7fa b9bc fce3 76bd
00000380: fdb8 173d 06fd 663c d5a7 87bd e540 1a3c
00000390: 51f6 5e3d bf31 e1bc 7093 833c 2189 843c
000003a0: b6b8 e93c 2f65 3abc 936b e8bc fcd8 2cbc
000003b0: 477f 38bc 92ee 003e af1c c73b 152e 993d
000003c0: 6a9c ba3c ad64 cc39 1c9c 3dbd 18af d43c
000003d0: b3b5 54bd 5bb2 e7bc a71d 66bc 76e5 fdbc
000003e0: 7f7c 043d dee4 65bc b902 3cbc 4dda 48bc
000003f0: fe27 e0bc 29ca fa3b a1c5 1c3d 5071 4e3d

gru.bias_hh_l0_reverse f4 [321]
-0.27792662 -0.020116892 -0.020155132 -0.7440509 -0.29835352 -0.060383443 -0.6777022 -0.074045
-0.7525683 -0.094883285 -0.7054442 -0.000114852824 -0.6204565 -0.13840471 -0.3285773 -0.08399872
-0.19601126 -0.1280892 -0.6655387 0.072606616 -0.016824318 -0.10062215 -0.15511245 -0.34399983
-0.77670795 -0.3193915 -0.14422385 -0.32146809 -0.21466511 -0.089873806 -0.10095772 -0.29299873
-0.32601872 -0.06900002 -0.62716657 -0.006505357 -0.17927453 -0.5030551 -0.32189146 -0.08729434
-0.12268591 -1.8633509 -0.016272021 -0.100645415 -0.22557823 -0.30408114 -0.042561296 -0.17154104
-0.42785212 0.027484931 -0.66918343 -1.0735255 -0.15209872 -0.088834174 -0.5215209 -0.34694996
-0.19657244 -0.0883213 -0.14033304 0.027750159 -0.14526384 0.072752334 -0.18268114 -0.028745221
-0.04064321 -0.10544401 -0.33746272 -0.17311859 -0.117707066 -0.14529014 -0.111353405 -0.07473794
-0.151465 -0.19775215 -0.16265568 -0.2482976 -0.1622955 -0.08954087 -0.100260556 -0.18632793
-0.13985789 -0.13679554 -0.19115035 0.0878489 -0.09474696 -0.40396175 0.013807176 -0.581568
-0.13976051 -0.7997478 -0.13804038 -0.03436197 -0.04047983 -0.25402018 -0.063053675 -0.19106351
-0.17797023 -0.19953053 -0.113393016 -0.34823075 -0.09886214 -0.06446167 -0.051049218 -0.2378483
-0.2616392 -0.04923011 -0.5576448 -0.040640768 0.011048748 0.22900978 -0.0121490415 0.35011855
1.293762 -0.5399968 -0.15669371 -0.28908157 0.33484453 -0.2740818 0.23163524 -0.4868935
0.92301285 -0.0073795193 0.24608095 0.28281906 -0.11075357 -0.2967143 -0.3707083 0.6858343
0.025160808 0.34701964 -0.09905083 -0.34874934 -0.052059367 0.74122226 0.7869155 -0.012847459
0.72064567 0.38139385 0.9428688 0.19879538 0.19158515 -0.6122117 0.35507026 0.49751502
-0.3119394 0.88138396 0.6008128 1.0785779 -0.63716155 0.30839667 0.6214364 -0.3120447
0.68199205 1.0800064 0.47794303 0.8336555 0.24154711 -0.6383662 -0.33296135 0.7054179
0.18765612 -0.28043613 -0.20748973 -0.037210107 0.17588004 0.19757093 -0.18698697 0.3177491
-0.095316835 1.069422 0.5044825 1.068165 0.2395091 0.19876215 0.49380457 0.19480467
-0.11659321 1.4754723 1.1747242 0.077366866 0.034461517 -0.1958874 0.92354816 0.36742273
0.21082938 0.18153468 -0.008968943 0.38930514 0.038018767 0.15422244 -0.32642362 -0.47881225
-0.47845456 0.6338783 -0.5499993 0.120800525 -0.4435572 1.1740409 0.30005252 -0.30747572
0.757211 0.16390783 0.73894507 0.5237362 0.14045754 0.33010694 -0.34830764 0.3358405
-0.35360172 -0.10202625 0.49033463 0.24408214 0.021126024 -0.5048789 0.03713751 0.08291737
0.04625078 -0.03555996 -0.03147304 0.08950501 0.106207766 0.10753364 -0.08871946 0.03383591
-0.09343687 0.080246896 0.1173004 0.052508898 -0.08496176 0.0035422205 -0.018024597 -0.08578862
-0.098164655 -0.035713296 0.043902658 0.04090097 -0.017550595 -0.1373725 0.05532502 -0.11764203
-0.08599735 0.05330522 0.02662866 0.10429417 0.12304048 -0.0008157067 0.011401796 0.07775998
-0.035636436 0.0658194 0.006234646 -0.010873824 -0.0046536895 -0.03830192 -0.1032785 0.0034532605
00000000: 664c 8ebe 2ecc a4bc 601c a5bc 1f7a 3ebf
00000010: cbc1 98be a154 77bd e47d 2dbf e8a4 97bd
00000020: 51a8 40bf 2b52 c2bd fe97 34bf 24dd f0b8
00000030: 3dd6 1ebf f7b9 0dbe 493b a8be 8507 acbd
00000040: 2db7 48be d129 03be bf60 2abf c7b2 943d
00000050: 27d3 89bc fc12 cebd ccd5 1ebe bf20 b0be
00000060: 55d6 46bf 4887 a3be 6baf 13be 7797 a4be
00000070: 2cd1 5bbe c20f b8bd ecc2 cebd ee03 96be
00000080: edeb a6be e24f 8dbd fd8d 20bf e42a d5bb
00000090: be93 37be 38c8 00bf f5ce a4be 60c7 b2bd
000000a0: c042 fbbd 4882 eebf e74c 85bc 2f1f cebd
000000b0: fbfd 66be 86b0 9bbe c154 2ebd 74a8 2fbe
000000c0: 6f0f dbbe 1428 e13c 9b4f 2bbf 4969 89bf
000000d0: c4bf 1bbe b1ee b5bd 6582 05bf 6da3 b1be
000000e0: 494a 49be cce1 b4bd 77b3 0fbe 4d54 e33c
000000f0: 0bc0 14be 2dff 943d c410 3bbe 197b ebbc
00000100: 7f79 26bd 07f3 d7bd eac7 acbe 0046 31be
00000110: 6710 f1bd f0c6 14be 410d e4bd 3510 99bd
00000120: a419 1bbe 8a7f 4abe 368f 26be ba41 7ebe
00000130: cb30 26be 3461 b7bd 6855 cdbd c0cc 3ebe
00000140: e836 0fbe 2114 0cbe ebbc 43be 20ea b33d
00000150: b20a c2bd 13d4 cebe 7e37 623c a4e1 14bf
00000160: 611d 0fbe 46bc 4cbf 755a 0dbe 23bf 0cbd
00000170: 2ece 25bd ef0e 82be 4922 81bd 27a6 43be
00000180: d43d 36be bb51 4cbe 993a e8bd 4d4b b2be
00000190: 3c78 cabd 7b04 84bd fc18 51bd 818e 73be
000001a0: 93f5 85be 83a5 49bd cfc1 0ebf ef76 26bd
000001b0: cf05 353c 8a81 6a3e c60c 47bc bd42 b33e
000001c0: fe99 a53f 3b3d 0abf 5174 20be 8002 94be
000001d0: be70 ab3e 7354 8cbe ca31 6d3e 1b4a f9be
000001e0: 924a 6c3f e5cf f1bb a5fc 7b3e a9cd 903e
000001f0: c5d2 e2bd f0ea 97be 7acd bdbe d692 2f3f
00000200: 0a1e ce3c 8fac b13e 29db cabd 468f b2be
00000210: 343c 55bd bec0 3d3f 4b73 493f 267e 52bc
00000220: 3c7c 383f 0e46 c33e da5f 713f 0491 4b3e
00000230: e62e 443e e8b9 1cbf c5cb b53e 4aba fe3e
00000240: 85b6 9fbe 61a2 613f dece 193f d70e 8a3f
00000250: 051d 23bf 2be6 9d3e 7516 1f3f 53c4 9fbe
00000260: 0897 2e3f a63d 8a3f f3b4 f43e 726a 553f
00000270: 2058 773e f86b 23bf e979 aabe 4496 343f
00000280: ed28 403e 5395 8fbe 3078 54be a069 18bd
00000290: e619 343e 0950 4a3e 8379 3fbe 03b0 a23e
000002a0: 7935 c3bd d2e2 883f c425 013f a1b9 883f
000002b0: e041 753e 4e88 4b3e f4d3 fc3e e07a 473e
000002c0: 6cc8 eebd 47dc bc3f 5d5d 963f 8572 9e3d
000002d0: 8527 0d3d b596 48be a76d 6c3f d51e bc3e
000002e0: a8e3 573e 3ae4 393e 79f2 12bc 0153 c73e
000002f0: 91b9 1b3d 7dec 1d3e ff20 a7be e126 f5be
00000300: fff7 f4be d945 223f c1cc 0cbf 4466 f73d
00000310: ee19 e3be f946 963f 7ca0 993e 756d 9dbe
00000320: 95d8 413f 74d7 273e 812b 3d3f 9313 063f
00000330: 1ad4 0f3e c703 a93e 6155 b2be 49f3 ab3e
00000340: 490b b5be 23f3 d0bd 240d fb3e abf0 793e
00000350: 7c10 ad3c be3f 01bf 801d 183d 95d0 a93d
00000360: 7571 3d3d 52a7 11bd e0e9 00bd 674e b73d
00000370: 7583 d93d 993a dc3d 8cb2 b5bd 8697 0a3d
00000380: d45b bfbd 7c58 a43d 313b f03d 9213 573d
00000390: 6e00 aebd 9924 683b 52a8 93bc f2b1 afbd
000003a0: 8d0a c9bd 1b48 12bd 46d3 333d c787 273d
000003b0: 44c6 8fbc 60ab 0cbe 7d9c 623d 4eee f0bd
000003c0: 611f b0bd 9356 5a3d 5924 da3c 2f98 d53d
000003d0: a6fc fb3d 26d5 55ba 99ce 3a3c a040 9f3d
000003e0: 83f7 11bd 52cc 863d 004c cc3b 2028 32bc
000003f0: fa7d 98bb 79e2 1cbd ae83 d3bd 1950 623b
