covid_forecasting/daily/best_models/bilstmanfis_daily.pth (torch, 8435 bytes, 12 tensors)

memberships.0.mu f4 [7]
00000000: 6af2 d7ba 049b e53e 26db 163f 4556 543f
00000010: 74a0 8d3f 8415 a33f 0800 c03f
-0.0016475443 0.4484483 0.58928144 0.82944137 1.1064591 1.2740941 1.500001

memberships.0.sigma f4 [7]
00000000: 9bc3 463f aef8 2a3f 00dd 513f d695 4fbc
00000010: 73a1 53bc d1f4 eb3e f105 a83d
0.7764222 0.66785705 0.81977844 -0.012670001 -0.01291691 0.46085218 0.08204258

consequents.linear.weight f4 [7, 1]
00000000: 2bd7 943f 6a0a 053f cfc3 d03e 9675 abbf
00000010: 2d6b b2bf 5ea3 113f dc47 74bf
1.1628164 0.51969016 0.4077439 -1.3395259 -1.3938957 0.56889904 -0.9542215

consequents.linear.bias f4 [7]
00000000: 5a30 d1be 9278 2d3f 432c aa3b 729a c23e
00000010: 292c a43d fc76 173f f334 3f3e
-0.40857202 0.677621 0.0051932647 0.38008457 0.080162354 0.5916593 0.18672542

recurrent.weight_ih_l0 f4 [28, 7]
00000000: f5d2 943f f87f 44be 7b49 eabe 7ff2 ef3d
00000010: 341b 693f 0076 5dbf d76b 27bd d5ad 8abf
00000020: bb71 b83f 2238 f13f 13cc 273f 30b6 45bf
00000030: 2677 863f ca3d 2ebf 0911 f8be 2b77 3f3e
00000040: 39e7 12bf 8c46 23bf 0ac9 7bbf 1886 7f3e
00000050: 001d d3be 2f0f 37be 5a6b 3dbf 3fe6 a4be
00000060: 1be1 bebe b9f3 b43d 8e2b 41bf 2371 9d3c
00000070: dd5a 9bbe 6ac4 6bbf c734 213c d193 71be
00000080: 2c8f 5b3e b696 c6be 474b 783e 3bdb 723d
00000090: 1168 33bf 010e 6bbf 55b4 4e3e 29ac 3a3f
000000a0: 39c6 70bf 250b 323f eaa9 2d3e 1a04 0fbe
000000b0: 654c d4be 9240 8bbd 7c15 983c dfbd 1b3e
000000c0: fced b33b 99eb 693f bad9 7cbf 586a 23bf
000000d0: c2d9 28bf d5ec e53e ec46 46bf 1439 153e
000000e0: 88a9 863e c49b 1a3f 83dd 893f 25d8 7fbc
000000f0: ccff c2bd f570 033e 552e 15be 74c5 7cbf
00000100: c54f 6ebd aea7 1ebf 68a0 ad3b d272 eebe
00000110: 3788 c83e b241 ae3c 4424 32bd 0456 4cbe
00000120: ffbc 8cbe f326 fc3d c7cf 42be 7229 82be
00000130: 67a5 47be 0f4d c53e e60e 13bf b7d1 db3d
00000140: a818 313e 9696 ec3e 0da3 c9bd 4466 8f3e
00000150: 0156 803e 4bc9 f3be 856f 913d cc32 dd3e
00000160: 6995 a53e 1c8a 48bd 095e f83e a3d4 893d
00000170: a144 06bf f00e 45bf f4c0 533e 0221 593d
00000180: 97fd 58bd 1801 963e 77ea 39bf 270f 10bf
00000190: 8aa0 ef3a 3d35 42bf 2ecf 3abd fc39 f2be
000001a0: 7d8d 8f3e 21be b73e 6463 b7bf 4db2 9dbf
000001b0: f547 00c0 0425 1ebf f46e f9be cb00 2abe
000001c0: 2234 c2be d4e3 583e 5f13 a6bd 5ee3 d1be
000001d0: 710f 0ebf eac7 1a3f ad4f c4be 671e b8be
000001e0: 5c8a 57bd 60eb acbe f083 7abe bad6 0e3d
000001f0: bb26 213e af90 a0be 694c b33d fcb3 36bd
00000200: 2be9 6cbe 5dd6 963d 6c10 e93d 6676 903e
00000210: c477 a73d 8b4c aa3e 5e0f a83d e2f6 9d3e
00000220: 97c0 10bc 595a 973d 3698 2dbd 03d9 10be
00000230: 94fc c4be b49e 0e3e c5fb cfbd 4144 bc3d
00000240: 489d 59be 3eb2 203e 134c babe 0472 ca3f
00000250: f7f7 31bf 2245 99be 703d 1ebd 8b73 7d3f
00000260: 2348 67bf c5d6 fd3e a874 a5be de03 3e3f
00000270: 8f70 dd3f 615d 9c3f 1a6c 9dbe cd18 f63e
00000280: a6ef d3bd d38e cb3e afd9 9bbe f5a5 11bf
00000290: 5914 abbf d6bb 9dbf e9e2 113f 32c6 61bf
000002a0: f522 753d 00f1 8fbe f494 b2be 97dd a3be
000002b0: ca37 783e 68e4 14be 104e 35bd 3fc1 fb3d
000002c0: 8e17 7ebf 060c b2be 1a4c ce3d 54ca 773e
000002d0: 6d58 21bf 7b33 0f3e 8e68 e8bd 43ce 8ebf
000002e0: 752f 83bf cac8 423f f9d7 b23e cf2a 94bf
000002f0: 19c5 4a3e 5bcc 863b 8a36 0ebf 727f 3bbf
00000300: c25e 02bf 694d 16be 491a a4be 59db 9a3e
1.1626879 -0.19189441 -0.45759186 0.11716174 0.91057134 -0.8650818 -0.04087433 -1.0834299
1.4409708 1.8845255 0.6554577 -0.7723112 1.0505111 -0.6806303 -0.48450497 0.18697803
-0.5738407 -0.6377952 -0.98353636 0.24953496 -0.41233063 -0.17876886 -0.7399193 -0.32206914
-0.37281117 0.08835549 -0.75457084 0.019218987 -0.3034276 -0.9209658 0.009839243 -0.23591544
0.21441334 -0.38786858 0.24247466 0.059291106 -0.7008067 -0.91818243 0.20185979 0.72918946
-0.94052464 0.69548255 0.16959348 -0.13966408 -0.41464534 -0.06799425 0.018564932 0.15209149
0.0054910164 0.9137512 -0.98769724 -0.6383414 -0.6595727 0.4490725 -0.7745197 0.14572555
0.26301217 0.6039393 1.0770725 -0.015615498 -0.09521446 0.12836058 -0.14568456 -0.9873879
-0.058181543 -0.6197461 0.005298663 -0.46571976 0.39166424 0.02127156 -0.043491617 -0.19954687
-0.27487943 0.123121165 -0.19024573 -0.25422245 -0.1949669 0.38535354 -0.5744461 0.10733359
0.17294562 0.46208638 -0.098455526 0.2800771 0.25065616 -0.47614512 0.07101349 0.43202817
0.32340553 -0.048959836 0.48509243 0.0673001 -0.5244847 -0.7697592 0.20679075 0.053009994
-0.052976217 0.2929771 -0.7262339 -0.5627312 0.0018282097 -0.75862485 -0.04560774 -0.47309864
0.28037634 0.35887244 -1.4327207 -1.2320038 -2.004392 -0.6177523 -0.48717463 -0.16601865
-0.379304 0.2118066 -0.081091635 -0.4099378 -0.5549231 0.60461295 -0.38342038 -0.35960695
-0.052622184 -0.33773327 -0.24464393 0.034872748 0.15737431 -0.31360385 0.087548085 -0.04460524
-0.23135822 0.07365105 0.11380085 0.2821533 0.0817714 0.33261523 0.08206056 0.3085242
-0.0088349795 0.07390279 -0.042381488 -0.14145283 -0.38473952 0.13927728 -0.10155443 0.09192706
-0.21251404 0.15692994 -0.36386165 1.5816045 -0.6951899 -0.29935557 -0.03863281 0.9900443
-0.90344447 0.4957792 -0.32315564 0.7422465 1.7299975 1.2215997 -0.30746537 0.48065796
-0.10348444 0.39757404 -0.30439517 -0.56893855 -1.3365585 -1.2322948 0.5698686 -0.8819305
0.05984779 -0.28113556 -0.34879267 -0.32004997 0.24240032 -0.14540255 -0.0442639 0.12292718
-0.9925469 -0.34774798 0.10073109 0.24198276 -0.6302555 0.13984482 -0.11348067 -1.1156696
-1.0248858 0.7608763 0.349304 -1.1575564 0.1980175 0.0041137165 -0.5555197 -0.7324134
-0.5092584 -0.14677967 -0.32051304 0.30245474

recurrent.weight_hh_l0 f4 [28, 7]
00000000: ef97 333f 5e42 c63f 960c 5fbf ac77 bd3d
00000010: c2ab 32bf 9df6 d9be 33e4 debe d3be 093d
00000020: 0193 efbe bec1 9f3e 3db5 76bb 5003 e23d
00000030: 8f2d 953e 8d83 323e 87cc 05bf 2d1e cdbf
00000040: 5f8b 2e3f e817 023f 39e7 3c3e 1b27 753e
00000050: 4dfc 783f 699e c3be 530c 223f f27b 95be
00000060: d954 8fbd 6b48 a33c 79f1 6fbd b1f9 91be
00000070: a2f7 91be ab6e 8c3f fc59 c3be 57cb 46be
00000080: 0175 b83e e6d6 12be 89ec f5bd eff5 c53e
00000090: d16b 4e3f dc29 1ebf c6c6 01bf 2af0 42be
000000a0: c449 94be 6602 413c 43ea 93be a87e 343f
000000b0: 09c7 7cbf b95c b1be a4a1 29be 16d1 c9bc
000000c0: 536b 3ebe 518f f93e 655e 843f 0c33 dcbe
000000d0: 65e1 edbe 29e2 e5be b7cc 163d 0bf0 da3d
000000e0: 6cd7 ea3e 5796 6bbf 292d 813f 27a0 c13e
000000f0: 714f 77be dfd4 fe3c 5983 043f 93b1 30be
00000100: e02f 81bf 7140 003f 67df f9bc 4910 65bd
00000110: a3f9 b3be a39c 503e 0d11 eabe 2202 463e
00000120: 401d cfbe 613e 333e 4600 b73d 44b2 28bd
00000130: c2d5 783e a317 ac3d 0937 0b3d d53c 49be
00000140: c3cc 01be 1af9 63bd b12c 933e c0b2 febd
00000150: ded0 89bd 93b5 2f3e 1120 bfbe 58af 5f3d
00000160: 68c3 b1be d71f d63d 5897 a2be e071 3d3e
00000170: 7cfa 2b3e 4f82 90be bfa5 8abe dcb7 40bd
00000180: 27e4 96be 1b01 993e af82 25bf 3b8b 89bd
00000190: bbbe 543d 4007 0f3f 31a9 c73e bfd6 ab3e
000001a0: 13b5 7f3e 4272 013f f7fb 753f 2aa1 a4bf
000001b0: 61ff f8be 52e8 d13e 4dab 83bd 4b8b 42bf
000001c0: a46b b5be 9a84 b8bf f2c4 5d3f fd96 a7bd
000001d0: 937b 473e 63bd c0be 1544 f93e 23f6 aabe
000001e0: edc5 b73d 4843 02be 072a 983e a15f fd3d
000001f0: e3dd 7cbd b0d5 ae3e 55a2 b4be afca 983e
00000200: 7ad0 7d3b 2626 8c3e 806c 663d a8a6 37be
00000210: 5371 c1bd 444e 85be 3035 7eba 1cc3 24be
00000220: a3da 2abd 64a3 1d3f bd23 9f3d 6686 0a3e
00000230: 1b21 c1be a108 1d3f 14d9 41bf 2699 bf3c
00000240: fa6e 67bd c15e babe 75da c4bd 742e 123f
00000250: 6ac2 8c3f 1069 b3bf 4c88 a13e cfba edbe
00000260: c1e2 43be b52e bd3d 7c98 3d3f e948 33bf
00000270: 8e4d 823f 08e1 29bb d3e6 a8be 2316 93bd
00000280: 993a 023d c4d6 a9bf a8e9 cebe 37e6 4abe
00000290: 799f 2e3b 5238 ddbc 99d7 27be f50a 833b
000002a0: 1192 983d 152e 403f b614 26bf 6941 14be
000002b0: 9432 7b3d a82b 05bd ac31 ca3e 174d 90be
000002c0: b7ae 4c3f 71ff eebe 8fe0 663e 9b94 e93d
000002d0: 971c 3e3e 543f 8f3a ab5d b6be 7cc6 863f
000002e0: 4d47 09bf c2db 62bb a30e 723e d328 babd
000002f0: 9861 c23d 3951 7ebe 49e1 9a3f f33b c6bf
00000300: a20e 6fbd 93c5 613c e6e1 89be 16c9 b93d
0.7015371 1.5489004 -0.8712858 0.09251341 -0.6979333 -0.42570964 -0.43533477 0.03362925
-0.46791843 0.312025 -0.0037644648 0.11035788 0.2913632 0.17432995 -0.5226521 -1.6024834
0.68181413 0.5081773 0.1844758 0.23940699 0.9725998 -0.38206795 0.63300055 -0.29196125
-0.06998605 0.019931993 -0.058579896 -0.28510812 -0.2850924 1.0971273 -0.3815459 -0.19413505
0.36026767 -0.1433979 -0.12008006 0.38664195 0.80633265 -0.6178262 -0.5069393 -0.19036928
-0.2896253 0.011780357 -0.28889665 0.7050576 -0.98741204 -0.34641054 -0.16565567 -0.024635833
-0.18595628 0.48742154 1.0341307 -0.43007696 -0.46461025 -0.4489911 0.036816325 0.10690316
0.4586748 -0.92026275 1.0091907 0.378175 -0.24151398 0.031107364 0.5176292 -0.17255239
-1.0092735 0.5009833 -0.030502034 -0.055923734 -0.35151395 0.20372252 -0.45716134 0.19336751
-0.40452003 0.17504264 0.08935599 -0.041185632 0.24300292 0.08402946 0.033988032 -0.19652112
-0.12675767 -0.055657484 0.28745034 -0.124364376 -0.067292914 0.17159109 -0.37329152 0.05461058
-0.34719396 0.10455292 -0.3175609 0.18500471 0.16794771 -0.28224418 -0.2707958 -0.047050342
-0.2947094 0.29883656 -0.6465253 -0.06716009 0.051939707 0.5587044 0.3899627 0.33562276
0.24971418 0.5056497 0.9608759 -1.2861683 -0.4863234 0.4099756 -0.064291574 -0.75993794
-0.35433686 -1.4415467 0.8662864 -0.081830956 0.19480734 -0.3764449 0.48684755 -0.33390912
0.08973298 -0.12720978 0.29719564 0.123717554 -0.061735045 0.34147406 -0.352801 0.29842135
0.0038728998 0.27372855 0.056255817 -0.17934668 -0.09445443 -0.26036274 -0.00096972566 -0.16090053
-0.041712414 0.6157744 0.077704884 0.13527831 -0.3772057 0.6134129 -0.7572186 0.023388457
-0.05650232 -0.36400416 -0.0961198 0.5710213 1.099683 -1.4016438 0.315493 -0.46431586
-0.19129469 0.09237424 0.740608 -0.7003313 1.0179918 -0.0025921483 -0.32988605 -0.071819566
0.031794164 -1.3268666 -0.4041264 -0.19814382 0.0026645346 -0.027004395 -0.16390838 0.003999109
0.07449735 0.75070316 -0.6487535 -0.14478077 0.061327532 -0.032512337 0.39491022 -0.28183815
0.79954094 -0.4667926 0.225466 0.11405297 0.18565594 0.0010928907 -0.35618338 1.0529323
-0.5362442 -0.003461585 0.23638396 -0.09089818 0.09491271 -0.24835671 1.2100002 -1.5487045
-0.058363564 0.0137800155 -0.2693016 0.09071557

recurrent.bias_ih_l0 f4 [28]
00000000: 4ef2 2bbf c69d ac3f be98 e73e 679b 35bf
00000010: 014f b6be b5bb 17bf cc79 fcbe da55 23bf
00000020: 8878 083e 7c3a 223f 928a 61be 35ca 09bf
00000030: bc3d babe d10b 1dbf 88ba a4bd f7b8 81bf
00000040: 4166 603f 8f70 f53c 81d8 a1be 02dc efbd
00000050: 75a4 133e 8a14 3ebf d50e 703f c042 0d3f
00000060: 278b 01bf 6af1 c0be aa96 20bf add1 47be
-0.671666 1.3485649 0.4523372 -0.7094025 -0.3560715 -0.59270793 -0.49311674 -0.63802874
0.13327229 0.6337049 -0.22025517 -0.5382417 -0.36375225 -0.61346155 -0.080433905 -1.0134572
0.8765603 0.029960899 -0.31610492 -0.11711885 0.14418204 -0.7425009 0.9377263 0.5517998
-0.50602955 -0.37684184 -0.62729895 -0.19513579

recurrent.bias_hh_l0 f4 [28]
00000000: 1c29 5dbf 68f6 9d3f 1706 023f 9f37 9dbe
00000010: 1d4a aebe 519e b6be 655e 0f3e 705e 53bf
00000020: dc79 353f c91d 773e 203b 8f3d 3bbe 393d
00000030: 9fe9 84be dca4 23bf 64e7 1dbf 0352 86bf
00000040: b10b 0f3f cf35 2a3d 55a9 c23e c31c 833e
00000050: 08d5 a13e 22c4 b9be 3abb e83e 1b86 5e3e
00000060: 487a cfbe 4672 d3bd 127a c7be 2f3e abbe
-0.8639085 1.2340822 0.5079054 -0.30706498 -0.3404092 -0.3566766 0.14000852 -0.82565975
0.7088907 0.24132456 0.06993699 0.045347434 -0.2595949 -0.6392343 -0.616812 -1.0493778
0.55877215 0.041555222 0.38019815 0.2560788 0.31607842 -0.3628245 0.45455343 0.21730845
-0.4052298 -0.1032453 -0.3896032 -0.3344588

recurrent.weight_ih_l0_reverse f4 [28, 7]
00000000: cfb3 953f eef2 90bf f3c2 9bbf 50c1 18bf
00000010: ff97 9dbe a2d6 8abf 7436 ce3e 3695 5d3f
00000020: 7f25 f6bd 72b9 c3be a22f e23e ded3 0c3f
00000030: ba46 9dbf aef5 093e 0fc2 d33f 6b59 67bf
00000040: 71c8 2bbf aac5 acbf 8a0a 32bf 3c5c 4abf
00000050: 1503 71bf 724b 4d3e 85e1 a23d c80e d63e
00000060: 989a ccbe c4c6 9abe 174e d23d 787c 4f3d
00000070: abe7 c9bf 03b8 b03e 939b 0d3f c187 df3f
00000080: ebe1 453f 488a 0bbe 4b6e 5c3f 3da9 033f
00000090: 5bdb 303f 3c15 42bd 2fb8 b8be f9a9 ebbe
000000a0: 7146 df3d f044 5bbf 9ae2 653e 4966 99be
000000b0: f8e6 5dbe b314 ee3e b2bf b33e 3a3e e3be
000000c0: afa6 903e 8f47 dc3e 9b47 4bbe 3fd3 11bf
000000d0: 3976 e1be 4dd7 f9bd 0bef b3be 3cd9 9c3c
000000e0: 64e8 d33f 8b25 913e 0887 87be b2ca bdbf
000000f0: fda7 24bf 1c17 373e 1128 45bf ebed d23f
00000100: 8039 e63e c37b f2be 4774 8fbf da56 83bf
00000110: 3470 153f baae 5ebf 1cd5 bebd 63d2 2dbe
00000120: a733 c6bd 156c 4f3e 281c bb3d e762 063e
00000130: bd60 713e a3ab 47be 66b8 5f3f 1fbb 653f
00000140: c058 a33f 8794 403f ac66 3f3f dd42 0e3f
00000150: 0f2b 593e 3917 87bf ef31 a8bf f639 453f
00000160: 9fde 3a3f 2c04 19bf aaf7 c13e 939c 1c3e
00000170: bf40 07bf f2a6 2dbe 2ca5 833e ecba 113f
00000180: 2f8d 05bf be72 13bd 3379 9a3d 2236 ac3d
00000190: 67e7 0cbf 3885 48bf c6cf b2bc 8df1 2e3e
000001a0: dec1 78be f7a0 a7be 3f8d 17bf 455a 33bf
000001b0: e9ad 39bf ac6c 63bf 888a 8abe dbee dbbe
000001c0: 861c 6c3e fc25 b9bd cc51 88bf 0452 e5bf
000001d0: c370 e7be 9807 763d 8ded e7be 7760 b9bf
000001e0: 23d3 313f 57e3 253f 6f28 783f 8f59 5e3f
000001f0: 46c1 633e 59b7 513f 12c6 a83e 39a1 803f
00000200: aac7 4e3f e616 d23e baf0 19bf 0576 a83e
00000210: da3d e5be 2ec8 933e 5a2b 903e cc26 9e3e
00000220: 1439 45bf e23f a9be c49a 0e3f 3b56 01bf
00000230: f9ab c13e 6ea2 f8be 5d2d 3abf e3e6 01bf
00000240: 41b5 f8be bdce 06bf a483 e43d c445 843f
00000250: 56e7 aebf 5946 d2bf 2135 33bf 58fc 2c3e
00000260: 427f 97bf 070c bc3e 351e 803f f903 31bf
00000270: bffe 02bf 3a77 523e eb36 0c3f 77e9 3abf
00000280: 7900 bf3e 6565 e23d 08fa 16bd 8fe7 99bf
00000290: cfec 303d 1a50 e9bd f681 15bd 6a7e 00bd
000002a0: 6e23 bd3e 1b3c e9bd 4fc3 b23d a8bc cbbe
000002b0: 7da4 17bf 1ea4 823e 236f 10bf 16ae 8dbf
000002c0: c3f4 6a3f 0fe1 8c3f 08aa f93f db56 403f
000002d0: c1b9 183f 273f 513f aac0 743f 6518 d6be
000002e0: 3d2d 20bf afbd 88be b371 01bd 9c2f 37be
000002f0: edee 99be dff6 883b 00b4 c7bc 00e3 173e
00000300: 0011 6e3f b219 e63e a063 f4bd b973 d63e
1.1695498 -1.1324136 -1.2168869 -0.5966997 -0.30780026 -1.0846751 0.4027592 0.865558
-0.120188706 -0.3822742 0.44176966 0.55010784 -1.2287209 0.13472626 1.6543597 -0.90370816
-0.67102724 -1.3497822 -0.6954733 -0.7904699 -0.9414533 0.20048311 0.07953171 0.41808152
-0.39961696 -0.3022977 0.10268801 0.050655812 -1.5773824 0.3451539 0.5531551 1.7463304
0.7729785 -0.13626969 0.86105794 0.5143011 0.6908471 -0.047383532 -0.3607802 -0.46028116
0.109021075 -0.85652065 0.22449723 -0.2996085 -0.21670139 0.46500167 0.3510719 -0.44383413
0.2825217 0.43023345 -0.19851534 -0.5696296 -0.4403551 -0.121992685 -0.35143313 0.019146554
1.6555295 0.28348956 -0.26470208 -1.4827483 -0.6431883 0.1787991 -0.7701426 1.6478857
0.44965744 -0.47360048 -1.120736 -1.026088 0.58374333 -0.8698536 -0.09317991 -0.16974787
-0.09677821 0.20256074 0.0913623 0.13123666 0.23572059 -0.19499068 0.87390745 0.8973865
1.2761459 0.75226635 0.7476604 0.55570775 0.21207832 -1.0553962 -1.3140239 0.77041566
0.7299594 -0.5977199 0.37884265 0.15294103 -0.5283317 -0.16958216 0.25711954 0.56925845
-0.52168554 -0.0359981 0.07542648 0.084087625 -0.5504059 -0.78328276 -0.02182759 0.17084332
-0.24292704 -0.32739994 -0.591999 -0.70059615 -0.7253099 -0.88837695 -0.27058816 -0.4295567
0.23057756 -0.09040448 -1.0649962 -1.7915654 -0.45203218 0.060065836 -0.45298424 -1.4482564
0.69462794 0.6480002 0.96936697 0.86855406 0.22241697 0.8192039 0.32963616 1.0049201
0.80773413 0.41033095 -0.60132945 0.32902542 -0.44773751 0.28863662 0.28158075 0.30888975
-0.7704022 -0.3305655 0.55704904 -0.505222 0.37826517 -0.48561424 -0.7272547 -0.5074293
-0.48575786 -0.5265921 0.11157921 1.0333791 -1.3664348 -1.6427718 -0.70002943 0.16893137
-1.1835711 0.36727926 1.0009218 -0.69146687 -0.5116996 0.20553294 0.547713 -0.7301249
0.37305048 0.11054496 -0.036859542 -1.2023791 0.04319459 -0.11392231 -0.036500894 -0.031370558
0.36941093 -0.11388417 0.087286584 -0.3979237 -0.59235364 0.25515836 -0.5641958 -1.1068752
0.91779727 1.1006182 1.9505014 0.7513253 0.5965844 0.8173699 0.9560648 -0.41815487
-0.6256903 -0.26707217 -0.031602573 -0.17889255 -0.30065098 0.00417982 -0.024377823 0.14832687
0.9299469 0.4494148 -0.119330645 0.41885164

recurrent.weight_hh_l0_reverse f4 [28, 7]
00000000: d44e b6bd cb2c 123f eba5 0cbf a663 b7bd
00000010: 8416 01c0 dcea 59bf 9c83 f03e b016 74bc
00000020: 8a1d 9f3f 9c55 cdbe 3e11 04bf 0b0a 8fbf
00000030: 6b7b 96bf 3ad4 1f3f 0979 823e b6f0 333f
00000040: 2e75 b1bf da98 6abf 7496 d6bf af91 9cbf
00000050: d413 e03e 93fd 02bc 6fd9 c8bd 8992 88be
00000060: 0467 973e fc49 acbe 5e6c 09bc a40d bbbe
00000070: e5b0 653e 7ef4 4f3f ddbe 763f 29c2 0f3f
00000080: fee6 733f e4a8 393f 866e 073f 2f4c 97bd
00000090: 1cb7 4a3e 1c36 1dbe 5410 60bf 3ed9 0cbf
000000a0: e7bf 173e e6c0 abbe 0056 78be df93 6ebe
000000b0: 7447 b2b9 41ca 343e 799e 433e 756d 26bf
000000c0: 7514 963e 9225 113e a6c7 823d 7873 1cbe
000000d0: 88dc b0be e32e 06bf ae6d 03be 45e5 5cbd
000000e0: 13ec b33e 0479 bc3e 2058 7a3d e11b 32bf
000000f0: 5344 66bf 219c 9cbc 3ffe 133e a8c2 223d
00000100: bba9 a83e 8f33 04be 7dab ee3f df5f 163f
00000110: 87af 173c 52f9 6fbf 95c0 7abd 1078 bbbc
00000120: 938e 5bbe c8a7 e23e b8d6 573d 83e1 fdbe
00000130: 71c1 013e f9b3 bd3e 0a9b c63e 70c8 2b3f
00000140: 4552 9b3f 0956 823f 9ba4 973e edc2 a53e
00000150: f1ba 94be e8fa 07bd 2d9e 39bf f3e3 61be
00000160: 2d0b acbf 16a6 3bbf f4cf 12be f71f d7bd
00000170: ead7 f33d 1412 a03d 3324 863c b93d 4b3e
00000180: 0a9c 803c 5864 b93e df26 56be f01d 8cbe
00000190: 0646 e63e 7351 7d3e 56d9 a73e 2e8d afbd
000001a0: 15e7 113e 2c1d 493e 3084 edbe e165 4ebf
000001b0: 2d51 ad3e 520b 80be ff2d a3be 2ed5 c4be
000001c0: 79b7 753e 90aa f53e 230e 0ebf 5c91 09bd
000001d0: 4369 86be 4e5c 493e 8852 fabd d25c 393e
000001e0: b560 8f3e 4368 d83f 19ab a7be bb25 0e3f
000001f0: e416 863f 4848 eabd fc7e ce3d fa52 153d
00000200: 84a1 433f 4e6a a93d ed77 123f 10f9 433e
00000210: bc43 e73c 6cb6 c0be 924a 873e 3772 353f
00000220: 1ed1 8b3c 0f6d dd3e 91a6 2e3f 103c 0fbe
00000230: e4c5 c2be f770 a4be f0c1 a3be 7ba4 a0be
00000240: b11d 8fbe 80a6 d3be 161d 04bf b956 13be
00000250: 4917 573e 617e 63bf 7fa3 bdbd c688 a6bf
00000260: 93c4 91bf 5f81 943e ac1f c5bd a125 983f
00000270: d2a3 03bf 94a7 1fbf b4cb f8be b771 a6bf
00000280: a84a 413f 0061 aabd 11f7 893f 75ce 01bf
00000290: e310 33bf 42d7 8cbf 9b77 20bf 114a b0be
000002a0: 0384 c4bd b7b6 d6bc b4ed 083e 4a01 613f
000002b0: 1fbb c5bd 1137 ffbe e500 a8be b98a 3fbe
000002c0: 390e 043f 4a0b 5e3f a53b 5f3f ee30 f23e
000002d0: a352 f23e 288b 6abe 657e bebe eaa9 8b3f
000002e0: d9fa 91bf 36db ddbe 50a0 0ec0 28b6 5fbf
000002f0: 22a7 bb3f b684 44bd 846f 57be 287c e1be
00000300: 5007 313f dda5 8fbe d954 2cbf 3e86 4a3e
-0.08901754 0.570996 -0.5494067 -0.08954553 -2.0169992 -0.8512399 0.4697541 -0.014897987
1.243089 -0.40104377 -0.5158881 -1.117494 -1.1756414 0.6243321 0.25482967 0.7028917
-1.3863885 -0.9163948 -1.6764665 -1.2231959 0.43765128 -0.007995027 -0.09807097 -0.26674297
0.29570782 -0.33650196 -0.008387653 -0.36533844 0.22430761 0.8123244 0.96384984 0.5615564
0.9527434 0.7252333 0.5290302 -0.07387578 0.19796413 -0.15352672 -0.87524915 -0.55018985
0.14819299 -0.33545607 -0.24251556 -0.23298596 -0.00034004042 0.17655279 0.19103421 -0.6501077
0.29312482 0.14174488 0.06385736 -0.15278423 -0.34543252 -0.52415293 -0.12834808 -0.053929586
0.35141048 0.36811078 0.0611192 -0.6957379 -0.89948004 -0.019117417 0.14452456 0.03973642
0.32941994 -0.12910293 1.8646084 0.5874004 0.009258158 -0.9373981 -0.061218817 -0.022884399
-0.21441106 0.44268632 0.052695006 -0.49586114 0.12671448 0.3705137 0.3879016 0.6710272
1.2134482 1.0182506 0.29617772 0.3237528 -0.29048875 -0.033198267 -0.7250698 -0.22059612
-1.344091 -0.733003 -0.1433714 -0.10504144 0.11906417 0.07815948 0.016374683 0.19847764
0.015699405 0.3620937 -0.20913266 -0.2736659 0.449753 0.24738102 0.32783002 -0.0857185
0.14248307 0.19640034 -0.46389914 -0.80624205 0.33850995 -0.25008637 -0.3187103 -0.38443893
0.2399577 0.4798169 -0.5549032 -0.03358589 -0.26252183 0.19664118 -0.12222773 0.18101814
0.2800347 1.6906818 -0.32747725 0.5552632 1.0475736 -0.11439568 0.10082814 0.036456086
0.7641833 0.08272229 0.5721424 0.19137979 0.02823054 -0.37639177 0.2642408 0.70877403
0.017067488 0.43247268 0.6822291 -0.13987756 -0.38041604 -0.32117435 -0.319839 -0.3137549
-0.2795234 -0.41337967 -0.5160688 -0.14388551 0.21004976 -0.88864714 -0.092597 -1.301049
-1.1388115 0.29004952 -0.096251816 1.1886483 -0.51421845 -0.6236508 -0.48592913 -1.3003453
0.7550454 -0.083192825 1.0778524 -0.50705653 -0.6994764 -1.1003191 -0.62682503 -0.34431508
-0.09595492 -0.026210172 0.13371927 0.8789259 -0.09654831 -0.498467 -0.32813182 -0.18705262
0.515842 0.86735976 0.87200385 0.47302955 0.47328672 -0.22904646 -0.37205806 1.0911229
-1.1404678 -0.43331307 -2.2285347 -0.87387323 1.466038 -0.047978126 -0.21038634 -0.44040036
0.69151783 -0.2805623 -0.6731697 0.19777772

recurrent.bias_ih_l0_reverse f4 [28]
00000000: bffc 9cbf 1a06 dcbe e015 e1be 766b 7c3e
00000010: 16f6 833e 5b2f 543f 6a03 dfbe 2bb6 2b3e
00000020: ebbc b7be 8895 203e 5119 bebe 5ef7 523e
00000030: 257a 30bf 2368 603d 16ff a8be 57a5 a23e
00000040: 6131 923e c31d 8b3e a63a 103f 44f3 e13e
00000050: f32b afbe 1419 69bf b00c a8be 17d7 013d
00000060: 86f9 f73e 3ad8 703e f04c 85be 47b4 0cbf
-1.2264632 -0.42973405 -0.43962002 0.24650368 0.25773686 0.8288476 -0.43557292 0.1676871
-0.3588632 0.15682042 -0.3712869 0.20602176 -0.6893638 0.054786813 -0.33007115 0.3176677
0.28553298 0.27171144 0.5633949 0.4413091 -0.34213218 -0.9105389 -0.3282218 0.031699266
0.4843256 0.23519984 -0.2603526 -0.5496258

recurrent.bias_hh_l0_reverse f4 [28]
00000000: d26c 69bf dd22 20bf d867 c0be e245 c23e
00000010: 9227 ce3e 1146 593f 6ef9 c3be 457c ebbe
00000020: f91b 403e 56dc 573f 103e 893e 8420 cf3e
00000030: b718 28bf 7138 00bf 4632 3fbe a1d9 293e
00000040: 0116 85be 7f7c 623e fd84 383f ad86 3b3f
00000050: 0c82 923d 98ac 2dbf 7545 36bf 914b 13be
00000060: 3207 8c3e 7219 d13c ae86 cbbe 1c85 053e
-0.9118167 -0.625532 -0.37579226 0.3794394 0.40264565 0.8487254 -0.38276237 -0.45993248
0.1876067 0.8432058 0.26805162 0.40454495 -0.6566271 -0.5008612 -0.18671522 0.16586925
-0.2599335 0.22117804 0.72077924 0.73252374 0.07153711 -0.6784148 -0.71199733 -0.14384295
0.2734924 0.025524829 -0.3975119 0.13039058
