covid_forecasting/daily/best_models/birnn_daily.pth (torch, 122501 bytes, 9 tensors)

rnn.weight_ih_l0 f4 [120, 1]
9.263801e-05 0.08915244 0.022072434 -0.13599376 0.008989186 0.007702506 -0.19962102 -0.28381497
-0.22193016 0.061058313 0.36069906 0.025550779 0.12979735 -0.10457069 -0.18954618 -0.035471223
-0.045460775 0.012338195 -0.49914673 -0.08647727 -0.000991978 -0.15224642 -0.010672077 0.056729697
0.084518366 0.2226594 0.003241791 0.0048206 -0.067406915 0.015526494 0.06151412 -0.21551722
0.13618597 0.0780126 -0.22701012 -0.579282 -0.14931388 -0.22399971 -0.2786483 0.05387048
0.18977998 -0.13048358 0.058437623 0.03377507 -0.0494312 0.20470387 0.13431893 0.06509926
-0.0028290232 0.051504485 -0.13997889 0.4942263 0.1861551 0.5364156 0.18630594 0.04840718
-0.48728758 -0.023412492 -0.17704886 0.37258703 0.057147134 -0.09931699 0.15932462 -0.17637241
-0.05312128 -0.05054002 0.0796681 -0.19412746 -0.23761918 -0.10478238 0.096229665 -0.42387992
-0.2618444 0.09189362 -0.27132002 -0.1117316 -0.19650021 0.29314518 -0.44796333 0.0809877
-0.18711026 0.08757472 -0.036261443 -0.40880316 -0.03205907 -0.19468227 0.048922535 -0.14537762
0.23266211 0.2366018 0.1602174 -0.4990137 0.19956379 -0.38409862 0.06638602 -0.03411574
-0.010137539 0.122784615 0.4302481 0.14081071 -0.15427917 -0.13273072 0.032708053 0.16817416
0.10355182 -0.12919983 -0.24799858 0.081252486 -0.024156097 -0.1013249 -0.00086512446 0.47168148
0.033673503 0.056794453 0.081133656 -0.01495708 -0.2078846 0.08535347 0.15198249 0.11881789
00000000: a746 c238 8e95 b63d 40d1 b43c f341 0bbe
00000010: 6147 133c 4e65 fc3b 7469 4cbe 3250 91be
00000020: a941 63be 4818 7a3d 8cad b83e de4f d13c
00000030: 99e9 043e 2829 d6bd 6518 42be 464a 11bd
00000040: 1435 3abd 2426 4a3c 2990 ffbe ff1a b1bd
00000050: 4205 82ba 7ce6 1bbe efd9 2ebc 665d 683d
00000060: f717 ad3d d300 643e 3a74 543b 20f6 9d3b
00000070: a30c 8abd d662 7e3c 3bf6 7b3d 8cb0 5cbe
00000080: 5674 0b3e 12c5 9f3d 5775 68be d34b 14bf
00000090: bde5 18be 2e60 65be fdaa 8ebe 4ba7 5c3d
000000a0: af55 423e 7d9d 05be 4a5c 6f3d ba57 0a3d
000000b0: 5f78 4abd e49d 513e e78a 093e c352 853d
000000c0: 2267 39bb 5ef6 523d a056 0fbe 3b0b fd3e
000000d0: 719f 3e3e 8852 093f fcc6 3e3e 9b46 463d
000000e0: c27d f9be 8ecb bfbc 4c4c 35be bac3 be3e
000000f0: 1d13 6a3d b566 cbbd fe25 233e f89a 34be
00000100: b395 59bd 0d03 4fbd 0729 a33d 59c9 46be
00000110: 7152 73be 2598 d6bd 0f14 c53d ca06 d9be
00000120: 7810 86be b932 bc3d 75ea 8abe 89d3 e4bd
00000130: 5a37 49be 2017 963e 735b e5be e1dc a53d
00000140: d599 3fbe 605a b33d e186 14bd a64e d1be
00000150: 5f50 03bd ca5a 47be ff62 483d dfdd 14be
00000160: fa3e 6e3e be47 723e 0810 243e b97e ffbe
00000170: 735a 4c3e 93a8 c4be 65f5 873d f2bc 0bbd
00000180: ec17 26bc 8076 fb3d 7b49 dc3e af30 103e
00000190: 5cfb 1dbe 90ea 07be e1f8 053d d935 2c3e
000001a0: fa12 d43d f64c 04be 57f3 7dbe b467 a63d
000001b0: 02e3 c5bc 6e83 cfbd 85c9 62ba 3c80 f13e
000001c0: 3aed 093d 4da1 683d 6729 a63d 8a0e 75bc
000001d0: b3df 54be cdcd ae3d 4ca1 1b3e cb56 f33d

rnn.weight_hh_l0 f4 [120, 120]
-0.5081061 -0.030376816 0.0827356 0.032483827 0.092508055 -0.042998083 0.062883936 -0.01460435
-9.725576e-05 -0.018939747 -0.051435236 0.00512199 0.09373369 -0.033174757 -0.02650641 -0.049268506
-0.028791169 -0.07699302 -0.055703163 0.105462976 0.085089885 0.033062957 -0.014594796 0.046773367
0.0464508 -0.024479892 0.09190608 -0.022211961 -0.004366714 0.05155985 -0.0064782514 0.04870135
0.005620331 0.07579238 -0.0021938046 0.10477637 -0.042339884 0.016558835 0.04981571 -0.11033132
0.03321509 0.028168943 0.16181357 0.05387335 0.103757754 -0.04210483 0.035374075 0.020306742
0.073171355 -0.022546945 -0.029700572 0.10973496 0.013712244 -0.01500664 0.02609433 -0.10154498
-0.10141961 0.03155243 -0.037478082 0.013596782 -0.055873815 0.10847475 0.082031906 0.15035829
0.09058106 -0.089429885 -0.08163886 0.019777188 0.03987723 -0.061824117 -0.008672073 0.0314994
0.061507523 0.060355715 0.050041143 -0.06766101 0.115274936 -0.05148001 -0.06155398 -0.11191343
-0.029281942 0.058343567 0.053468086 -0.08834548 0.027673203 -0.13144748 0.024211068 -0.03591814
-0.042030785 0.14066252 0.043108158 0.08465002 0.1335053 -0.09663272 -0.13091984 0.033374153
0.025466805 0.12653792 0.02287977 -0.035980128 0.066372536 0.011261374 -0.111491956 0.030257426
0.10076883 0.042227402 0.03118345 0.0094801225 0.0962455 -0.038603213 -0.042191513 -0.066577174
-0.1291972 -0.053729873 0.019879041 0.01985495 0.030571261 0.0923306 -0.042862788 -0.08613881
0.018368166 -0.91554785 0.09273621 0.0054368745 -0.025440661 -0.037780337 -0.10283471 0.042502683
-0.1076747 0.060111117 -0.092618905 0.006401641 -0.15422425 0.009590491 -0.009435122 0.01307573
-0.026629873 0.0070662033 0.1284026 -0.036660854 0.024689274 -0.054469224 0.035976816 -0.04132332
-0.035211544 -0.06528435 -0.08765081 0.0027323328 0.10182133 -0.09450695 -0.049523972 0.020702712
0.014737038 -0.053444214 0.008482165 -0.01662177 -0.042711843 0.020430794 -0.017715806 0.009171938
0.105625466 -0.007765387 0.10772162 0.0185069 -0.11333518 0.017367518 0.09142579 -0.09738834
0.014089669 0.104271784 0.07226805 0.019181425 0.04648875 0.037027642 -0.014466741 -0.20903485
0.113992624 -0.03252478 0.027675988 -0.04831699 -0.009362025 -0.07529214 -0.026294407 0.022958245
-0.095576726 -0.022894248 0.0075278035 0.013820205 -0.016964551 0.009282491 0.043514058 0.01623409
0.17206652 0.0007507021 0.075288184 0.0056426274 0.038361188 0.06472507 -0.097037904 0.050049204
-0.059010103 -0.08992297 -0.10942965 -0.059184793 0.1075053 0.011062774 0.021498516 -0.021117145
-0.044408444 -0.022700006 0.018476289 -0.061771262 0.11826377 -0.09315722 0.030646695 0.064305305
0.059504658 0.0056578247 0.01149167 0.0019966448 -0.07066951 0.020091625 0.027988466 -0.060399164
-0.14668377 0.09889375 -0.04226938 -0.079142734 0.015837168 0.005059298 -0.032709822 -0.041035406
-0.061505485 -0.079735965 -0.08027857 0.022130167 0.028753497 0.07452526 -0.041973095 -0.054579265
-0.038967367 -0.12544079 0.02477957 -0.06915946 0.047794696 0.027510146 -0.0048767743 0.058412835
-0.0780637 -0.08741877 -0.04992515 0.083715856 -0.013112435 0.08359402 -0.008882357 0.08592594
00000000: 3e13 02bf cdd8 f8bc 4871 a93d c30d 053d
00000010: dd74 bd3d c21e 30bd 4bc9 803d 1547 6fbc
00000020: caf5 cbb8 8727 9bbc c1ad 52bd 5ed6 a73b
00000030: 73f7 bf3d 41e2 07bd f923 d9bc c6cd 49bd
00000040: 75db ebbc 84ae 9dbd 0029 64bd f9fc d73d
00000050: 9b43 ae3d 066d 073d 031f 6fbc 6e95 3f3d
00000060: 3243 3e3d 0e8a c8bc 4139 bc3d dcf5 b5bc
00000070: a716 8fbb 6c30 533d 8347 d4bb 117b 473d
00000080: c12a b83b 0939 9b3d efc5 0fbb fe94 d63d
00000090: 966c 2dbd 65a6 873c 8f0b 4c3d 63f5 e1bd
000000a0: 8c0c 083d 8ec2 e63c 75b2 253e 4daa 5c3d
000000b0: f27e d43d 1d76 2cbd 68e4 103d 535a a63c
000000c0: ddda 953d 5fb4 b8bc 9d4e f3bc b9bc e03d
000000d0: 52a9 603c 69de 75bc c7c3 d53c d1f6 cfbd
000000e0: 16b5 cfbd 1f3d 013d 9e82 19bd 0ac5 5e3c
000000f0: f1db 64bd 0228 de3d 5800 a83d 86f7 193e
00000100: 9082 b93d 0427 b7bd 4632 a7bd c503 a23c
00000110: 4e56 233d 493b 7dbd 4f15 0ebc 8405 013d
00000120: 50ef 7b3d 8e37 773d f1f7 4c3d db91 8abd
00000130: 4415 ec3d b4dc 52bd 0720 7cbd de32 e5bd
00000140: afe0 efbc aaf9 6e3d 5a01 5b3d 7aee b4bd
00000150: eab2 e23c 2b9a 06be 4a56 c63c e61e 13bd
00000160: 7928 2cbd d609 103e 2e92 303d fd5c ad3d
00000170: 9db5 083e 60e7 c5bd da0f 06be 56b3 083d
00000180: c39f d03c 2893 013e 5b6e bb3c e65f 13bd
00000190: 53ee 873d a081 383c e555 e4bd 6cde f73c
000001a0: e35f ce3d a4f6 2c3d 6f74 ff3c 8452 1b3c
000001b0: 5c1c c53d 671e 1ebd 02d1 2cbd 9d59 88bd
000001c0: 454c 04be db13 5cbd 5fd9 a23c d9a6 a23c
000001d0: 9570 fa3c d317 bd3d e490 2fbd 8b69 b0bd
000001e0: d678 963c 5861 6abf 7bec bd3d cf27 b23b
000001f0: ef68 d0bc 8ebf 1abd 019b d2bd 4b17 2e3d
00000200: 8e84 dcbd 1337 763d fbae bdbd dbc4 d13b
00000210: f6ec 1dbe 6f21 1d3c c595 1abc 963b 563c
00000220: e426 dabc 9c8b e73b f97b 033e b129 16bd
00000230: 2941 ca3c 1f1b 5fbd 6d5c 133d a442 29bd
00000240: fb39 10bd cdb3 85bd 4582 b3bd f010 333b
00000250: b487 d03d dc8c c1bd a6d9 4abd bc98 a93c
00000260: 9e73 713c 52e8 5abd c7f8 0a3c 612a 88bc
00000270: 9df2 2ebd 7b5e a73c bd20 91bc e545 163c
00000280: 2a52 d83d ca74 febb 279d dc3d c89b 973c
00000290: 461c e8bd 5346 8e3c 723d bb3d 8a73 c7bd
000002a0: 5bd8 663c 728c d53d 4501 943d 5d22 9d3c
000002b0: fd6a 3e3d 4caa 173d e905 6dbc 3b0d 56be
000002c0: f774 e93d b438 05bd c1b8 e23c 09e8 45bd
000002d0: 2e63 19bc c432 9abd 5e67 d7bc ee12 bc3c
000002e0: bbbd c3bd b88c bbbc cbab f63b 246e 623c
000002f0: 3ef9 8abc 9715 183c cc3b 323d 5bfd 843c
00000300: 3532 303e c4ca 443a b130 9a3d cae5 b83b
00000310: 9f20 1d3d 948e 843d cfbb c6bd 6500 4d3d
00000320: 94b4 71bd 8929 b8bd a71c e0bd c16b 72bd
00000330: bd2b dc3d a340 353c a81d b03c ddfd acbc
00000340: a1e5 35bd 5df5 b9bc 965b 973c dd03 7dbd
00000350: 4734 f23d 36c9 bebd c70e fb3c 80b2 833d
00000360: 28bb 733d 4665 b93b 8f47 3c3c 24da 023b
00000370: 2dbb 90bd 3197 a43c 1148 e53c 1d65 77bd
00000380: 4534 16be ce88 ca3d a822 2dbd 9615 a2bd
00000390: f3bc 813c 78c8 a53b bcfa 05bd be14 28bd
000003a0: 2ded 7bbd 9c4c a3bd 1769 a4bd 534a b53c
000003b0: 748c eb3c b3a0 983d fbeb 2bbd 828e 5fbd
000003c0: 3f9c 1fbd 8d73 00be 86fe ca3c 7aa3 8dbd
000003d0: 5fc4 433d f55c e13c 59cd 9fbb 4c42 6f3d
000003e0: dcdf 9fbd 9d08 b3bd 507e 4cbd 3873 ab3d
000003f0: 8ad5 56bc 5733 ab3d 4e87 11bc f0f9 af3d

rnn.bias_ih_l0 f4 [120]
-0.042319886 -0.0354345 -0.016923806 0.061649553 -0.01717168 0.062445965 -0.020921007 0.07249449
0.0809937 0.008335719 -0.12104511 0.016876766 -0.072097845 0.075695716 0.0856403 0.021054193
0.021413729 -0.052539248 0.042041134 0.04761398 0.03158823 -0.0020428842 0.047988433 -0.021021286
-0.02655552 -0.08574903 0.013553895 -0.0109725315 0.023423336 -0.04280846 -0.0023373729 0.105533324
-0.066272646 0.03154249 0.043427087 0.07942829 0.10912576 0.061766855 0.053670682 0.03366242
-0.07309266 0.008884399 0.017367704 -0.015093838 0.05613564 -0.08632738 -0.006176026 -0.050842218
-0.038424376 0.0004647752 0.06837205 -0.13643725 -0.077053025 0.045704525 -0.06289991 -0.016358541
0.0977185 0.005177431 -0.029743755 -0.016616587 -0.008470802 0.017759753 -0.05545568 0.10586983
-0.027976273 0.04991012 -0.019367192 0.053130135 0.035188682 0.07348329 0.017458625 0.047984313
0.005880655 -0.07550741 0.10735481 0.013130869 0.10481862 -0.050383154 0.069520935 0.023565289
0.016094806 -0.048083805 -0.0104724085 -0.014763812 0.010995498 0.032995354 -0.062384613 0.027778542
-0.002471006 -0.018722706 -0.0949943 0.06582926 -0.013988697 0.14703761 0.0052298247 0.041688778
0.008395956 -0.084780715 -0.07772234 0.0026029209 0.094349034 0.08047549 0.0070217378 -0.0013710598
-0.070587575 0.06655534 0.041264497 0.013270316 -0.0054425965 0.017925244 -0.08224822 -0.114516236
-0.026950175 -0.030023083 -0.055193447 -0.007835254 0.035974238 -0.02145445 -0.0006099824 -0.053445186
00000000: 9e57 2dbd c423 11bd cba3 8abc 3e84 7c3d
00000010: a0ab 8cbc 57c7 7f3d 8862 abbc fe77 943d
00000020: 06e0 a53d 8a92 083c 80e6 f7bd 2541 8a3c
00000030: 09a8 93bd 5b06 9b3d 2e64 af3d d879 ac3c
00000040: d86b af3c 6533 57bd 5333 2c3d e006 433d
00000050: a962 013d e9e1 05bb 858f 443d d534 acbc
00000060: f68a d9bc 309d afbd 2811 5e3c 22c6 33bc
00000070: 4ce2 bf3c ec57 2fbd 9c2e 19bb db21 d83d
00000080: f4b9 87bd b332 013d 9ae0 313d 4dab a23d
00000090: 547d df3d 3eff 7c3d cad5 5b3d 9be1 093d
000000a0: 9bb1 95bd df8f 113c b746 8e3c 254c 77bc
000000b0: 7cee 653d 69cc b0bd 4360 cabb ee3f 50bd
000000c0: e162 1dbd 12ad f339 a506 8c3d 35b6 0bbe
000000d0: facd 9dbd ab34 3b3d abd1 80bd 5902 86bc
000000e0: a320 c83d 70a7 a93b 2da9 f3bc 821f 88bc
000000f0: 1ec9 0abc e77c 913c 7f25 63bd 48d2 d83d
00000100: 7f2e e5bc 8e6e 4c3d f2a7 9ebc fc9e 593d
00000110: 0222 103d 687e 963d 6405 8f3c 338b 443d
00000120: 82b2 c03b a1a3 9abd d7dc db3d db22 573c
00000130: 25ab d63d 915e 4ebd fe60 8e3d fe0b c13c
00000140: 41d9 833c 86f3 44bd 7794 2bbc eae3 71bc
00000150: 7626 343c 2326 073d 0287 7fbd d38f e33c
00000160: 9af0 21bb 5c60 99bc 5f8c c2bd 7ed1 863d
00000170: d930 65bc 0791 163e f35e ab3b dac1 2a3d
00000180: 318f 093c 83a1 adbd e42c 9fbd c495 2a3b
00000190: 113a c13d 55d0 a43d 9b16 e63b 22b5 b3ba
000001a0: 3890 90bd 2b4e 883d f604 293d bd6b 593c
000001b0: cf57 b2bb f6d7 923c c171 a8bd 7d87 eabd
000001c0: 9dc6 dcbc f8f2 f5bc 8612 62bd 705f 00bc
000001d0: b959 133d 3ec1 afbc 3ae7 1fba 57e9 5abd

rnn.bias_hh_l0 f4 [120]
0.049862247 -0.01410378 -0.0045494004 0.006160322 -0.0067696753 -0.08328617 0.096481234 0.055164684
0.046826556 -0.04472416 -0.011110895 -0.022620402 0.0057816454 -0.030033955 0.036584575 1.7100723e-05
0.016241124 0.03199394 0.033992473 0.015598808 -0.026324024 0.06422829 -0.03741293 -0.014379957
-0.013954231 -0.03187484 -0.005205564 0.029005094 0.011871366 0.034727436 -0.023171814 -0.0070119337
-0.003849305 -0.07315 0.05624313 0.083268635 -0.023213077 0.043279376 0.017163534 -0.05930925
-0.024419576 0.06158763 -0.04707196 0.017068755 -0.0393729 -0.009236821 -0.07029911 0.018594181
0.04398947 -0.022363367 0.00019806645 -0.012225584 -0.029276503 0.014010533 -0.029755143 0.004433747
0.07124684 0.015674882 0.10670912 -0.13533238 -0.016923819 0.034266245 -0.04781812 -0.037285827
0.05781373 -0.010374213 -0.039074104 0.040656693 0.07975447 -0.009132746 -0.078039154 0.1176066
0.103324816 0.06301061 0.0057264753 0.024028935 -7.573739e-05 -0.037925567 0.09802134 -0.052980646
0.07432474 0.009101405 0.024195032 0.120567486 0.008034041 0.0400466 0.010834751 0.045194425
-0.13380384 -0.078505956 0.016231416 0.021404134 -0.08155963 -0.00650433 -0.03354105 -0.02238914
-0.00545587 0.031347964 -0.07929256 -0.054100636 -0.02208889 -0.014222079 -0.023918033 -0.07934336
-0.0042035566 0.007886544 0.07743356 -0.053801056 0.016981358 0.029867634 0.09474557 -0.16179408
0.010245838 0.013983159 0.012155297 0.021708544 0.076804176 -0.022569733 -0.085291974 -0.0025867592
00000000: 5b3c 4c3d 8a13 67bc 2313 95bb 87dc c93b
00000010: 27d4 ddbb f191 aabd f497 c53d 5df4 613d
00000020: 34cd 3f3d ae30 37bd 790a 36bc 6c4e b9bc
00000030: f573 bd3b c509 f6bc b5d9 153d 8673 8f37
00000040: 1b0c 853c 140c 033d b13b 0b3d 2592 7f3c
00000050: 7ba5 d7bc 1f8a 833d 4d3e 19bd e999 6bbc
00000060: 49a0 64bc 318f 02bd 7093 aabb 179c ed3c
00000070: 1e80 423c 5b3e 0e3d d1d2 bdbc 5dc4 e5bb
00000080: 9f44 7cbb abcf 95bd 325f 663d bf88 aa3d
00000090: 5a29 bebc b745 313d 8a9a 8c3c 42ee 72bd
000000a0: 900b c8bc 5043 7c3d 87ce 40bd c6d3 8b3c
000000b0: 7a45 21bd 0956 17bc fbf8 8fbd d352 983c
000000c0: 4d2e 343d 6133 b7bc 0fb0 4f39 d14d 48bc
000000d0: 47d5 efbc 6f8c 653c 0fc1 f3bc f748 913b
000000e0: dde9 913d 9c68 803c 508a da3d 9294 0abe
000000f0: d2a3 8abc c35a 0c3d efdc 43bd 06b9 18bd
00000100: 17ce 6c3d 9af8 29bc 2b0c 20bd a287 263d
00000110: 5056 a33d 83a1 15bc fed2 9fbd bbdb f03d
00000120: f69b d33d b50b 813d 28a5 bb3b 54d8 c43c
00000130: 34d5 9eb8 d757 1bbd 6abf c83d 3c02 59bd
00000140: 9237 983d 0f1e 153c a934 c63c 16ec f63d
00000150: 36a1 033c e707 243d 3d84 313c ca1d 393d
00000160: e003 09be bbc7 a0bd bff7 843c b957 af3c
00000170: bc08 a7bd 4622 d5bb 5762 09bd 6e69 b7bc
00000180: 28c7 b2bb b966 003d 2364 a2bd a198 5dbd
00000190: c3f3 b4bc b903 69bc c0ef c3bc c67e a2bd
000001a0: fdbd 89bb 9036 013c 7c95 9e3d 7f5e 5cbd
000001b0: 7d1c 8b3c f8ac f43c f709 c23d 59ad 25be
000001c0: 29de 273c 9f19 653c 0327 473c 1ed6 b13c
000001d0: 824b 9d3d 29e4 b8bc 8fad aebd 9e86 29bb

rnn.weight_ih_l0_reverse f4 [120, 1]
-0.13034362 0.07692917 0.55286896 -0.13432819 0.040384367 0.104007594 0.17750475 0.25334162
0.028538387 -0.02756464 0.36902502 0.010307515 -0.31982413 -0.18280697 0.09054466 0.034462824
0.06861156 0.02843469 0.26990715 0.109876536 0.11297034 0.027437763 -0.062593184 -0.00048291014
-0.20964292 -0.34394667 0.030474117 0.17981064 0.016982324 -0.19143993 0.27794147 0.0961854
0.31825903 0.0024531626 -0.14340588 -0.5893203 -0.03490629 -0.22094359 -0.019113509 0.15343533
-0.07219251 -0.17736195 0.066670045 0.11461218 0.20106986 0.17192307 0.27535805 -0.09483767
0.051552586 0.13369903 -0.069537446 0.45593932 -0.0698542 0.5446358 0.40095747 -0.05636564
-0.11678925 0.16288783 0.1744511 0.25316507 -0.12873785 0.016261853 -0.047418427 -0.12026287
-0.26730835 0.14998202 -0.014571529 -0.016182706 -0.024515176 0.12806611 0.2371362 -0.4514732
0.077383675 -0.40485656 -0.2336185 -0.16715598 -0.27524585 0.03397459 0.18606797 -0.49782845
0.07824702 0.17842712 -0.0826677 0.17130437 -0.11763597 -0.08747035 0.32563272 -0.28614467
0.032569237 0.20458138 -0.071493946 0.027574532 -0.100834064 -0.2675642 0.14240713 -0.03014325
0.05904202 0.15868372 -0.25019318 0.018780265 -0.14288278 0.055089775 -0.4500516 -0.1199887
-0.026362188 -0.038955707 -0.1609589 0.5587708 -0.05735215 -0.005804211 0.059960466 0.0620453
-0.055566628 -0.019118614 -0.18113875 -0.20947677 0.040441256 -0.35113558 -0.1415605 0.07910919
00000000: cc78 05be 0a8d 9d3d d288 0d3f 548d 09be
00000010: 146a 253d ef01 d53d cec3 353e feb5 813e
00000020: 56c9 e93c 3dcf e1bc d9f0 bc3e dae0 283c
00000030: fdbf a3be c031 3bbe 7b6f b93d e428 0d3d
00000040: 3884 8c3d deef e83c 4531 8a3e f306 e13d
00000050: fe5c e73d 29c5 e03c db30 80bd 1a2f fdb9
00000060: a2ac 56be c719 b0be dba4 f93c 4820 383e
00000070: 841e 8b3c d408 44be 584e 8e3e dafc c43d
00000080: d9f2 a23e 3dc5 203b fed8 12be b2dd 16bf
00000090: e6f9 0ebd 093f 62be ef93 9cbc 271e 1d3e
000000a0: abd9 93bd 5f9e 35be 4e8a 883d cab9 ea3d
000000b0: 42e5 4d3e 9a0c 303e bbfb 8c3e 413a c2bd
000000c0: ce28 533d 66e8 083e a669 8ebd e170 e93e
000000d0: b80f 8fbd 406d 0b3f 4c4a cd3e a8df 66bd
000000e0: 342f efbd 11cc 263e 4fa3 323e da9e 813e
000000f0: dbd3 03be 9437 853c d339 42bd 614c f6bd
00000100: a4dc 88be e394 193e 6cbd 6ebc 9891 84bc
00000110: 0dd4 c8bc c323 033e d5d3 723e 7f27 e7be
00000120: 557b 9e3d 5c49 cfbe b039 6fbe f02a 2bbe
00000130: 06ed 8cbe f128 0b3d 9a88 3e3e 5fe3 febe
00000140: f93f a03d 99b5 363e af4d a9bd 6a6a 2f3e
00000150: 21eb f0bd a823 b3bd 55b9 a63e 8e81 92be
00000160: 5267 053d c87d 513e 6b6b 92bd fce3 e13c
00000170: 1782 cebd 2dfe 88be 2dd3 113e faee f6bc
00000180: 0cd6 713d fc7d 223e 5219 80be 12d9 993c
00000190: dd4f 12be d1a5 613d 2a6d e6be a3bc f5bd
000001a0: 84f5 d7bc 0590 1fbd 69d2 24be 9a0b 0f3f
000001b0: 17ea 6abd 4031 bebb 1b99 753d 3623 7e3d
000001c0: d599 63bd a49e 9cbc 707c 39be 1481 56be
000001d0: bba5 253d 0bc8 b3be 3cf5 10be 0004 a23d

rnn.weight_hh_l0_reverse f4 [120, 120]
-0.5026397 -0.078232504 -0.020713836 -0.01871007 -0.04437748 -0.02386771 0.034349605 0.022141194
0.034027964 0.11698953 -0.072136775 0.05109326 -0.02483106 -0.12921728 -0.02068996 0.10138247
0.002045473 0.049661443 -0.06854451 0.10868534 -0.058877423 0.009007857 0.030822247 0.040585447
0.037715863 0.009859843 -0.074439615 0.11028223 0.0033323928 0.09952668 -0.059740987 -0.0035580152
0.057440776 -0.041079335 -0.0070397104 -0.015264776 0.058371127 0.13718648 0.012524787 -0.08052114
0.041437976 0.08903274 0.031648047 -0.058495052 -0.03277728 -0.019492319 0.11198422 -0.05854481
-0.13397819 -0.12001962 0.012479318 -0.044542138 0.09810835 -0.10313843 0.046867553 0.01746134
0.036846004 -0.012379363 -0.03659199 0.11976511 0.09327971 -0.0051246975 -0.008310779 -0.0964322
-0.028841643 0.042110533 0.036839444 0.04983343 0.058191158 -0.023927514 0.04086273 -0.1217922
-0.015552975 0.0014882833 -0.003875852 0.02095738 -0.032441635 0.047767654 0.046231776 -0.077190116
0.083649024 0.005630559 -0.12214913 -0.039383005 0.00059619255 0.082893655 0.064486474 -0.06355331
-0.022892894 -0.0390151 -0.024580028 -0.009965863 -0.07160893 0.001652785 0.07911207 -0.015982158
-0.07806388 0.012024249 0.046334896 0.029310094 0.0894305 -0.058640435 0.0011199365 0.049906928
-0.019585919 -0.0228339 0.03540332 0.108502306 0.041919123 -0.028377073 -0.013979104 0.018859958
0.02568937 -0.102273755 0.04187837 -0.046299133 0.054072473 0.01437937 -0.08852221 0.054818
0.16467203 -0.86161923 0.021802183 0.14070277 -0.04371844 -0.003429095 -0.08195233 0.05240532
0.08664219 0.046615634 -0.030383458 -0.0021674726 -0.04075001 0.09769314 0.016073845 0.08804941
0.00538629 0.029337851 0.09523013 0.034793265 0.06152365 -0.0446985 0.049938247 0.012029637
-0.08703126 0.03635814 0.016100211 0.032373346 -0.052939523 -0.06667398 -0.14071356 0.0053560194
0.09451328 -0.07095335 -0.05558038 0.018736651 -0.11370685 0.07597086 -0.11164602 -0.0070877993
-0.06002633 0.047490403 0.02954583 0.037343215 0.13485065 -0.019965276 0.039128564 -0.058875807
-0.054715388 -0.088168465 0.03761342 -0.021334194 0.016770301 0.05714946 0.045012966 -0.009914552
0.0060933316 -0.04210245 0.0040524076 -0.079641566 -0.070394166 -0.072485045 0.045826532 -0.023226297
0.012394143 0.08386401 0.033354443 0.07132543 0.024275979 0.08275335 -0.03293406 0.0266241
-0.02897757 0.014673253 0.033976097 -0.036735076 0.0008592671 0.06363888 0.017345449 -0.0067745238
0.007358301 -0.02792196 -0.0984224 0.10365699 0.021790579 -0.017100412 0.027243463 -0.09575774
-0.06699121 -0.04937317 0.0308532 -0.12192202 0.05041669 0.032865115 -0.025892595 -0.013315349
0.10778511 0.012209723 0.09443381 -0.028552357 0.076544896 0.05979243 -0.022947615 0.09493725
-0.0048498907 -0.01211852 -0.020997422 -0.01695047 0.055194028 0.11254327 -0.016422058 0.08996073
-0.03628547 0.03750186 0.05993674 0.14644007 0.001308642 0.11590896 -0.05458082 0.0076803546
0.032833856 0.05074039 0.11646379 -0.087724134 -0.10475924 0.06404731 0.14243208 0.043577984
0.0016049471 0.06715109 -0.015208462 0.07142567 -0.13837977 0.065224074 0.08181089 0.00041095226
00000000: ffac 00bf 5d38 a0bd 10b0 a9bc dc45 99bc
00000010: 29c5 35bd 3786 c3bc 2cb2 0c3d 7361 b53c
00000020: e860 0b3d 3598 ef3d 72bc 93bd 2b47 513d
00000030: 826a cbbc 8951 04be fe7d a9bc 9da1 cf3d
00000040: 580d 063b cc69 4b3d 1061 8cbd 6b96 de3d
00000050: 7429 71bd b195 133c f07e fc3c ed3c 263d
00000060: f37b 1a3d 2e8b 213c cc73 98bd a6db e13d
00000070: 4664 5a3b a5d4 cb3d f7b2 74bd 972d 69bb
00000080: 0547 6b3d ce42 28bd 5fad e6bb 1c19 7abc
00000090: 9016 6f3d 9d7a 0c3e c434 4d3c 44e8 a4bd
000000a0: deba 293d cc56 b63d 62a1 013d 8298 6fbd
000000b0: 7841 06bd 5bae 9fbc fc57 e53d afcc 6fbd
000000c0: 9431 09be d9cc f5bd 0e76 4c3c d171 36bd
000000d0: 08ed c83d 3e3a d3bd 31f8 3f3d 160b 8f3c
000000e0: d6eb 163d d0d2 4abc 7ce1 15bd 6947 f53d
000000f0: 6f09 bf3d 14ed a7bb ef29 08bc 3f7e c5bd
00000100: 4f45 ecbc 187c 2c3d f5e4 163d 241e 4c3d
00000110: da59 6e3d a203 c4bc ae5f 273d 306e f9bd
00000120: e8d1 7ebc 8012 c33a 0202 7ebb d0ae ab3c
00000130: 85e1 04bd 04a8 433d 885d 3d3d da15 9ebd
00000140: 2e50 ab3d 8d80 b83b 5329 fabd 1350 21bd
00000150: ce49 1c3a 26c4 a93d 7c11 843d 3d28 82bd
00000160: e189 bbbc 4cce 1fbd 0e5c c9bc dc47 23bc
00000170: b4a7 92bd 43a2 d83a 8205 a23d 04ed 82bc
00000180: f5df 9fbd 5b01 453c a9c9 3d3d b91b f03c
00000190: 5727 b73d f430 70bd d5ca 923a 356b 4c3d
000001a0: a672 a0bc 290e bbbc 1203 113d 7536 de3d
000001b0: 63b3 2b3d 0977 e8bc 9d08 65bc 3380 9a3c
000001c0: 8472 d23c e774 d1bd a788 2b3d 29a4 3dbd
000001d0: 197b 5d3d 7397 6b3c 224b b5bd d788 603d
000001e0: c99f 283e 1493 5cbf 7e9a b23c 6314 103e
000001f0: 1b12 33bd abba 60bb a0d6 a7bd f6a6 563d
00000200: 7671 b13d 09f0 3e3d bbe6 f8bc 280c 0ebb
00000210: 7ce9 26bd 5713 c83d 4cad 833c 4053 b43d
00000220: 7a7f b03b ef55 f03c 0408 c33d 6283 0e3d
00000230: 3900 7c3d c615 37bd 0c8c 4c3d f417 453c
00000240: 723d b2bd 46ec 143d 97e4 833c ea99 043d
00000250: 1dd7 58bd 5e8c 88bd 3717 10be 8c81 af3b
00000260: 2e90 c13d fd4f 91bd 41a8 63bd 9b7d 993c
00000270: 23df e8bd 9c96 9b3d aba6 e4bd c540 e8bb
00000280: 2bde 75bd 4c85 423d 190a f23c 33f5 183d
00000290: 4a16 0a3e 388e a3bc 4645 203d c227 71bd
000002a0: 3e1d 60bd ab91 b4bd 8810 1a3d 0cc5 aebc
000002b0: df61 893c 8d15 6a3d 845f 383d a570 22bc
000002c0: 92aa c73b 9e73 2cbd 0fca 843b 1e1b a3bd
000002d0: d12a 90bd 0a73 94bd 9ab4 3b3d 1345 bebc
000002e0: ce10 4b3c e5c0 ab3d ab9e 083d 1113 923d
000002f0: 6bde c63c 977a a93d dde5 06bd c91a da3c
00000300: 5e62 edbc 1568 703c 852a 0b3d 8577 16bd
00000310: 7040 613a 1a55 823d 0b18 8e3c d3fc ddbb
00000320: e71d f13b 98bc e4bc af91 c9bd 1e4a d43d
00000330: 2882 b23c 2a16 8cbc af2d df3c a21c c4bd
00000340: b032 89bd 853b 4abd dabf fc3c 41b2 f9bd
00000350: bb81 4e3d 929d 063d b51c d4bc 9f28 5abc
00000360: 71be dc3d 4a0b 483c 8366 c13d a2e6 e9bc
00000370: 92c3 9c3d e8e8 743d a3fc bbbc 766e c23d
00000380: d5eb 9ebb c28c 46bc c902 acbc b6db 8abc
00000390: 2213 623d 167d e63d 8d87 86bc 553d b83d
000003a0: 13a0 14bd 8d9b 193d 3a80 753d 63f4 153e
000003b0: bd86 ab3a ad61 ed3d 2390 5fbd 7cab fb3b
000003c0: cb7c 063d 28d5 4f3d 9184 ee3d b6a8 b3bd
000003d0: 038c d6bd 3c2b 833d b7d9 113e d47e 323d
000003e0: 175d d23a 8386 893d ea2c 79bc 9f47 923d
000003f0: 6db3 0dbe 3394 853d 788c a73d 1475 d739

rnn.bias_ih_l0_reverse f4 [120]
0.09780292 -0.036156543 -0.11690713 0.08811428 -0.03765622 -0.0070695993 -0.038704578 -0.11144775
0.036497016 0.04411997 -0.10138003 0.04090542 0.04788718 0.0545139 -0.02858391 0.006367624
-0.056692373 0.060040563 -0.034182698 -0.077028655 0.005481811 -0.04376876 -0.015189043 0.0003942784
0.15600494 0.08403231 0.011907578 -0.0727985 -0.0053135063 0.14016598 -0.12472066 -0.029583786
-0.004655256 0.0693018 0.05450275 0.09286834 0.0839713 0.03718037 0.057483975 -0.092112094
0.032288708 0.031735685 -0.037342656 -0.084742814 -0.051771376 -0.09183049 -0.04833056 0.115236074
-0.034608364 -0.01920548 0.0069433446 -0.12233898 0.020419784 0.013793911 -0.08177889 -0.056283962
-0.037781052 -0.022957904 -0.088929296 -0.073980086 0.054026242 -0.043995768 0.015253378 0.025847182
0.1388451 -0.06959444 -0.011462858 -0.019507514 0.029863222 -0.012758996 -0.055866383 0.010371125
0.008479769 0.084098004 0.05134896 0.062902786 0.09554968 0.029742736 -0.026607282 0.031885173
0.013577977 -0.0404608 -0.043404184 -0.12803137 0.03420318 0.025262065 -0.14255513 0.08292872
0.048801444 0.014215357 0.08483008 -0.07686053 -0.032347467 0.05198145 0.02588141 0.044678472
0.03468315 -0.018673029 0.121703364 -0.0070595234 0.042141423 -0.06311475 0.17091198 -0.02972401
0.0010626203 0.052030656 0.08110036 -0.066243075 0.04897636 -0.019043518 0.029823143 -0.02035245
-0.0099187475 -0.057878766 0.029671762 0.06345577 -0.03953561 0.06094337 0.047477182 -0.064757824
00000000: e64c c83d e218 14bd 016d efbd 4275 b43d
00000010: 693d 1abd 19a8 e7bb b188 1ebd b83e e4bd
00000020: e57d 153d 24b7 343d 55a0 cfbd 718c 273d
00000030: 5925 443d f849 5f3d ce28 eabc 80a7 d03b
00000040: 4336 68bd 18ed 753d 2803 0cbd 33c1 9dbd
00000050: c3a0 b33b df46 33bd 77db 78bc 27b7 ce39
00000060: c2bf 1f3e 2219 ac3d 0118 433c 6117 95bd
00000070: ec1c aebb ac87 0f3e 8c6d ffbd b259 f2bc
00000080: 1e8b 98bb 1aee 8d3d 473e 5f3d c231 be3d
00000090: 25f9 ab3d 724a 183d 5174 6b3d 44a5 bcbd
000000a0: 2a41 043d 47fd 013d 9df4 18bd a48d adbd
000000b0: 390e 54bd a011 bcbd 44f6 45bd e400 ec3d
000000c0: 80c1 0dbd d054 9dbc ff84 e33b dc8c fabd
000000d0: 6447 a73c dbff 613c b17b a7bd 038a 66bd
000000e0: 4ec0 1abd 3712 bcbc 9020 b6bd df82 97bd
000000f0: 9f4a 5d3d e834 34bd 4ee9 793c 78bd d33c
00000100: 692d 0e3e 8887 8ebd b6ce 3bbc 39ce 9fbc
00000110: b7a3 f43c 1c0b 51bc 26d4 64bd a7eb 293c
00000120: bbee 0a3c 933b ac3d 4953 523d 2dd3 803d
00000130: 8daf c33d 0aa7 f33c 84f7 d9bc 079a 023d
00000140: 2a76 5e3c 39ba 25bd 96c8 31bd a81a 03be
00000150: a218 0c3d 64f2 ce3c f9f9 11be 88d6 a93d
00000160: 06e4 473d 87e7 683c 65bb ad3d 0e69 9dbd
00000170: c77e 04bd 80ea 543d 4005 d43c c600 373d
00000180: eb0f 0e3d 2ef8 98bc 9d3f f93d 9353 e7bb
00000190: 7c9c 2c3d 4e42 81bd 8d03 2f3e c47f f3bc
000001a0: 9f47 8b3a 191e 553d f217 a63d 73aa 87bd
000001b0: 709b 483d 2701 9cbc aa4f f43c 2eba a6bc
000001c0: 3e82 22bc 4912 6dbd 3212 f33c 19f5 813d
000001d0: 17f0 21bd c19f 793d 6f77 423d c09f 84bd

rnn.bias_hh_l0_reverse f4 [120]
-0.0044313413 -0.03807574 -0.1330505 -0.014396574 8.7468434e-05 -0.055385474 -0.08530549 -0.008207872
-0.05858957 -0.020534387 -0.03891894 -0.043757405 0.08721344 0.046152424 -0.065103866 -0.042751808
-0.0038885826 -0.056067865 -0.04823027 -0.033785596 -0.09437566 0.020671012 0.05965047 -0.017233247
-0.012962359 0.07995458 -0.04326826 -0.05182175 0.01871582 0.0056122933 -0.0707074 -0.05255913
-0.10690748 -0.04319456 0.059361335 -5.5172277e-05 -0.067629434 0.10007103 -0.038150944 0.03258332
0.024959771 0.0035561288 0.026564566 0.023618473 -0.109519295 -0.03238568 -0.10196711 -0.03813652
-0.0005769514 -0.04647855 -0.0035933384 -0.05366101 0.0222392 0.011787572 -0.08068573 0.072107956
0.05331386 -0.07634368 -0.035348617 -0.07031043 0.0028193344 -0.0035443993 0.010686613 0.04080229
0.028017765 -0.023785915 0.043586306 0.015702982 -0.009424057 -0.066434786 -0.060850065 0.151644
-0.0576578 0.08533309 0.06932782 0.081526086 0.042028684 -0.07630664 -0.08793561 0.16311084
-0.075923264 -0.11108777 0.12828752 0.028993264 0.01244511 0.006439462 -0.0009674685 -0.005628502
-0.0384536 -0.11695155 -0.045115244 0.008118272 0.06414296 0.076901935 -0.08212793 -0.015531249
-0.03687039 -0.07519582 -0.0003068881 0.024755942 0.013595371 0.021278227 0.03150781 0.107621394
-0.0053624157 -0.034315526 0.042455405 -0.16149737 0.0020708395 0.029996797 -0.070250034 -0.030461032
0.009470878 0.09929932 0.110935114 0.08287567 0.014325641 0.06304759 0.037728686 -0.004420349
00000000: c934 91bb 4ff5 1bbd 643e 08be 9cdf 6bbc
00000010: 426f b738 e1db 62bd a5b4 aebd 4f7a 06bc
00000020: 9efb 6fbd bb37 a8bc 7769 1fbd f73a 33bd
00000030: f69c b23d 530a 3d3d 2d55 85bd 851c 2fbd
00000040: 97d7 7ebb 6ba7 65bd 1b8d 45bd c462 0abd
00000050: 0748 c1bd 4156 a93c 0d54 743d bd2c 8dbc
00000060: 1360 54bc 3abf a33d 0f3a 31bd 0b43 54bd
00000070: eb51 993c 54e7 b73b 0bcf 90bd 3e48 57bd
00000080: 4ff2 dabd c7ec 30bd df24 733d c868 67b8
00000090: 4d81 8abd 0af2 cc3d 2a44 1cbd 1676 053d
000000a0: 6f78 cc3c f10d 693b ef9d d93c 877b c13c
000000b0: a74b e0bd d9a6 04bd 22d4 d0bd 0a35 1cbd
000000c0: 8e3e 17ba 4b60 3ebd 377e 6bbb a6cb 5bbd
000000d0: fc2e b63c a920 413c 8f3e a5bd 56ad 933d
000000e0: a25f 5a3d 135a 9cbd b6c9 10bd eafe 8fbd
000000f0: 95c4 383b 2749 68bb e716 2f3c 4d20 273d
00000100: 8385 e53c aeda c2bc 8e87 323d 8aa3 803c
00000110: 5c67 1abc f60e 88bd eb3d 79bd 9148 1b3e
00000120: 962a 6cbd 1dc3 ae3d befb 8d3d 26f7 a63d
00000130: 4526 2c3d a846 9cbd 9617 b4bd 8706 273e
00000140: a87d 9bbd fc81 e3bd ce5d 033e 4883 ed3c
00000150: 93e6 4b3c 1f02 d33b b69d 7dba 4c6f b8bb
00000160: 8681 1dbd 4b84 efbd c3ca 38bd 8002 053c
00000170: 625d 833d c37e 9d3d b032 a8bd c876 7ebc
00000180: 6805 17bd 4400 9abd d3e5 a0b9 f9cc ca3c
00000190: 1ebf 5e3c ad4f ae3c 550e 013d 9b68 dc3d
000001a0: 34b7 afbb 708e 0cbd b8e5 2d3d 915f 25be
000001b0: ecb6 073b d8bb f53c 40df 8fbd 6a89 f9bc
000001c0: be2b 1b3c 715d cb3d f331 e33d b8ba a93d
000001d0: 18b6 6a3c 181f 813d 6589 1a3d 93d8 90bb

fc.weight f4 [1, 120]
-0.018575015 -0.009216993 0.27317947 0.011198552 0.01034312 5.425294e-05 -0.07241746 -0.013749677
-0.0027118498 -0.018859018 0.032459233 -0.014070648 0.045973785 0.042291023 -0.005573566 -0.009090454
0.003298712 -0.00027226255 -0.25268152 -0.013964128 0.006067251 0.005703153 0.0057860776 0.008884329
0.017452862 0.0051202443 -0.007851486 0.0033021811 -0.0001979053 0.003510257 -0.002017767 -0.047774855
-0.026020564 -0.00355118 0.0050206208 -0.36852458 -0.0063334606 0.040246587 0.036220867 -0.015920362
-0.006700197 0.0049835052 0.007978014 -0.021282662 -0.0011503841 -0.0019153897 -0.023429725 0.00276866
0.012678806 -0.027301064 0.01583254 0.254782 0.002481801 0.3619241 0.03833676 0.005297176
-0.17884454 -0.009415477 0.026787097 0.17435163 -0.012922436 -0.00077726034 0.0021084931 0.040184226
-0.008665295 -0.010484451 -0.002134294 -0.0019116824 -7.683711e-05 0.010286587 -0.011670203 -0.22212559
0.004025971 -0.1303145 0.0056747524 0.008743647 0.026558807 -0.0075000897 -0.032691732 -0.20416863
-0.0058570094 -0.014600125 0.01599467 -0.010743315 -0.003227686 -0.0017903716 -0.020150857 0.013867729
-0.0014448746 -0.038569994 0.010004191 -0.26759627 0.0028103658 0.025209898 -0.017845241 -0.0043364535
-0.0029858684 -0.022036748 0.008647997 -0.0047719856 -0.014956471 0.0064749196 -0.17711975 0.008670107
0.00836019 0.008196856 0.0074101114 0.20230405 0.01777487 0.0056184344 0.0015481648 0.041910276
-0.0023311882 0.0044452334 0.00020358956 -0.021991065 -0.007773158 -0.009793316 -0.0028922223 -0.011982406
00000000: a12a 98bc df02 17bc 2ede 8b3e 227a 373c
00000010: 3176 293c a78d 6338 9b4f 94bd 5346 61bc
00000020: 4ab9 31bb 3a7e 9abc f9f3 043d 9388 66bc
00000030: 024f 3c3d 5a39 2d3d 76a2 b6bb 21f0 14bc
00000040: 342f 583b 76be 8eb9 795f 81be ccc9 64bc
00000050: cacf c63b 84e1 ba3b 2399 bd3b 948f 113c
00000060: 4ef9 8e3c b9c7 a73b 85a3 00bc 6869 583b
00000070: cd84 4fb9 570c 663b 833c 04bb 91af 43bd
00000080: 1429 d5bc eaba 68bb 0584 a43b 41af bcbe
00000090: eb88 cfbb 9bd9 243d 555c 143d 6b6b 82bc
000000a0: 538d dbbb ac4c a33b 37b6 023c fa58 aebc
000000b0: 7cc8 96ba d00d fbba b2ef bfbc 6872 353b
000000c0: c4ba 4f3c 7ba6 dfbc 3eb3 813c c972 823e
000000d0: b6a5 223b 1e4e b93e 0207 1d3d ef93 ad3b
000000e0: 0623 37be 5f43 1abc 9d70 db3c 3c89 323e
000000f0: a0b8 53bc 0fc1 4bba a52e 0a3b 3798 243d
00000100: e2f8 0dbc fac6 2bbc 83df 0bbb 6b91 faba
00000110: 9c23 a1b8 1389 283c 6134 3fbc e474 63be
00000120: 4bec 833b 2a71 05be 46f3 b93b 8341 0f3c
00000130: db91 d93c 50c3 f5bb c4e7 05bd 9511 51be
00000140: 28ec bfbb 5d35 6fbc 4107 833c bb04 30bc
00000150: 9687 53bb e7aa eaba 6913 a5bc 7935 633c
00000160: f261 bdba 92fb 1dbd 9ee8 233c 6102 89be
00000170: 1d2e 383b fd84 ce3c 2f30 92bc cf18 8ebb
00000180: 8fae 43bb 6986 b4bc 54b0 0d3c 515e 9cbb
00000190: fc0b 75bc 902b d43b e15e 35be 110d 0e3c
000001a0: 2ef9 083c 1b4c 063c 85d0 f23b cb28 4f3e
000001b0: 9b9c 913c d81a b83b caeb ca3a 1caa 2b3d
000001c0: d9c6 18bb 52a9 913b a87a 5539 9b26 b4bc
000001d0: fab5 febb 2574 20bc 708b 3dbb da51 44bc
