covid_forecasting/daily/best_models/gruanfis_daily.pth (torch, 5042 bytes, 9 tensors)

memberships.0.c f4 [6]
-0.039033566 0.90872264 0.39957368 1.408986 1.5137434 1.505466
00000000: a9e1 1fbd 0ca2 683f ec94 cc3e a759 b43f
00000010: 58c2 c13f 1cb3 c03f

memberships.0.a f4 [6]
1.6536802 0.61523587 0.9705056 0.06182289 0.1830639 -0.0010157683
00000000: cbab d33f 1980 1d3f 0e73 783f 003a 7d3d
00000010: 1a75 3b3e 8723 85ba

memberships.0.b f4 [6]
1.6387029 -0.023145666 2.4275596 2.2752078 2.0343623 2.1382155
00000000: 04c1 d13f fb9b bdbc 235d 1b40 019d 1140
00000010: fe32 0240 86d8 0840

consequents.linear.weight f4 [6, 1]
1.7947634 -0.55509335 1.057706 -0.28965086 0.2280502 -0.91626704
00000000: cfba e53f 991a 0ebf e962 873f 1e4d 94be
00000010: fe85 693e 7a90 6abf

consequents.linear.bias f4 [6]
0.15398437 0.10124437 0.16304338 -0.039534435 -0.090483025 0.20750114
00000000: 14ae 1d3e 3559 cf3d d8f4 263e dcee 21bd
00000010: 2a4f b9bd 2e7b 543e

recurrent.weight_ih_l0 f4 [18, 6]
-2.4595573 -1.6625916 -1.7387267 0.014590043 0.41565782 -1.1036923 0.26069802 -0.90907264
-0.06524618 0.2938083 -0.9460532 0.085410744 0.7442584 -1.7277645 0.20405033 -1.044475
0.548456 -1.1198347 -1.2418103 4.5788546 -0.7110609 0.5844264 -1.5601084 2.0060694
-0.49581793 0.6953572 -0.6858935 -0.35290545 -1.012697 1.05104 1.0035572 -0.011913038
1.1681644 -0.98888326 1.4323864 -2.0242498 -0.077033475 -1.8720751 -1.1938365 0.41862398
-1.4832573 0.90734726 -0.20394462 2.721952 0.43614042 0.70792675 -0.3754164 0.96656084
1.0076306 5.852521 2.1124141 0.22898397 1.3772154 -0.45108366 -2.019627 1.3062215
-1.6419284 2.0856524 -1.7755425 2.76253 -1.4586098 -0.59657794 -1.0265752 0.64139605
-0.16819017 0.2708296 -1.4351946 -0.48631486 -1.0018525 1.2059402 -0.2769329 0.82234454
-0.6081432 -3.4832432 -1.1478273 0.20190567 -0.0012702096 -0.08745082 1.0157217 -0.9323325
0.35332626 -0.3091751 -0.3286944 -0.18819764 1.7249131 -0.2266505 1.0270263 -0.5772537
0.10410057 -0.9362261 0.88774854 -1.6321685 0.99858224 -1.9198009 0.71392316 -1.4721602
0.54394084 -3.3903904 -0.20365733 -1.8607155 -0.4326994 -0.6519165 0.57843053 -0.75199974
0.34645337 -0.15036213 0.00429748 -0.05547529
00000000: 6369 1dc0 cdcf d4bf 998e debf 130b 6f3c
00000010: 1ad1 d43e ca45 8dbf 367a 853e fcb8 68bf
00000020: ca9f 85bd 0b6e 963e 8b30 72bf d4eb ae3d
00000030: b887 3e3f 6327 ddbf 92f2 503e 5bb1 85bf
00000040: 9d67 0c3f be56 8fbf a4f3 9ebf fa85 9240
00000050: 1608 36bf f89c 153f a2b1 c7bf 7163 0040
00000060: d9db fdbe ee02 323f b796 2fbf 06b0 b4be
00000070: 0ea0 81bf 7b88 863f 9074 803f e72e 43bc
00000080: 6986 953f 7427 7dbf 7058 b73f 4f8d 01c0
00000090: bac3 9dbd 28a0 efbf a2cf 98bf e255 d63e
000000a0: 60db bdbf e947 683f dcd6 50be 7634 2e40
000000b0: cc4d df3e b03a 353f 9436 c0be 8870 773f
000000c0: 0afa 803f da47 bb40 cb31 0740 c67a 6a3e
000000d0: 9848 b03f 70f4 e6be 9241 01c0 4432 a73f
000000e0: b62a d2bf 547b 0540 fa44 e3bf 4bcd 3040
000000f0: bab3 babf 55b9 18bf d166 83bf 8832 243f
00000100: 0b3a 2cbe 2daa 8a3e 75b4 b7bf 43fe f8be
00000110: b43c 80bf 405c 9a3f 26ca 8dbe 2c85 523f
00000120: 46af 1bbf 75ed 5ec0 01ec 92bf 5cc0 4e3e
00000130: 297d a6ba 6a19 b3bd 2b03 823f 58ad 6ebf
00000140: 2ee7 b43e 334c 9ebe a24a a8be e2b6 40be
00000150: f4c9 dc3f 1217 68be 9975 833f e6c6 13bf
00000160: ae32 d53d 84ac 6fbf 7d43 633f e6ea d0bf
00000170: 16a3 7f3f 09bc f5bf abc3 363f bf6f bcbf
00000180: b53f 0b3f 28fc 58c0 8c8b 50be ed2b eebf
00000190: c78a ddbe 00e4 26bf 0614 143f 0e83 40bf
000001a0: 5662 b13e 88f8 19be e0d1 8c3b 0f3a 63bd

recurrent.weight_hh_l0 f4 [18, 6]
-0.22367921 -1.344014 -0.42754525 0.11787546 -0.5545425 0.18587576 -2.4414725 0.11024338
-0.33909848 0.9555927 0.2847559 0.3338778 1.737956 -0.4572639 -0.15875915 -0.8415411
-0.4162194 0.5683479 0.90840447 -0.29974872 -0.273728 -2.0773706 -2.0504642 0.29504254
1.2547667 -0.27121866 -0.54461604 -2.4657795 -1.480287 1.0004662 0.65318173 0.1823489
-0.39811903 3.3747084 0.90218496 1.4181557 -1.353736 -2.5321898 -6.4458675 -0.34624425
-1.0303046 -1.9793642 2.8395462 -0.5263072 5.756798 -1.3060566 -1.4989117 -1.5094769
-3.5813994 0.8019121 -0.13790967 1.607387 3.7657366 3.1790576 0.51080984 -0.13953209
0.63768184 -1.8128068 -0.24241759 -0.47186676 1.9282024 -0.56158537 -0.30866912 -0.53682315
-0.9073687 -0.20085566 0.77276963 0.55508393 0.55785644 -0.7255786 -0.9178965 -2.1775002
-1.3969121 -1.1001499 -0.6275585 0.37588134 -0.18216555 0.21758439 -2.5942037 -0.6160495
0.020991977 -0.4937293 0.0827463 0.26366052 0.69789344 -0.08175101 -0.0076271547 -0.53516936
0.21250445 0.3247979 1.718002 -0.33006462 0.48051998 -1.4809484 0.44370988 -0.17924745
0.32927996 0.6542957 -0.08462557 -1.771772 -1.0343804 -0.3711416 0.22578958 -0.63588816
-0.020685079 -3.1664953 -0.9577812 -1.5285463
00000000: 2a0c 65be a708 acbf 36e7 dabe b068 f13d
00000010: 7ff6 0dbf 3756 3e3e 1641 1cc0 48c7 e13d
00000020: 519e adbe b9a1 743f 86cb 913e 08f2 aa3e
00000030: 5875 de3f 7e1e eabe c291 22be 3d6f 57bf
00000040: b61a d5be 3f7f 113f 328d 683f aa78 99be
00000050: 1426 8cbe a4f3 04c0 ce3a 03c0 d10f 973e
00000060: 329c a03f 2cdd 8abe f56b 0bbf 55cf 1dc0
00000070: 0b7a bdbf 470f 803f eb36 273f acb9 3a3e
00000080: 42d6 cbbe 39fb 5740 98f5 663f 2086 b53f
00000090: 3947 adbf 660f 22c0 8c44 cec0 ed46 b1be
000000a0: 05e1 83bf ce5b fdbf 20bb 3540 12bc 06bf
000000b0: b037 b840 dd2c a7bf 57dc bfbf 8a36 c1bf
000000c0: a635 65c0 1d4a 4d3f 3138 0dbe dbbe cd3f
000000d0: d401 7140 ae75 4b40 6fc4 023f 80e1 0ebe
000000e0: 1e3f 233f 0e0a e8bf 513c 78be 8598 f1be
000000f0: 56cf f63f 0fc4 0fbf e109 9ebe 3e6d 09bf
00000100: 5149 68bf 1bad 4dbe 3bd4 453f fb19 0e3f
00000110: aecf 0e3f 85bf 39bf 44fb 6abf 2a5c 0bc0
00000120: 04ce b2bf b6d1 8cbf ada7 20bf 8573 c03e
00000130: 9b89 3abe 71ce 5e3e 6f07 26c0 6cb5 1dbf
00000140: 5ef7 ab3c 16ca fcbe e476 a93d 83fe 863e
00000150: 25a9 323f 136d a7bd 36ed f9bb dc00 09bf
00000160: c49a 593e e94b a63e 7de7 db3f 3bfe a8be
00000170: b706 f63e b88f bdbf f12d e33e a58c 37be
00000180: 6297 a83e ec7f 273f 2c50 adbd 6dc9 e2bf
00000190: 9466 84bf 4606 bebe 6235 673e 91c9 22bf
000001a0: c173 a9bc dca7 4ac0 2631 75bf 68a7 c3bf

recurrent.bias_ih_l0 f4 [18]
-1.1807793 1.0421917 -1.2517347 0.9149969 0.74244094 -0.07588584 -0.09054282 0.06856909
1.353516 -0.07436823 -1.567162 -0.5868134 -0.63101596 0.5485993 -0.12862122 -0.31338972
0.19272922 0.4006384
00000000: c723 97bf 8a66 853f d838 a0bf 3d3d 6a3f
00000010: 9c10 3e3f 096a 9bbd 846e b9bd f36d 8c3d
00000020: 0340 ad3f 5f4e 98bd c498 c8bf 6739 16bf
00000030: 438a 21bf 0171 0c3f 48b5 03be 9e74 a0be
00000040: cf5a 453e 7a20 cd3e

recurrent.bias_hh_l0 f4 [18]
-1.2908266 0.91645044 -1.1284847 1.3046008 0.46178585 -0.39065492 -0.021528825 0.40381914
1.3581055 -0.68019795 -1.1803753 -0.39368325 0.11506556 0.6171184 0.1779449 0.14015727
1.522309 -0.18197954
00000000: ce39 a5bf 7f9c 6a3f 3072 90bf 29fd a63f
00000010: 326f ec3e ec03 c8be 385d b0bc 62c1 ce3e
00000020: 67d6 ad3f 7421 2ebf 8a16 97bf da90 c9be
00000030: 7ea7 eb3d 79fb 1d3f 3037 363e 6385 0f3e
00000040: 05db c23f d858 3abe
