covid_forecasting/daily/best_models/lstm_daily.pth (torch, 18873 bytes, 5 tensors)

lstm.weight_ih_l0 f4 [120, 1]
0.4427083 -0.0020031806 0.371885 0.16233933 0.38419282 0.32986653 -0.46510196 -0.35268122
0.45644036 0.1186885 -0.03026226 -0.14955002 -0.120332144 0.2016085 -0.44932035 0.23073308
0.4836551 0.15526628 0.016550623 0.24699852 -0.39102197 0.5510109 0.33880398 0.34228852
0.039300274 0.31475785 0.49544033 -0.48147994 0.048635084 -0.08431662 0.12092831 0.09596332
0.022964729 -0.23242918 0.47701868 0.29302955 -0.60963273 -0.5194768 0.3308575 -0.17754965
0.19137967 -0.329694 -0.20066957 0.05438684 -0.21374635 0.17799444 0.55428815 0.0625589
-0.21700315 0.12693068 -0.14395276 0.3010868 0.2903636 0.16511308 -0.0016649254 0.46985552
0.3019863 -0.46035346 -0.049490828 -0.09943758 -0.7091357 0.07998824 -0.7657693 0.91417253
-0.28045654 0.85575557 0.56174767 -0.087032154 -0.44657677 -1.0823915 -0.099132136 -0.11525312
0.009072829 0.71520436 0.23380454 -0.5050454 -0.47391978 0.6228646 -0.8242554 0.23262621
0.73234487 -0.8049299 -0.58698624 -0.46284354 0.12888087 0.9037274 -0.7679582 -0.44122645
0.8560796 0.54920244 0.37124917 0.033190805 0.36691675 -0.057482913 0.58801645 0.6112343
-0.37854764 -0.46175393 0.50814056 0.27765152 0.092649125 -0.14180416 -0.26770544 0.11975264
-0.19763881 0.33254275 0.2224274 0.25062066 -0.08053316 0.2553011 -0.44799975 0.34243324
0.37811977 0.22352311 -0.23136082 0.32057065 0.5226115 -0.4888582 0.08700563 -0.38314465
00000000: aaaa e23e cb47 03bb b667 be3e 483c 263e
00000010: ecb4 c43e 44e4 a83e d821 eebe a292 b4be
00000020: 8db2 e93e f512 f33d 8fe8 f7bc a423 19be
00000030: b370 f6bd 7572 4e3e 510d e6be 4b45 6c3e
00000040: a4a1 f73e 20fe 1e3e 2c95 873c 2eed 7c3e
00000050: 0834 c8be 0d0f 0d3f b777 ad3e 7140 af3e
00000060: 53f9 203d f127 a13e 5baa fd3e 8a84 f6be
00000070: 9535 473d 31ae acbd 43a9 f73d 6b88 c43d
00000080: 8720 bc3c ea01 6ebe cb3b f43e f807 963e
00000090: e410 1cbf 6efc 04bf 2766 a93e 93cf 35be
000000a0: 08f9 433e a7cd a8be 537c 4dbe bcc4 5e3d
000000b0: 53e0 5abe 2d44 363e d4e5 0d3f e11e 803d
000000c0: 1336 5ebe 1efa 013e 5a68 13be 0d28 9a3e
000000d0: 8aaa 943e 6713 293e a039 daba e790 f03e
000000e0: f39d 9a3e 73b3 ebbe e5b6 4abd eea5 cbbd
000000f0: eb89 35bf e0d0 a33d 7509 44bf 3607 6a3f
00000100: 0098 8fbe cc12 5b3f b2ce 0f3f ea3d b2bd
00000110: b6a5 e4be ce8b 8abf ca05 cbbd d409 ecbd
00000120: 34a6 143c a217 373f 756a 6f3e a84a 01bf
00000130: 9da5 f2be 0e74 1f3f 6702 53bf 9135 6e3e
00000140: f47a 3b3f e30f 4ebf bb44 16bf d4f9 ecbe
00000150: 59f9 033e ae5a 673f e998 44bf 6fe8 e1be
00000160: 0828 5b3f 8898 0c3f 5f14 be3e 15f3 073d
00000170: 83dc bb3e 3473 6bbd 3f88 163f da79 1c3f
00000180: ffd0 c1be 036b ecbe 8015 023f 5728 8e3e
00000190: d3be bd3d 1c35 11be b010 89be df40 f53d
000001a0: d461 4abe 0b43 aa3e 02c4 633e 5a51 803e
000001b0: 92ee a4bd d3b6 823e 3960 e5be 6953 af3e
000001c0: ea98 c13e 3ee3 643e dae9 6cbe d621 a43e
000001d0: dec9 053f 9f4b fabe 0230 b23d 892b c4be

lstm.weight_hh_l0 f4 [120, 30]
0.024030585 0.14266038 -0.1514023 -0.062124174 0.09733604 0.11268044 0.11733517 0.1376471
-0.055173587 -0.09816941 -0.07989291 0.15037113 -0.227914 -0.19641984 0.12928812 0.17876002
0.21595593 -0.021480374 -0.0627567 0.12020237 -0.18285513 0.24686414 0.057673924 0.03327465
-0.018873842 -0.0281401 0.18348297 -0.13676135 -0.03212951 0.14141792 -0.106937975 -0.1865537
0.004528641 0.12005018 -0.07949777 0.00023062128 0.2842311 0.04107525 0.0019089186 0.1774332
0.18819086 0.080822214 0.0017092695 0.13262163 -0.03363591 -0.0012265606 0.0970926 -0.25118247
-0.21964176 0.0844111 0.02014592 0.019770844 -0.12825735 -0.13502824 0.029171532 -0.053370833
0.22960755 0.12737297 0.087651 -0.10241832 0.057672 0.018672843 0.08415046 -0.15617564
0.009974923 0.041350476 0.14044112 -0.08145681 0.17665969 -0.0073989006 -0.051108085 0.004620952
0.08177345 0.06836448 0.15125655 -0.014097747 0.2569668 0.010128385 0.0060233437 0.08131375
-0.02107986 0.026039645 0.22415781 -0.04712368 -0.19426362 -0.17646463 0.14390643 0.003284506
0.012502168 -0.1389858 0.094630644 -0.12587348 -0.05167884 0.24917538 -0.02892941 0.0978689
0.08550172 0.34118205 0.020098465 -0.048000176 0.034383975 -0.21587026 -0.094860926 0.0012185554
0.13932393 -0.076917544 0.1286008 -0.076276824 0.049344454 0.032382265 0.109396785 0.11257935
-0.062425118 -0.16385531 -0.32297087 0.093045995 -0.20199572 -0.053833555 0.12927416 0.1587401
-0.17348032 -0.036865838 0.009288876 0.02066814 -0.07381995 0.016488696 0.12638135 -0.07951501
0.1936225 0.009868926 0.118150376 0.22079585 -0.11833704 -0.057927314 0.04505654 0.050057106
0.08246727 -0.117919214 -0.32566908 0.07620801 -0.024731303 0.044923674 -0.14191301 0.10707462
0.060106266 0.15258709 0.12363787 -0.23674867 -0.04003009 0.15171343 -0.07084284 -0.09391685
0.092084594 -0.07666903 -0.10712778 0.16715345 0.23710658 0.0032636593 -0.041916445 0.13272797
0.010313592 0.11951633 -0.08608071 -0.16983789 0.06808097 0.026681593 -0.15328576 0.025304275
-0.01119648 -0.033571273 0.0691309 0.18706928 -0.065567605 0.057259027 -0.17678641 0.075528085
-0.055479787 -0.1369292 0.23339218 0.05853492 0.1688639 0.08229619 0.2967295 0.079617344
0.09646625 -0.043027896 0.08662989 -0.1113813 -0.076221764 -0.1592741 -0.0026447927 0.0048647607
-0.28492013 0.10979841 0.25488704 0.017030865 0.15487063 -0.15946107 -0.07080579 -0.04294044
0.068446875 0.3049499 0.23642965 0.24914482 -0.018689845 -0.27827767 0.1371806 0.046446662
0.16186595 0.05308763 0.36362034 -0.18586332 0.12445429 0.071066484 0.2038402 -0.22086123
0.22626357 0.03652958 0.18042123 0.07117255 -0.015330675 0.25712547 -0.17199539 -0.22652932
-0.22751339 0.14678799 0.11872663 -0.20117629 0.061539195 -0.00029250805 0.08632438 0.22976124
0.20151801 0.11657233 -0.24950948 -0.15463914 0.2638162 -0.25070798 -0.19345984 0.022082347
0.17048867 -0.15442036 0.19546054 0.08997733 0.24082626 -0.12194579 0.30366185 -0.09816651
0.21661891 0.24239115 0.105022974 0.1322342 -0.09159491 -0.22352244 0.14452182 0.026303362
00000000: cadb c43c 9015 123e 3409 1bbe eb75 7ebd
00000010: 1e58 c73d 01c5 e63d 6c4d f03d 5df3 0c3e
00000020: b3fd 61bd 0b0d c9bd e59e a3bd e4fa 193e
00000030: 4a62 69be 4822 49be 1b64 043e de0c 373e
00000040: 8d23 5d3e 9cf7 afbc 9686 80bd a92c f63d
00000050: 603e 3bbe f4c9 7c3e 7e3b 6c3d 004b 083d
00000060: 519d 9abc 1186 e6bc f6e2 3b3e 2b0b 0cbe
00000070: 3c9a 03bd dccf 103e 4c02 dbbd ef07 3fbe
00000080: fe64 943b dedc f53d bacf a2bd eed2 7139
00000090: bd86 913e 853e 283d ae34 fa3a 0cb1 353e
000000a0: 1bb5 403e 1e86 a53d 9109 e03a f7cd 073e
000000b0: cfc5 09bd 8bc4 a0ba 7cd8 c63d fd9a 80be
000000c0: c5e9 60be badf ac3d 0e09 a53c 77f6 a13c
000000d0: e555 03be d844 0abe 23f9 ee3c 609b 5abd
000000e0: 3e1e 6b3e 0f6e 023e 5e82 b33d b2c0 d1bd
000000f0: 7a39 6c3d caf7 983c 1457 ac3d 82ec 1fbe
00000100: dc6d 233c 1e5f 293d cccf 0f3e d4d2 a6bd
00000110: 47e6 343e 7a72 f2bb b656 51bd 5b6b 973b
00000120: d778 a73d ad02 8c3d ffe2 1a3e 3dfa 66bc
00000130: 2791 833e 87f1 253c 785f c53b d387 a63d
00000140: acaf acbc 1851 d53c a089 653e c304 41bd
00000150: 0bed 46be 25b3 34be 355c 133e de40 573b
00000160: e5d5 4c3c 4b52 0ebe b6cd c13d fae4 00be
00000170: 31ad 53bd d527 7f3e 5ffd ecbc 7d6f c83d
00000180: 871b af3d 6aaf ae3e 89a5 a43c d59b 44bd
00000190: 36d6 0c3d 180d 5dbe 7246 c2bd efb7 9f3a
000001a0: efaa 0e3e f286 9dbd eeaf 033e 0637 9cbd
000001b0: 691d 4a3d 44a3 043d 6c0b e03d 0190 e63d
000001c0: 7bb1 7fbd b0c9 27be 705c a5be e68e be3d
000001d0: f7d7 4ebe 9380 5cbd 7260 043e c48c 223e
000001e0: d3a4 31be a200 17bd 5f30 183c 3b50 a93c
000001f0: ea2e 97bd 4d13 873c 1d6a 013e c4d8 a2bd
00000200: fa44 463e 47b1 213c d3f8 f13d 4f18 623e
00000210: b15a f2bd 3145 6dbd 358d 383d ae08 4d3d
00000220: 9ae4 a83d a17f f1bd 19be a6be f212 9c3d
00000230: 4d99 cabc e301 383d a551 11be f049 db3d
00000240: fd31 763d ca3f 1c3e da35 fd3d 3e6e 72be
00000250: 97f6 23bd c45a 1b3e 0d16 91bd 7a57 c0bd
00000260: d996 bc3d a704 9dbd cf65 dbbd 462a 2b3e
00000270: 11cc 723e 1ee3 553b 94b0 2bbd d7e9 073e
00000280: 57fa 283c fac4 f43d 154b b0bd fce9 2dbe
00000290: 096e 8b3d 5b93 da3c f1f6 1cbe e94a cf3c
000002a0: 7171 37bc 0882 09bd 8094 8d3d 178f 3f3e
000002b0: 4f48 86bd 7188 6a3d 7f07 35be 78ae 9a3d
000002c0: c63e 63bd 2b37 0cbe 5cfe 6e3e 50c2 6f3d
000002d0: a8ea 2c3e e88a a83d eeec 973e 6b0e a33d
000002e0: 1990 c53d 053e 30bd 036b b13d e11b e4bd
000002f0: 281a 9cbd c018 23be 4254 2dbb 9268 9f3b
00000300: 0de1 91be fddd e03d 8e80 823e 5084 8b3c
00000310: 6896 1e3e c349 23be a002 91bd 51e2 2fbd
00000320: e02d 8c3d 6522 9c3e 9d1a 723e d21f 7f3e
00000330: 721b 99bc 697a 8ebe 1279 0c3e db3e 3e3d
00000340: 30c0 253e 6a72 593d 722c ba3e f452 3ebe
00000350: e4e1 fe3d 4e8b 913d 7cbb 503e 7229 62be
00000360: a3b1 673e 0aa0 153d 58c0 383e eac2 913d
00000370: 832d 7bbc f3a5 833e 8f1f 30be 4df7 67be
00000380: 45f9 68be 974f 163e f326 f33d 2801 4ebe
00000390: 8610 7c3d c45b 99b9 d6ca b03d 8846 6b3e
000003a0: bd5a 4e3e 79bd ee3d 6a7f 7fbe b959 1ebe
000003b0: eb12 873e cc5c 80be 561a 46be 0ae6 b43c
000003c0: 9594 2e3e 5f20 1ebe cf26 483e 0946 b83d
000003d0: 299b 763e b7be f9bd 9179 9b3e 860b c9bd
000003e0: 59d1 5d3e 6335 783e 4916 d73d 6768 073e
000003f0: 1d96 bbbd 11e3 64be 87fd 133e 267a d73c

lstm.bias_ih_l0 f4 [120]
0.046067115 -0.22875316 -0.040316947 0.24863064 -0.19882938 0.050173447 -0.0967351 -0.61184937
0.0015344582 0.06625569 -0.2823474 -0.06936993 -0.29048952 0.08489379 -0.17607921 -0.19790977
-0.05724527 -0.22517045 -0.06775939 -0.012550844 -0.22526722 0.012881367 -0.042437717 0.036692843
-0.34962338 0.021176403 -0.27404368 -0.35070345 -0.0152212195 -0.25474107 -0.019002004 -0.20817812
-0.12606415 -0.30837053 -0.08260878 -0.112748444 -0.34118566 -0.44856542 -0.09070678 -0.2607577
-0.24126484 -0.21107082 0.023052044 -0.25369462 -0.1381091 -0.18381028 -0.072812796 -0.19571504
-0.18402627 -0.106854536 -0.26269725 0.014558805 -0.24418083 -0.09751869 -0.11201773 -0.116612144
-0.25144377 -0.297078 -0.16256192 -0.3300178 -0.031262692 -0.14979981 -0.07591136 -0.19194898
-0.14618453 0.054682165 -0.110787004 -0.060602892 0.16682205 0.027794259 0.10684084 -0.0088626575
-0.07277373 -0.24049628 -0.009727727 -0.045249116 -0.111067675 -0.038228914 0.06275452 0.026360013
-0.16439578 0.18934314 -0.0164861 -0.06222493 -0.051121533 -0.15365838 0.0569218 0.050573144
-0.066951714 -0.10098396 -0.19866896 -0.07964525 -0.078334756 0.03982548 0.030772671 0.18489225
-0.07295921 -0.38334787 -0.17468552 0.00064448896 -0.07210764 -0.3737173 -0.036865436 -0.045022942
-0.35717058 -0.05564539 0.07721696 -0.12211757 -0.056955855 -0.13945656 -0.32411397 -0.0081874
-0.21247068 0.09144779 -0.21850558 -0.06583727 -0.37424406 -0.17618603 0.26447025 -0.22173254
00000000: dfb0 3c3d 453e 6abe 6223 25bd 0899 7e3e
00000010: ee99 4bbe ac82 4d3d 0d1d c6bd 29a2 1cbf
00000020: e01f c93a 10b1 873d d78f 90be d211 8ebd
00000030: 0bbb 94be ccdc ad3d 1c4e 34be dca8 4abe
00000040: 047a 6abd 1593 66be 6fc5 8abd 0ea2 4dbc
00000050: 73ac 66be 5e0c 533c 2cd3 2dbd 3c4b 163d
00000060: d601 b3be 237a ad3c 744f 8cbe 678f b3be
00000070: 6c62 79bc 6c6d 82be 17aa 9bbc a52c 55be
00000080: f616 01be bee2 9dbe cb2e a9bd a8e8 e6bd
00000090: e3af aebe 5eaa e5be 7ac4 b9bd 0982 85be
000000a0: 210e 77be f322 58be a4d7 bc3c 43e4 81be
000000b0: 796c 0dbe c338 3cbe e01e 95bd 8669 48be
000000c0: 6271 3cbe 8dd6 dabd 4180 86be 0e88 6e3c
000000d0: 8a0a 7abe e1b7 c7bd 8d69 e5bd 59d2 eebd
000000e0: 3dbd 80be 9c1a 98be a276 26be 18f8 a8be
000000f0: 4f0d 00bd 1f65 19be 6a77 9bbd 468e 44be
00000100: 66b1 15be 68fa 5f3d 4ce4 e2bd bd3a 78bd
00000110: 66d3 2a3e c9b0 e33c 5fcf da3d ae34 11bc
00000120: 650a 95bd a844 76be 0b61 1fbc 2357 39bd
00000130: 7377 e3bd ec95 1cbd 7185 803d f4f0 d73c
00000140: 5e57 28be 2be3 413e dc0d 87bc 91df 7ebd
00000150: d064 51bd 9f58 1dbe d526 693d c925 4f3d
00000160: fb1d 89bd aed0 cebd e06f 4bbe 0d1d a3bd
00000170: f96d a0bd 0b20 233d f816 fc3c 6554 3d3e
00000180: a36b 95bd 2c46 c4be c3e0 32be ecf2 283a
00000190: 2cad 93bd e057 bfbe 3600 17bd fa69 38bd
000001a0: 10df b6be 6cec 63bd ed23 9e3d c718 fabd
000001b0: 8b4a 69bd b3cd 0ebe 44f2 a5be 7224 06bc
000001c0: ea91 59be fb48 bb3d edbf 5fbe b1d5 86bd
000001d0: eb9c bfbe 1c6a 34be a568 873e db0d 63be

lstm.bias_hh_l0 f4 [120]
-0.20188914 -0.22564904 -0.1150306 0.115309626 -0.13610914 0.13072541 -0.23853567 -0.3291114
-0.07095929 0.30587676 -0.09887379 -0.14512187 -0.11660369 0.056392267 -0.11655906 -0.13838586
0.06165802 -0.01214885 -0.112304375 -0.09369485 -0.3743962 -0.20722486 -0.05142579 -0.15892273
-0.24600007 0.18382578 -0.031472057 -0.28692594 0.17737459 -0.103436075 -0.18522584 0.042057898
-0.22629787 -0.047109902 -0.07886536 -0.045372706 -0.036970437 -0.31500155 -0.1863159 -0.18969946
-0.18833573 -0.3027005 -0.19055866 -0.09518224 -0.23968495 0.0030071884 0.038225528 0.02986788
-0.017288182 -0.2592872 -0.27994314 -0.16306108 -0.19869643 -0.10524861 -0.009678708 0.15819049
-0.41546133 -0.122470364 0.052233357 -0.2593744 0.1482962 0.13189666 0.20641348 0.01944755
-0.030160656 -0.12150392 -0.020759016 0.09126893 -0.10605634 0.20582066 -0.11395541 0.11811625
0.0009988283 0.04335313 -0.008020556 0.08224605 0.03588151 -0.12744875 0.10560362 -0.11056721
-0.078324266 -0.009104442 0.07410886 0.16059405 0.068992056 0.045311242 0.0494594 0.12450584
-0.088281654 -0.052752476 -0.010164666 -0.037426256 -0.09175685 0.19196886 -0.048772596 0.014880674
-0.07154711 -0.4418727 -0.22758533 -0.021861332 -0.2421994 -0.37680793 -0.12972583 0.0037516882
-0.21159466 0.015954658 -0.2530308 0.049505197 0.11814952 0.025192665 -0.18694381 0.07262118
-0.068260476 -0.23409547 -0.15676264 0.14072756 -0.35430095 -0.17784089 0.03025157 -0.30917194
00000000: 07bc 4ebe 8b10 67be 2a95 ebbd 7427 ec3d
00000010: 3260 0bbe e2dc 053e b242 74be 4a81 a8be
00000020: 1b53 91bd e19b 9c3e 577e cabd d49a 14be
00000030: eacd eebd 94fb 663d 84b6 eebd 06b5 0dbe
00000040: 1f8d 7c3d f80b 47bc d6ff e5bd 16e3 bfbd
00000050: dcb0 bfbe c132 54be d9a3 52bd a4bc 22be
00000060: 71e7 7bbe d33c 3c3e d8e8 00bd f5e7 92be
00000070: afa1 353e 4bd6 d3bd d8ab 3dbe e744 2c3d
00000080: a1ba 67be 50f6 40bd 2984 a1bd bbd8 39bd
00000090: 506e 17bd e247 a1be 98c9 3ebe 9340 42be
000000a0: 15db 40be 8ffb 9abe cf21 43be e8ee c2bd
000000b0: f96f 75be 4014 453b 5f92 1c3d 7cad f43c
000000c0: f29f 8dbc 4bc1 84be b554 8fbe 7cf9 26be
000000d0: 1477 4bbe 958c d7bd 7293 1ebc b0fc 213e
000000e0: 59b7 d4be bed1 fabd a5f2 553d b9cc 84be
000000f0: f6da 173e eb0f 073e 0e5e 533e 7850 9f3c
00000100: 7b13 f7bc 0cd7 f8bd d00e aabc 34eb ba3d
00000110: 1134 d9bd a7c2 523e 7461 e9bd efe6 f13d
00000120: 1eeb 823a 0d93 313d a668 03bc 9e70 a83d
00000130: 7df8 123d ed81 02be b646 d83d 1071 e2bd
00000140: 7968 a0bd cc2a 15bc 63c6 973d c472 243e
00000150: b54b 8d3d 4898 393d f195 4a3d ebfc fe3d
00000160: 03cd b4bd fb12 58bd b389 26bc 464c 19bd
00000170: 04eb bbbd 7c93 443e c6c5 47bd 12ce 733c
00000180: 4b87 92bd 233d e2be 210c 69be 8916 b3bc
00000190: 1f03 78be f8ec c0be d9d6 04be e2de 753b
000001a0: 45ac 58be 58b3 823c 418d 81be f6c5 4a3d
000001b0: 60f8 f13d d960 ce3c 336e 3fbe 6aba 943d
000001c0: 26cc 8bbd b9b6 6fbe 6386 20be e31a 103e
000001d0: ef66 b5be ec1b 36be 24d2 f73c c94b 9ebe

fc.weight f4 [1, 30]
-0.25917032 0.095993534 -0.21305951 0.38723972 -0.33424547 0.4205628 -0.021449782 -0.0017067359
-0.30896276 -0.34182072 -0.16154626 -0.16672024 0.10361004 0.22431357 0.048079398 -0.26455888
-0.29670432 0.27199775 -0.29108176 0.09943079 0.06847486 -0.28971535 -0.22137699 -0.21336174
0.1284406 0.24718753 -0.28449312 -0.028043728 0.25703374 0.15023062
00000000: f9b1 84be 4298 c43d 462c 5abe 4944 c63e
00000010: 3922 abbe 0254 d73e 74b7 afbc 8eb4 dfba
00000020: 5e30 9ebe 2003 afbe 626c 25be b6b8 2abe
00000030: 8031 d43d 75b2 653e e7ee 443d 4374 87be
00000040: a1e9 97be 4a43 8b3e ab08 95be 5fa2 cb3d
00000050: 8c3c 8c3d 9255 94be a6b0 62be 807b 5abe
00000060: ef85 033e ba1e 7d3e 15a9 91be f6bb e5bc
00000070: ed99 833e 0ed6 193e
