covid_forecasting/daily/best_models/mlp_daily.pth (torch, 3953 bytes, 3 tensors)

model.0.weight f4 [121, 1]
0	0x3e475e0e	0.19469473
1	0xbf64d1e0	-0.89382744
2	0x3f1018ed	0.56288034
3	0x3ec60bd4	0.386809
4	0x3f15e4f8	0.58552504
5	0xbf649047	-0.8928265
6	0x3f21a78f	0.631463
7	0xbe9a232c	-0.3010496
8	0xbe81726d	-0.25282612
9	0xbe4d31c4	-0.20038515
10	0x3eab03ae	0.33401245
11	0xbe96fbce	-0.29488987
12	0xbd564a70	-0.052317083
13	0xbf461f7f	-0.7739181
14	0xbf4e7e92	-0.8066188
15	0x3de2ad40	0.11068201
16	0xbeb0f9aa	-0.3456548
17	0xbf6a2a39	-0.91470677
18	0x3eb74d2b	0.35801062
19	0xbec6cf42	-0.3883
20	0x3f390524	0.7227347
21	0x3f30be5d	0.6904047
22	0x3f4726fa	0.7779385
23	0x3f2cfc49	0.67572457
24	0x3f6ce775	0.92540675
25	0x3f0efc62	0.55853856
26	0x3de5798d	0.112048246
27	0xbd9b85f5	-0.0759391
28	0xbe759c2a	-0.23985353
29	0x3f3c1ca2	0.7348119
30	0xbe8737d1	-0.26409772
31	0xbe9b00cf	-0.30274054
32	0x3ed61744	0.41814625
33	0x3f4a7435	0.7908357
34	0xbf58a8d7	-0.8463263
35	0xbf594610	-0.8487253
36	0xbf3db9d4	-0.74111676
37	0xbf638b6b	-0.8888461
38	0x3e8458f8	0.25849128
39	0x3ea9cf00	0.3316574
40	0x3f469e45	0.7758525
41	0xbeae14d6	-0.34000272
42	0xbe2d4aeb	-0.1692311
43	0xbf538dc2	-0.8263818
44	0x3e53a9b7	0.2067021
45	0xbe200674	-0.15627462
46	0x3f745690	0.95444584
47	0x3e0b7f3f	0.1362276
48	0x3ee614a2	0.44937617
49	0xbf4e096b	-0.8048312
50	0xbc3e056c	-0.011597972
51	0x3f4457b9	0.76696354
52	0x3ebddca3	0.37082395
53	0xbee3242c	-0.44363534
54	0x3f0b2e6d	0.54367715
55	0x3f7cd8ce	0.9876832
56	0xbdc5e114	-0.09662071
57	0xbed40fc4	-0.41418278
58	0xbe6aa1b1	-0.22913243
59	0xbdea7ce3	-0.114496015
60	0xbf6ae708	-0.91758776
61	0x3eeeaace	0.4661469
62	0x3eb87936	0.36029977
63	0x3f354fb1	0.70824724
64	0xbd79c64f	-0.060980137
65	0xbf23a764	-0.6392729
66	0xbcde1ed9	-0.027114319
67	0x3f1efa20	0.6210041
68	0xbee8bd60	-0.45456982
69	0x3e9c939f	0.30581376
70	0xbf400097	-0.750009
71	0x3dea80ca	0.11450346
72	0xbc8c4092	-0.017120633
73	0xbf3638c7	-0.71180385
74	0xbf15d2ab	-0.5852458
75	0x3f794277	0.9736704
76	0x3eac5866	0.33661193
77	0x3f602dcf	0.875699
78	0x3e9e448d	0.30911675
79	0xbedb7d46	-0.42869014
80	0xbf378471	-0.71686465
81	0x3f4bcf30	0.7961302
82	0xbf424187	-0.75881237
83	0xbed27085	-0.4110147
84	0xbee48c70	-0.44638395
85	0xbee24b18	-0.44197917
86	0xbda7ab99	-0.081870265
87	0xbf6c8a55	-0.9239858
88	0xbf6fba81	-0.9364396
89	0x3f62f969	0.8866182
90	0xbe981684	-0.29704678
91	0xbf1de996	-0.6168455
92	0x3daaef59	0.08346433
93	0x3e28d1b9	0.16486253
94	0x3f5c8f9c	0.8615663
95	0xbf20a5cc	-0.62752986
96	0x3f3271b1	0.6970473
97	0xbe4695b2	-0.19393042
98	0xbe91a62a	-0.28447086
99	0x3f26fee8	0.65232706
100	0xbda5dcdf	-0.080987684
101	0xbb0612ac	-0.0020457907
102	0xbf05aafb	-0.5221402
103	0xbea19ebb	-0.31566414
104	0x3e0d3751	0.13790633
105	0xbf759428	-0.95929193
106	0xbf3962ff	-0.7241668
107	0xbf022f01	-0.5085297
108	0x3e88cbee	0.26718086
109	0x3ec21bc1	0.379118
110	0x3eb53446	0.35391444
111	0x3e87b06a	0.2650178
112	0x3f424f52	0.75902283
113	0xbef04875	-0.4693028
114	0xbf05a13d	-0.52199155
115	0x3f44d45e	0.76886547
116	0xbf48c950	-0.7843218
117	0xbee388b1	-0.44440225
118	0xbf56c5bf	-0.83895487
119	0xbdca9fd1	-0.09893764
120	0xbf80744d	-1.0035492

model.0.bias f4 [121]
0	0x3e857117	0.26062843
1	0x3f7bb088	0.9831624
2	0x3f49c079	0.78809315
3	0xbeda0fb0	-0.42590094
4	0xbf61045e	-0.8789729
5	0x3f5034d4	0.8133061
6	0x3efc0591	0.49222997
7	0xbe83201b	-0.25610432
8	0x3d888758	0.0666644
9	0x3f0cbcba	0.54975474
10	0x3f21b2dd	0.6316355
11	0xbf5a4273	-0.85257643
12	0x3f0c31c1	0.5476342
13	0xbeaaa760	-0.33330822
14	0xbebb1eee	-0.36547035
15	0x3f7b3594	0.9812863
16	0x3f427887	0.7596516
17	0xbef5be7d	-0.47996894
18	0x3b8d9dfe	0.0043218127
19	0xbf1de704	-0.61680627
20	0x3e5fe87d	0.21866031
21	0xbd8f3801	-0.06993104
22	0x3f6f9cdc	0.93598723
23	0x3f1b15c7	0.60580105
24	0xbe2d1ae0	-0.16904783
25	0xbf396149	-0.7241407
26	0xbf0df187	-0.55446666
27	0x3f1eb693	0.61997336
28	0xbf6d018c	-0.92580485
29	0x3dc841c9	0.097781725
30	0xbf7515b7	-0.9573626
31	0x3e28c3c6	0.16480932
32	0x3e63c791	0.22244097
33	0x3ecd0d0e	0.40049022
34	0x3f5aab72	0.85417855
35	0xbf31b699	-0.69419247
36	0x3f4fe6f5	0.8121179
37	0xbd1dfbc5	-0.038570184
38	0x3f4019a0	0.750391
39	0x3f3a4800	0.72766113
40	0xbf05769a	-0.52134097
41	0xbf0c3a2d	-0.5477627
42	0x3e9b0c08	0.30282617
43	0x3f468897	0.7755217
44	0xbedeb6a8	-0.4349873
45	0xbdaee448	-0.08539635
46	0xbf0f70d7	-0.56031555
47	0x3f6eade7	0.93234104
48	0xbf2c6e63	-0.67355937
49	0xbf6f9976	-0.9359354
50	0x3f03f327	0.51542896
51	0xbe91f21c	-0.28505027
52	0x3e7b0331	0.24512936
53	0x3f77c743	0.96788424
54	0x3f24bdb9	0.64351994
55	0xbea80061	-0.3281279
56	0x3f36aada	0.7135445
57	0x3f4fe6fc	0.8121183
58	0xbefa336a	-0.4886735
59	0x3d6804d6	0.056645237
60	0xbf01b634	-0.50668645
61	0xbe0c6146	-0.13708982
62	0x3ed26f50	0.4110055
63	0x3e514494	0.20436317
64	0x3c8470fe	0.01616716
65	0xbd804fe2	-0.062652364
66	0x3f50b2a5	0.8152259
67	0xbf08b3a7	-0.5339913
68	0x3f753a69	0.9579225
69	0x3f749c8c	0.9555137
70	0x3eb73325	0.35781208
71	0x3f45853e	0.77156436
72	0x3f517720	0.81822395
73	0xbbd81417	-0.006594192
74	0x3e1c43ff	0.15260313
75	0x3f230d56	0.63692224
76	0x3f67094d	0.90248567
77	0x3e494034	0.19653398
78	0xbef74768	-0.48296666
79	0xbf386a63	-0.72037333
80	0x3f0afbd2	0.542905
81	0x3ea8f0ad	0.3299612
82	0x3f5b941f	0.8577289
83	0x3e7c5e59	0.24645366
84	0x3f470688	0.7774434
85	0x3f09716b	0.5368869
86	0xbe155921	-0.14584781
87	0xbf3e421f	-0.7431964
88	0x3d1206b3	0.03565092
89	0x3f5d95d6	0.86556756
90	0xbb9d2c81	-0.004796565
91	0xbecb70aa	-0.39734393
92	0x3f6957d1	0.9114962
93	0x3ee455e1	0.4459677
94	0xbf1b940d	-0.6077278
95	0xbf336f8c	-0.7009208
96	0x3f01afbe	0.50658786
97	0xbf36eb8a	-0.71453154
98	0xbe47580c	-0.19467181
99	0xbf33795b	-0.7010705
100	0x3f054e62	0.5207273
101	0x3f51c2f0	0.81938076
102	0x3d312d69	0.043256197
103	0x3f031aa7	0.51212543
104	0xbae2f5bf	-0.001731567
105	0x3f2ea825	0.6822532
106	0x3f1bdf8f	0.60888
107	0x3e9b39e4	0.30317605
108	0x3f542c21	0.82879835
109	0xbf5c60a7	-0.8608498
110	0x3e9aeac2	0.3025723
111	0xbf2af29c	-0.6677644
112	0xbf6c9086	-0.92408025
113	0x3e6c5dfd	0.23082729
114	0xbed54a8d	-0.4165844
115	0x3eace566	0.33768767
116	0xbe1fb230	-0.15595317
117	0xbf418fac	-0.7560985
118	0x3f007712	0.50181687
119	0x3dbb4b38	0.09145206
120	0x3f53a603	0.8267519

model.2.weight f4 [1, 121]
0	0x3d132409	0.035923038
1	0x3d7fb18e	0.06242519
2	0xbd9e1fb5	-0.077208914
3	0x3d7f3de1	0.06231487
4	0xbc757ad4	-0.014982898
5	0xbce289fa	-0.027653683
6	0xbc259860	-0.01010713
7	0xbd9a7bcb	-0.07543143
8	0xbd8b3087	-0.06796365
9	0xbce13ffe	-0.027496334
10	0x3db06edc	0.08614895
11	0x3da1c711	0.07899297
12	0xbcb60411	-0.022218736
13	0xbd46fead	-0.04858272
14	0xbd705f79	-0.0586848
15	0xbd11cf22	-0.035597928
16	0x3a22c405	0.0006209019
17	0x3b579d73	0.0032900244
18	0xbafa4a3b	-0.0019095609
19	0xbd27cd02	-0.040966995
20	0x3c9d4a83	0.019200569
21	0xbcec7ccd	-0.028868103
22	0x3d8dc964	0.06923178
23	0xbcdfc321	-0.027314724
24	0x3dde1c5e	0.10845254
25	0xb6f5408c	-7.3090832e-06
26	0x3b4db366	0.0031387447
27	0xbc978a91	-0.01849869
28	0xbda673aa	-0.0812753
29	0x3d6cf8fa	0.05785463
30	0xbc87acc8	-0.01656188
31	0x3d046f41	0.032332662
32	0xbd7bc2ac	-0.06146495
33	0x3c1a8806	0.009431845
34	0xbc5e21c6	-0.013557857
35	0xbca82fcf	-0.02053061
36	0xbbe843a3	-0.007088141
37	0xbdd45cab	-0.103692375
38	0xbd9c557c	-0.07633492
39	0x3da082fb	0.078374825
40	0xbd4696e3	-0.04848374
41	0xbd6d5867	-0.057945635
42	0x3d541ef5	0.051787335
43	0x3c9b4a93	0.018956458
44	0x3cb44a67	0.022008134
45	0xbdc5af9e	-0.09652637
46	0x3d86e797	0.06587141
47	0x3d84e2ec	0.064885944
48	0xbd485521	-0.04890931
49	0x3c939dba	0.018019546
50	0xbd9d04a7	-0.07666903
51	0x3d34deb2	0.04415769
52	0xbcac2546	-0.021013867
53	0xb9e49e7a	-0.00043605623
54	0x3dab6edb	0.083707534
55	0x3dff292f	0.12459027
56	0xbd99e328	-0.0751403
57	0x39e74b53	0.00044115874
58	0x3d499f23	0.04922403
59	0xbc420b60	-0.011843532
60	0x3cc86495	0.024462024
61	0x3c436e52	0.011928158
62	0xbca7c5b3	-0.020480013
63	0xbc5eb034	-0.013591815
64	0xbdfd116b	-0.12356838
65	0xbd0032e2	-0.031298526
66	0xbb89b899	-0.004202914
67	0xbd11f7bd	-0.035636652
68	0xbd9b5581	-0.07584668
69	0xbb7a0317	-0.0038148814
70	0xbd3e8003	-0.0465088
71	0x3d79cd76	0.06098696
72	0xbd64f696	-0.055899225
73	0x3d7370fb	0.05943392
74	0xbd7fcf2e	-0.06245344
75	0x3c9aa798	0.018878743
76	0xbb89663e	-0.0041930964
77	0x3c7e560c	0.015523445
78	0xbdada6e5	-0.08479098
79	0x3c44f01b	0.012020136
80	0xbd1e454b	-0.0386403
81	0xbd82472a	-0.0636123
82	0xbd2b43e2	-0.041812785
83	0xbdb968ff	-0.090532295
84	0x3d9acaec	0.075582355
85	0xbd1ad6ed	-0.037802625
86	0xbd715bc7	-0.058925416
87	0x3cf17e6d	0.02947923
88	0xbc3e6cd9	-0.011622631
89	0xbbba809d	-0.0056916014
90	0x3bbde2a3	0.0057948395
91	0x3d56f3b2	0.0524785
92	0x3d2a1236	0.041521274
93	0x3cf75ad6	0.030194681
94	0x3dab8c79	0.083764024
95	0xbdab3e19	-0.083614536
96	0x3d806780	0.06269741
97	0xbd87b801	-0.06626893
98	0x3d21056b	0.039311808
99	0xbd9e1e89	-0.07720668
100	0x3d6c257c	0.057652935
101	0xbc572e38	-0.013133578
102	0xbc6e34b5	-0.0145389335
103	0xbcc82790	-0.024432927
104	0xbd58134a	-0.05275277
105	0xbdbbfc3d	-0.0917897
106	0xbd851bd8	-0.064994514
107	0x3cb561e8	0.022141412
108	0xbcef8662	-0.029238883
109	0xbc533cfa	-0.012892956
110	0x3c49344c	0.012280535
111	0xbd7c6996	-0.061624132
112	0xbd2a73e2	-0.04161442
113	0x3d2eebe0	0.042705417
114	0x3c82b24a	0.015954155
115	0x3da818ac	0.08207831
116	0xbd56ed16	-0.052472197
117	0xbd12dcb5	-0.035855014
118	0xbd19b007	-0.03752139
119	0x3d990f0f	0.07473575
120	0xbd91c627	-0.07117873
