covid_forecasting/daily/best_models/ranfis_daily.pth (torch, 4244 bytes, 9 tensors)

memberships.0.c f4 [5]
-0.038321503 0.5129474 1.416847 1.5477296 1.5611514
00000000: 02f7 1cbd 8550 033f 3e5b b53f 011c c63f
00000010: cfd3 c73f

memberships.0.a f4 [5]
-0.05464433 0.939322 0.020307321 0.14485306 0.0043704864
00000000: bcd2 5fbd 6877 703f 8a5b a63c 5c54 143e
00000010: 4c36 8f3b

memberships.0.b f4 [5]
1.5861602 3.2580318 1.8491812 1.9518253 1.9839723
00000000: 4c07 cb3f 9883 5040 f8b1 ec3f 69d5 f93f
00000010: cef2 fd3f

consequents.linear.weight f4 [5, 1]
-0.98451155 1.002125 0.34751695 0.31820765 1.6197191
00000000: f308 7cbf a245 803f beed b13e 1dec a23e
00000010: f552 cf3f

consequents.linear.bias f4 [5]
-0.78814405 -0.9907411 -0.23314013 0.44186273 -0.077353895
00000000: cfc3 49bf 35a1 7dbf 49bc 6ebe d53b e23e
00000010: b86b 9ebd

recurrent.weight_ih_l0 f4 [5, 5]
-0.33643422 -0.28311536 -0.54873264 -0.0279932 -0.12138292 -1.4160148 -0.05379382 -0.36669767
1.1140203 2.001566 -0.6933469 -0.12671399 -0.31884915 0.6151208 0.8171911 -0.024385706
-0.24763353 -0.32618687 -0.32944813 0.29665357 -0.28206253 0.40739614 0.48888606 -0.31980917
0.03355007
00000000: 1b41 acbe 7ff4 90be be79 0cbf ff51 e5bc
00000010: 9c97 f8bd f93f b5bf e956 5cbd ccbf bbbe
00000020: 3898 8e3f a819 0040 2f7f 31bf 50c1 01be
00000030: 3240 a3be 8f78 1d3f 7033 513f 88c4 c7bc
00000040: a593 7dbe f701 a7be 6dad a8be fae2 973e
00000050: 806a 90be 3a96 d03e 464f fa3e 07be a3be
00000060: cc6b 093d

recurrent.weight_hh_l0 f4 [5, 5]
-0.75248563 0.37904182 -0.12626646 0.0004713781 -0.15399326 -0.32421684 0.53908503 0.06433992
0.074053615 0.044802763 0.5422198 0.3760837 0.07612352 -0.07047118 -0.047115218 0.21107723
-0.19332638 0.17370334 -1.2042837 -0.34678352 0.13460974 0.21797155 -0.07779319 0.9425512
-0.3524991
00000000: e6a2 40bf c511 c23e ff4b 01be 4c23 f739
00000010: 69b0 1dbe c0ff a5be 7a01 0a3f a6c4 833d
00000020: 6ca9 973d 1a83 373d ebce 0a3f 0b8e c03e
00000030: a6e6 9b3d 3253 90bd e3fb 40bd a124 583e
00000040: 5af7 45be 4adf 313e f825 9abf 9c8d b1be
00000050: 23d7 093e ef33 5f3e 0952 9fbd 094b 713f
00000060: c37a b4be

recurrent.bias_ih_l0 f4 [5]
-0.02781685 0.8904325 0.21749818 -0.13149913 -0.23478827
00000000: 2ae0 e3bc 62f3 633f d8b7 5e3e b5a7 06be
00000010: 566c 70be

recurrent.bias_hh_l0 f4 [5]
0.2723049 0.67543226 -0.19097134 -0.042450387 0.297284
00000000: 8c6b 8b3e 21e9 2c3f fe8d 43be 75e0 2dbd
00000010: 9c35 983e
