covid_forecasting/daily/best_models/rnn_daily.pth (torch, 47021 bytes, 5 tensors)

rnn.weight_ih_l0 f4 [103, 1]
-0.010703851 0.17709243 -0.008905642 -0.11006333 -0.33471027 0.04969249 0.16072197 0.05912283
0.058831565 0.14296344 -0.33121878 -0.15468545 0.050901175 -0.19030242 -0.19165888 0.011929436
-0.4105695 -0.29560468 0.030762719 -0.19026722 0.11668775 -0.2407137 -0.013742644 -0.20959108
-0.22041065 0.18885845 0.19061711 0.042429 -0.16220632 -0.23044634 -0.17086624 -0.15962887
-0.35618466 -0.15079033 0.004427394 -0.0801655 0.023994846 -0.02615473 0.079405904 -0.36985707
-0.056280997 0.14939708 -0.3542841 -0.14855908 -0.3096621 -0.18472025 -0.15565272 0.1320542
-0.025677366 -0.19109944 0.13342412 0.10752535 -0.17792681 -0.05784448 -0.23880275 -0.10600638
-0.44008365 -0.14199916 -0.04198024 -0.33277228 0.2412186 0.21027435 -0.042185955 0.3470366
-0.14573973 -0.0328468 0.1998048 -0.00045670144 -0.075284034 -0.05047325 -0.10512253 -0.039943837
-0.038067423 -0.022177394 0.15833898 0.08722318 -0.0043094237 -0.28062382 0.053182397 -0.3985127
-0.35826242 0.36427203 0.003947326 0.43780026 -0.15712915 -0.08260489 0.09038926 0.01738114
-0.06315434 -0.03286073 0.15006323 0.16824938 -0.024563367 0.018001068 0.41055977 0.13581078
-0.21835054 0.09433539 0.39689943 -0.03453455 -0.0045037842 -0.22900303 -0.2251967
00000000: 345f 2fbc b857 353e f8e8 11bc e268 e1bd
00000010: 255f abbe 5a8a 4b3d 4d94 243e c82a 723d
00000020: 5ef9 703d 0265 123e 8295 a9be dd65 1ebe
00000030: c07d 503d a3de 42be 3a42 44be ae73 433c
00000040: 2a36 d2be 7f59 97be 1902 fc3c 69d5 42be
00000050: fdf9 ee3d a77d 76be d428 61bc 0b9f 56be
00000060: 54b3 61be 1c64 413e 2231 433e 08ca 2d3d
00000070: 6a19 26be 20fa 6bbe 8ff7 2ebe c075 23be
00000080: d65d b6be c868 1abe ac13 913b cf2d a4bd
00000090: d790 c43c 7242 d6bc 909f a23d e85d bdbe
000000a0: e786 66bd 8cfb 183e ba64 b5be df1f 18be
000000b0: 088c 9ebe 4e27 3dbe 6d63 1fbe 3739 073e
000000c0: 5759 d2bc 92af 43be 55a0 083e 4036 dc3d
000000d0: 7232 36be 55ee 6cbd b588 74be df19 d9bd
000000e0: a552 e1be 3a68 11be 79f3 2bbd 2161 aabe
000000f0: 0202 773e 2952 573e 2ecb 2cbd c8ae b13e
00000100: cc3c 15be 5e8a 06bd a199 4c3e 6e71 efb9
00000110: 842e 9abd 0abd 4ebd 7b4a d7bd 269c 23bd
00000120: 96ec 1bbd 5ead b5bc 9d23 223e 11a2 b23d
00000130: 1136 8dbb edad 8fbe c9d5 593d db09 ccbe
00000140: 2c6e b7be dd81 ba3e 9258 813b 5b27 e03e
00000150: 77e6 20be c12c a9bd 011e b93d e462 8e3c
00000160: 1057 81bd f998 06bd 2daa 193e 9149 2c3e
00000170: 1d39 c9bc fa76 933c e434 d23e fb11 0b3e
00000180: 4997 5fbe ea32 c13d 6736 cb3e 1a74 0dbd
00000190: 7b94 93bb c57f 6abe f799 66be

rnn.weight_hh_l0 f4 [103, 103]
-0.06388746 -0.013017608 -0.17238462 0.14440691 -0.04027525 0.00078858 -0.04463864 -0.105576776
0.11628455 -0.106578834 -0.017930655 -0.03851399 0.06350756 0.111268535 -0.029722417 0.06621087
-0.206628 -0.010042683 0.032980513 0.0024195267 -0.016950263 -0.05456645 0.08117384 -0.05690956
-0.05778869 -0.05661093 -0.15544651 0.12808323 0.07214374 0.059013452 -0.017961469 0.05343565
0.13979344 0.08979242 0.078550406 0.0653759 0.03137103 -0.11383957 -0.061961174 0.08616586
-0.09072572 0.06945179 0.11518882 -0.060625818 -0.028082304 0.010211754 0.12405232 0.0455007
0.003146404 0.0950005 -0.017906034 0.06254729 0.13204814 -0.10305642 0.0076068505 -0.05353486
0.021862164 -0.076289184 -0.131538 0.06082447 -0.013870328 -0.1478652 -0.013159944 0.051215265
0.056874134 -0.062049452 -0.09123091 0.10220287 0.08146801 0.061860584 -0.059542537 0.10630294
-0.036274236 -0.07059117 0.05385136 -0.0524855 -0.052343413 0.02058194 0.01005978 -0.021657843
0.0070021795 -0.079346396 0.00042095262 0.18373878 0.02047387 0.04795715 -0.08046678 -1.3221079e-06
-0.013599619 0.004912837 -0.07925226 0.003553508 0.011968294 -0.071828574 0.039658643 -0.016650993
-0.08286103 0.043395296 0.07056141 0.102595024 -0.042261355 0.0012547337 -0.078546196 -0.06825502
-0.07896915 0.015994309 -0.08614659 0.03537593 0.03240644 0.05455808 0.06516597 -0.023512043
0.028556451 -0.00552792 -0.14175354 0.005919959 -0.10806989 -0.049547046 0.040241953 0.059742693
-0.0032687616 -0.13428926 -0.008519614 -0.005467109 -0.071524404 -0.052666515 -0.09786695 -0.12849484
-0.1092738 0.036555856 -0.006650751 -0.17973784 -0.053856537 0.10739921 0.034566276 -0.041415624
-0.11075166 0.016029391 -0.09588523 -0.016012993 0.085181616 0.080521956 -0.053316783 0.004234965
0.034620665 -0.03064976 -0.06573959 0.12029756 -0.0142591195 -0.0702839 -0.06842637 0.115626976
-0.038510125 -0.09505683 0.12367449 0.0044633998 -0.037586484 -0.093506925 0.031452414 0.036004607
0.031676713 -0.0009642085 -0.017047804 0.13699162 0.07192638 0.028890628 -0.017963288 0.020758372
-0.0019868598 0.029785257 0.022532457 0.05413669 0.073165104 0.07240632 -0.052161887 0.13577232
0.11998869 -0.08131261 -0.06212817 -0.015155378 -0.077630326 0.016566917 -0.0828018 0.021531103
0.018303275 0.079853654 0.020077769 -0.1358521 -0.051259886 0.07138067 0.01567456 0.05728743
-0.020624392 0.09089589 0.05539764 0.0015427568 0.011047493 0.04533743 -0.10037575 0.06346201
0.0340665 -0.0876582 -0.115781814 -0.0036339196 0.04471892 -0.06846444 -0.11449234 0.17005134
-0.4039566 -0.06911793 -0.122866705 -0.014972428 0.14287634 0.033053875 -0.02556486 0.10934621
-0.16137455 -0.05224506 -0.0010530873 -0.087753326 -0.100552194 -0.05980697 -0.046466198 -0.106110364
0.02969333 -0.21120806 -0.0777501 -0.031979755 -0.07735768 0.069710284 -0.038705897 -0.08536202
0.071737655 0.01854489 -0.11995071 -0.11000399 -0.1327356 0.050621856 -0.143599 0.0076064616
-0.046426557 0.04928252 0.22063145 -0.16995911 0.044352114 -0.10641138 -0.052351713 -0.0962359
0.026447836 0.13660099 0.08201784 0.06067562 0.071451806 0.1146015 0.13107301 0.0042254888
00000000: 6ed7 82bd ce47 55bc 9885 30be 68df 133e
00000010: a9f7 24bd b5b8 4e3a 02d7 36bd a338 d8bd
00000020: 9826 ee3d 0146 dabd 4fe3 92bc d8c0 1dbd
00000030: 4010 823d c2e0 e33d 6d7c f3bc 9199 873d
00000040: 4a96 53be 118a 24bc 9316 073d ec90 1e3b
00000050: 47db 8abc 1281 5fbd 783e a63d 001a 69bd
00000060: d5b3 6cbd dde0 67bd 5f2d 1fbe 4028 033e
00000070: 19c0 933d 17b8 713d ee23 93bc 57df 5a3d
00000080: 0326 0f3e 17e5 b73d 09df a03d cde3 853d
00000090: e97e 003d b824 e9bd 00cb 7dbd ba77 b03d
000000a0: 68ce b9bd bd3c 8e3d 1ee8 eb3d c752 78bd
000000b0: dc0c e6bc 334f 273c 250f fe3d f15e 3a3d
000000c0: e633 4e3b 9f8f c23d adaf 92bc cb18 803d
000000d0: a137 073e 3f0f d3bd e342 f93b 5f47 5bbd
000000e0: 4818 b33c 813d 9cbd e6b1 06be 1423 793d
000000f0: 5f40 63bc fa69 17be ce9c 57bc 19c7 513d
00000100: daf4 683d 9127 7ebd 45d7 babd bd4f d13d
00000110: b3d8 a63d 8661 7d3d e0e2 73bd 5bb5 d93d
00000120: 4b94 14bd 1a92 90bd 3e93 5c3d 09fb 56bd
00000130: 0c66 56bd 759b a83c c7d1 243c ca6b b1bc
00000140: 8a72 e53b 5d80 a2bd 4eb3 dc39 0526 3c3e
00000150: d1b8 a73c b76e 443d c4cb a4bd 4873 b1b5
00000160: f0d0 5ebc ddfb a03b 024f a2bd f9e1 683b
00000170: aa16 443c dc1a 93bd 1a71 223d aa67 88bc
00000180: 0bb3 a9bd 44bf 313d 8082 903d 571d d23d
00000190: 3e1a 2dbd e075 a43a d4dc a0bd 4ac9 8bbd
000001a0: 94ba a1bd 7f06 833c a06d b0bd 5ae6 103d
000001b0: 9dbc 043d 4b78 5f3d bc75 853d 549c c0bc
000001c0: 38ef e93c 8e23 b5bb d727 11be 37fc c13b
000001d0: bf53 ddbd d8f1 4abd bfd4 243d c1b4 743d
000001e0: b838 56bb 2083 09be da95 0bbc 6f25 b3bb
000001f0: 637b 92bd d8b8 57bd 786e c8bd 2794 03be
00000200: f1ca dfbd 98bb 153d 8bee d9bb 320d 38be
00000210: ac98 5cbd 1ef4 db3d 5e95 0d3d 6ea3 29bd
00000220: c4d1 e2bd 1250 833c 7a5f c4bd ae2d 83bc
00000230: b373 ae3d b2e8 a43d b362 5abd 76c5 8a3b
00000240: 66ce 0d3d 3515 fbbc 7aa2 86bd 915e f63d
00000250: 159f 69bc 01f1 8fbd 2023 8cbd d6cd ec3d
00000260: cbbc 1dbd 28ad c2bd 0d49 fd3d b641 923b
00000270: 49f4 19bd 8f80 bfbd 3fd4 003d 9179 133d
00000280: 71bf 013d f0c2 7cba d6a7 8bbc 8847 0c3e
00000290: 234e 933d 0aac ec3c bf27 93bc 760d aa3c
000002a0: fa35 02bb 3600 f43c fd95 b83c 6fbe 5d3d
000002b0: 96d7 953d c449 943d b4a7 55bd e607 0b3e
000002c0: a1bc f53d 3a87 a6bd 1c7a 7ebd 434e 78bc
000002d0: a6fc 9ebd 58b7 873c fd93 a9bd ff61 b03c
000002e0: c0f0 953c 508a a33d 227a a43c d01c 0bbe
000002f0: e3f5 51bd 0730 923d ef67 803c 39a6 6a3d
00000300: 7cf4 a8bc a027 ba3d a3e8 623d 5436 ca3a
00000310: 8b00 353c beb3 393d cd91 cdbd 5ff8 813d
00000320: 5089 0b3d 2486 b3bd 041f edbd 0e27 6ebb
00000330: 302b 373d 1637 8cbd f67a eabd f021 2e3e
00000340: 66d3 cebe b48d 8dbd 8aa1 fbbd ea4e 75bc
00000350: 2d4e 123e 8063 073d 666d d1bc e8f0 df3d
00000360: 5f3f 25be ebfe 55bd bf07 8aba 04b8 b3bd
00000370: 4fee cdbd 27f8 74bd 5753 3ebd 6450 d9bd
00000380: 6d3f f33c ed46 58be 723b 9fbd 34fd 02bd
00000390: b46d 9ebd 44c4 8e3d 138a 1ebd 48d2 aebd
000003a0: 31eb 923d 74eb 973c b8a8 f5bd c649 e1bd
000003b0: d7eb 07be dd58 4f3d 9e0b 13be a03f f93b
000003c0: c629 3ebd 78dc 493d 36ed 613e c309 2ebe
000003d0: 90aa 353d 36ee d9bd c06e 56bd 5417 c5bd
000003e0: 22a9 d83c 21e1 0b3e f8f8 a73d 0087 783d
000003f0: 5355 923d 31b4 ea3d 0138 063e f875 8a3b

rnn.bias_ih_l0 f4 [103]
-0.04069649 -0.121208735 -0.045273878 -0.019495893 0.09146103 0.017390797 0.03242598 0.03366737
0.06067509 -0.112063475 0.033750318 -0.059730306 -0.0020278266 0.07996773 0.05642273 0.05137016
0.10769462 0.05541484 -0.03382829 -0.0011087838 -0.046860125 0.06982327 -0.022543872 0.11216164
0.013992509 -0.098206446 -0.0027652064 -0.04174338 0.039459135 0.059826467 0.12957965 -0.08721812
0.061508458 -0.03639112 0.029977083 -0.016000193 0.013914925 -0.047415044 -0.0338418 0.0018290452
0.07945282 -0.068691604 0.03329489 -0.048146915 0.0023813844 -0.008855879 -0.008226346 -0.047115494
-0.0082842205 0.015668372 0.10564449 0.024982259 -0.07087995 0.13014068 -0.005194412 -0.020921519
0.14753982 0.06625636 -0.10853304 0.10513765 -0.037608776 -0.0736813 -0.03761726 -0.05780543
-0.020786298 0.017032849 -0.047706667 -0.16223766 -0.062518105 0.056268573 0.036720116 0.1087778
0.06702419 -0.07134322 0.0015816947 0.002557038 -0.097244866 -0.06126621 -0.10044305 0.01778025
-0.015580007 -0.032386817 0.030904485 -0.05175713 -0.09498368 -0.1661404 0.018223956 0.0992829
0.079511985 -0.059995078 -0.05810958 -0.10823338 -0.1366314 -0.12523825 -0.051817458 -0.0733289
0.005114653 0.0945033 -0.1005472 -0.08782429 0.12396961 0.00020412996 0.11292381
00000000: 5db1 26bd 493c f8bd 1a71 39bd dab5 9fbc
00000010: ec4f bb3d 2577 8e3c 1bd1 043d cce6 093d
00000020: 7186 783d 8981 e5bd c63d 0a3d c4a7 74bd
00000030: 49e5 04bb 1fc6 a33d 851b 673d 8469 523d
00000040: ff8e dc3d acfa 623d 888f 0abd 9c54 91ba
00000050: 67f0 3fbd 81ff 8e3d edad b8bc 00b5 e53d
00000060: d640 653c 7620 c9bd 7738 35bb 1bfb 2abd
00000070: e79f 213d 990c 753d 87b0 043e 6a9f b2bd
00000080: 4bf0 7b3d db0e 15bd 8092 f53c d612 83bc
00000090: 6dfb 633c 4736 42bd b39d 0abd 93bc ef3a
000000a0: 29b8 a23d 2fae 8cbd 3960 083d b335 45bd
000000b0: 0011 1c3b 4018 11bc ccc7 06bc 2dfc 40bd
000000c0: 8aba 07bc f55a 803c 235c d83d 98a7 cc3c
000000d0: 8229 91bd 9943 053e e335 aabb 9b63 abbc
000000e0: ae14 173e 6ab1 873d 9246 debd 6952 d73d
000000f0: a90b 1abd 39e6 96bd 8e14 1abd 63c5 6cbd
00000100: 0748 aabc 7988 8b3c 1168 43bd a121 26be
00000110: 7e09 80bd e079 663d d567 163d e5c6 de3d
00000120: fb43 893d 651c 92bd de50 cf3a fb93 273b
00000130: 5128 c7bd 47f2 7abd 16b5 cdbd e3a7 913c
00000140: 4943 7fbc 0aa8 04bd 672b fd3c 49ff 53bd
00000150: ce86 c2bd b620 2abe 684a 953c d554 cb3d
00000160: 2ed7 a23d 66bd 75bd 5004 6ebd 76a9 ddbd
00000170: 1ae9 0bbe 753e 00be 8b3e 54bd 762d 96bd
00000180: d298 a73b f28a c13d b1eb cdbd 39dd b3bd
00000190: c7e3 fd3d b80b 5639 9944 e73d

rnn.bias_hh_l0 f4 [103]
0.078956135 -0.028490558 -0.045830756 0.07768041 0.04919375 0.03504353 -0.044248518 0.017992863
0.013249008 -0.058604233 0.12681563 0.06603156 -0.026381139 0.01121631 0.06719858 -0.019579131
0.068320476 0.017308174 -0.13872536 0.060696848 -0.096213974 0.043439306 -0.061911877 -0.023243573
-0.11116387 -0.044354882 0.009248484 -0.12757659 0.0710884 0.06652487 0.03525955 -0.008620288
0.07568216 0.04396772 0.09123674 -0.099750265 -0.06489362 -0.04142812 -0.029221913 0.01383621
0.013450859 0.06613008 0.015254579 0.01802993 0.092109755 -0.13642491 0.09805725 -0.008990941
-0.017611034 0.060531486 0.008383952 -0.0047838893 0.020398956 0.073853746 -0.009024468 -0.13384785
-0.021511642 -0.062571764 -0.1328069 0.034265637 0.12024406 0.107397415 0.04105767 -0.10590589
-0.034738276 -0.09910031 -0.075357914 -0.063143104 -0.0747108 0.055946253 0.085634105 0.027586158
0.16320881 0.022991596 -0.07259314 0.02860518 -0.12699637 0.094679594 0.022779515 0.0051220288
0.11916719 -0.039053205 0.09632234 0.030600252 -0.061889235 -0.0049921665 0.07688952 0.08124899
-0.024968658 0.03442603 -0.054467227 -0.084764406 0.041420184 -0.031434994 -0.10699605 -0.052463986
-0.08931149 -0.055212066 -0.03936556 0.03812444 -0.006122337 -0.040542904 0.0035315766
00000000: c1b3 a13d 0865 e9bc 08b9 3bbd e816 9f3d
00000010: 637f 493d ce89 0f3d ef3d 35bd c565 933c
00000020: 5e12 593c fe0a 70bd f5db 013e 8e3b 873d
00000030: 421d d8bc 9dc4 373c 699f 893d 6a64 a0bc
00000040: 9beb 8b3d dfc9 8d3c 050e 0ebe 429d 783d
00000050: d50b c5bd 6aed 313d 4f97 7dbd 4e69 bebc
00000060: e2a9 e3bd 77ad 35bd f486 173c 70a3 02be
00000070: cc96 913d 313e 883d 516c 103d 1c3c 0dbc
00000080: 40ff 9a3d 7f17 343d 54da ba3d de49 ccbd
00000090: f2e6 84bd 88b0 29bd cb62 efbc 45b1 623c
000000a0: fe60 5c3c 356f 873d 57ee 793c 81b3 933c
000000b0: 0aa4 bc3d f9b2 0bbe 3dd2 c83d bd4e 13bc
000000c0: 0445 90bc ddef 773d d85c 093c 2cc2 9cbb
000000d0: b61b a73c a240 973d 5ddb 13bc 690f 09be
000000e0: 2f39 b0bc a025 80bd 88fe 07be 205a 0c3d
000000f0: 8542 f63d 2df3 db3d 162c 283d 30e5 d8bd
00000100: b949 0ebd 1af5 cabd 4055 9abd 2c51 81bd
00000110: fa01 99bd e627 653d ef60 af3d 5efc e13c
00000120: 3620 273e df58 bc3c b6ab 94bd 6955 ea3c
00000130: 560b 02be 60e7 c13d 1b9c ba3c b1d6 a73b
00000140: ed0d f43d 41f6 1fbd a644 c53d 61ad fa3c
00000150: 917f 7dbd 5495 a3bb 4178 9d3d df65 a63d
00000160: 128b ccbc 4f02 0d3d 0719 5fbd f698 adbd
00000170: 36a8 293d fbc1 00bd bf20 dbbd 7ae4 56bd
00000180: f1e8 b6bd 0c26 62bd c83d 21bd 5f28 1c3d
00000190: e39d c8bb 5110 26bd 0672 673b

fc.weight f4 [1, 103]
-0.017005611 0.033065513 -0.034380443 0.023614155 -0.09826327 0.00013248056 0.019642275 -0.0844397
-0.031172637 0.005515722 -0.08012514 -0.082528606 0.011450646 -0.00702511 -0.012737517 -0.003257262
-0.23173504 -0.07560865 -0.027198285 -0.032743245 -0.07861715 -0.10599145 -0.021477764 -0.05798931
-0.04884835 0.010121646 0.03695583 -0.058181655 0.016985886 -0.029695623 0.0059281816 -0.071734674
-0.053060412 0.08307229 -0.06615743 -0.024342244 -0.030499885 0.03808327 -0.07147613 -0.12399084
0.00018769855 -0.012643553 -0.1305089 -0.03645647 -0.104774475 -0.051555064 -0.025004324 0.012878338
-0.047859896 -0.06514011 0.00479707 0.025794353 -0.0034666366 -0.015753714 -0.024049146 -0.0070409495
-0.22039191 -0.02611169 -0.085755385 -0.07987857 0.054589707 0.023433434 0.027020415 0.09612629
-0.035966218 -0.018900385 0.090147674 0.03096196 0.039777573 0.037128173 -0.0019041782 0.05677568
-0.05929472 -0.0046261814 0.056931965 0.0033120262 -0.049822737 -0.021385672 -0.020306947 -0.13883114
-0.13091652 0.0641002 0.02435586 0.23793295 0.006639606 0.05737312 0.060848966 -0.01747141
0.053839818 0.042829685 -0.0093488665 0.04165043 -0.10297413 0.011881841 0.20859563 0.04601144
-0.03272386 0.03946938 0.15340534 -0.0015186392 0.035017565 -0.010195788 -0.0014003873
00000000: 5a4f 8bbc b46f 073d 82d2 0cbd 7972 c13c
00000010: 413e c9bd 7bea 0a39 d6e8 a03c b9ee acbd
00000020: c25d ffbc 3bbd b43b a618 a4bd c204 a9bd
00000030: 7e9b 3b3c e532 e6bb 05b1 50bc ca77 55bb
00000040: f34b 6dbe b5d8 9abd f0ce debc c81d 06bd
00000050: 0702 a1bd 0c12 d9bd 23f2 afbc 3386 6dbd
00000060: 3515 48bd 43d5 253c ff5e 173d e34f 6ebd
00000070: fc25 8b3c 3c44 f3bc 3141 c23b a1e9 92bd
00000080: e055 59bd ce21 aa3d 8c7d 87bd 6369 c7bc
00000090: e5da f9bc 34fd 1b3d 1462 92bd e9ee fdbd
000000a0: f2d0 4439 e826 4fbc 20a4 05be 6153 15bd
000000b0: 0094 d6bd 672b 53bd ded5 ccbc aaff 523c
000000c0: bd08 44bd 2e68 85bd bd30 9d3b ae4e d33c
000000d0: 8330 63bb ef0d 81bc b702 c5bc c4b7 e6bb
000000e0: 6bae 61be 2fe8 d5bc 85a0 afbd 6097 a3bd
000000f0: 7599 5f3d 79f7 bf3c eb59 dd3c dcdd c43d
00000100: 5051 13bd fbd4 9abc 589f b83d f0a3 fd3c
00000110: cfed 223d b613 183d 9e95 f9ba 9e8d 683d
00000120: 05df 72bd 3997 97bb 7e31 693d 940e 593b
00000130: ed12 4cbd 0131 afbc c15a a6bc c029 0ebe
00000140: fb0e 06be f746 833d f185 c73c b2a4 733e
00000150: 0d91 d93b 1400 6b3d c43c 793d 3420 8fbc
00000160: 2487 5c3d 2e6e 2f3d fd2b 19bc a499 2a3d
00000170: 1ae4 d2bd 0eac 423c 189a 553e 7e76 3c3d
00000180: 7409 06bd a5aa 213d 4a16 1d3e 130d c7ba
00000190: 946e 0f3d 3c0c 27bc 338d b7ba
