wavefunction_approximation/data_200/gaussian_200.pth (torch, 2938 bytes, 6 tensors)

memberships.0.mu f4 [3]
-3.0081904 -0.002933075 3.015427
00000000: 3186 40c0 d538 40bb c2fc 4040

memberships.0.sigma f4 [3]
1.3359069 0.23916033 0.8925491
00000000: fffe aa3f 72e6 743e 197e 643f

memberships.1.mu f4 [3]
-1.9153763 -0.0073245047 0.4007877
00000000: 0d2b f5bf 6602 f0bb 0c34 cd3e

memberships.1.sigma f4 [3]
2.6421618 0.21259469 3.5099401
00000000: 2e19 2940 6cb2 593e dca2 6040

consequents.linear.weight f4 [9, 2]
0.037142947 0.58028793 2.4303684 -0.011520069 0.07047616 -0.4132545 -0.001699086 0.7528055
0.43379536 -0.013046617 -0.015746303 -0.38100624 -0.01285954 0.43218893 -0.19439892 -0.016281404
-0.06980039 -0.5737325
00000000: 3423 183d c08d 143f 288b 1b40 acbe 3cbc
00000010: ce55 903d 1896 d3be deb3 deba dcb7 403f
00000020: 6d1a de3e 7ac1 55bc 64fe 80bc 4013 c3be
00000030: d2b0 52bc de47 dd3e 8310 47be 9460 85bc
00000040: 82f3 8ebd 22e0 12bf

consequents.linear.bias f4 [9]
0.2700105 3.3294623 0.09261878 0.95693827 0.1246476 -0.4989938 -0.9470477 0.25501108
0.97387546
00000000: d13e 8a3e e915 5540 eaae bd3d e8f9 743f
00000010: 3e47 ff3d 1e7c ffbe b871 72bf d090 823e
00000020: e74f 793f
