wavefunction_approximation/data_300/sigmoid_300.pth (torch, 2928 bytes, 6 tensors)

memberships.0.c f4 [3]
0.08437412 0.6750494 3.008451
00000000: 57cc ac3d 0ad0 2c3f 768a 4040

memberships.0.a f4 [3]
16.997149 9.628074 5.3808336
00000000: 29fa 8741 970c 1a41 ca2f ac40

memberships.1.c f4 [3]
-0.059364952 -0.24476288 0.17758822
00000000: aa28 73bd 1fa3 7abe b0d9 353e

memberships.1.a f4 [3]
8.849543 5.599538 5.608564
00000000: ba97 0d41 6a2f b340 5b79 b340

consequents.linear.weight f4 [9, 2]
-0.11094646 -0.19176656 -0.008535922 0.0007493396 0.1156067 0.044996772 -1.0156609 0.022291169
-0.10624668 0.04044176 1.0903455 -0.10725497 4.386764 1.3828714 -1.8765495 -0.15487106
-6.6872277 -0.96856165
00000000: e637 e3bd 745e 44be 40da 0bbc 546f 443a
00000010: 35c3 ec3d 894e 383d 2d01 82bf f89b b63c
00000020: dc97 d9bd 42a6 253d 7190 8b3f 7ea8 dbbd
00000030: 5f60 8c40 ee01 b13f c632 f0bf 8596 1ebe
00000040: c5fd d5c0 a8f3 77bf

consequents.linear.bias f4 [9]
2.692825 0.25686002 -2.7013881 -1.1516471 -0.06265391 1.290543 -0.7706705 -4.4559035
-2.9354868
00000000: 3f57 2c40 2883 833e 8be3 2cc0 2c69 93bf
00000010: b150 80bd 8330 a53f a94a 45bf c396 8ec0
00000020: 04df 3bc0
