wavefunction_approximation/data_100/gaussian_100.pth (torch, 2938 bytes, 6 tensors)

memberships.0.mu f4 [3]
0	0xc003d7ed	-2.060054
1	0xbd93fe8d	-0.07226286
2	0x4003d7ed	2.060054

memberships.0.sigma f4 [3]
0	0x3fb1ff52	1.3906043
1	0x3e84de57	0.25950882
2	0x401c56eb	2.442805

memberships.1.mu f4 [3]
0	0xc005be40	-2.089737
1	0x40010004	2.015626
2	0x4003d7ed	2.060054

memberships.1.sigma f4 [3]
0	0x3f4aa469	0.7915712
1	0x3f8a8247	1.0821007
2	0x3f454f6d	0.7707432

consequents.linear.weight f4 [9, 2]
0	0xbe386620	-0.18007708
1	0xbe32044b	-0.1738445
2	0x3f81ac5c	1.0130725
3	0xbf7a3609	-0.977387
4	0xbfa38565	-1.2775084
5	0x3ec578b1	0.38568643
6	0xbdd371df	-0.103244536
7	0x3cd6da62	0.02622718
8	0xbf532be0	-0.8248882
9	0x3e95fd35	0.29294744
10	0x3f913d2b	1.1346792
11	0x3f139074	0.5764229
12	0xbdea7931	-0.11448897
13	0xbbef7647	-0.007307801
14	0xbf3ab8d9	-0.72938305
15	0x3ddcdc05	0.10784153
16	0x3f6ebc67	0.9325623
17	0x3ee143c8	0.43997025

consequents.linear.bias f4 [9]
0	0xbf22566f	-0.6341314
1	0x3f305d5d	0.6889246
2	0x3e82c5e2	0.25541598
3	0x3d882dee	0.066493854
4	0xbe0dc591	-0.13844897
5	0xbf744447	-0.9541668
6	0x3e3a5669	0.18197025
7	0x3faf63d6	1.3702343
8	0xc01e1805	-2.470216
