wavefunction_approximation/data_100/sigmoid_100.pth (torch, 2928 bytes, 6 tensors)

memberships.0.c f4 [3]
0	0xbea956f4	-0.33074152
1	0xbf542a93	-0.82877463
2	0x3f86972a	1.0514882

memberships.0.a f4 [3]
0	0x41003492	8.012835
1	0x40f685a9	7.703816
2	0x4117d5fb	9.489741

memberships.1.c f4 [3]
0	0xbe60b266	-0.21943054
1	0xbdb6661c	-0.089061946
2	0x3ed90b19	0.4239128

memberships.1.a f4 [3]
0	0x40a8e496	5.2779036
1	0x40fd655f	7.9186244
2	0x40921b00	4.565796

consequents.linear.weight f4 [9, 2]
0	0x3d60fd5a	0.054929115
1	0xbf092232	-0.535678
2	0x3e87c05d	0.2651395
3	0xbf091ff0	-0.5356436
4	0xbea9ef82	-0.33190542
5	0x3fa38302	1.2774355
6	0x3e22b1aa	0.15888086
7	0xbe11044a	-0.14161792
8	0x3fc482ee	1.5352457
9	0xbf06399d	-0.5243166
10	0xbfd7bdd2	-1.6854804
11	0x3ed87cbf	0.42282674
12	0xbdfc782a	-0.12327607
13	0x3f359faf	0.7094678
14	0xbfd8f082	-1.6948397
15	0x3f28183d	0.65661985
16	0x3fb30c8f	1.3988208
17	0xbfda0148	-1.7031641

consequents.linear.bias f4 [9]
0	0xbf1050a9	-0.5637308
1	0xbf003cb6	-0.5009264
2	0x3f5f7a13	0.87295645
3	0x3dc661d8	0.09686631
4	0x402909cd	2.6412232
5	0xc017322d	-2.3624375
6	0x3ec02b2e	0.37532943
7	0xbff4067b	-1.9064478
8	0x402133ae	2.5187793
