protein_crystals/anfis2.pth (torch, 3513 bytes, 6 tensors)

memberships.0.c f4 [3]
0	0x3dc062b8	0.09393829
1	0x3f008ef0	0.50218105
2	0x3f0025e2	0.50057805

memberships.0.a f4 [3]
0	0x419eb833	19.839941
1	0x41a259d7	20.293867
2	0x41a0c41e	20.09576

memberships.1.c f4 [5]
0	0x3e6f32c1	0.23359205
1	0x3f36cba6	0.7140449
2	0x3ee1c95b	0.44098935
3	0x3f5fa47d	0.87360364
4	0x3f80708b	1.0034345

memberships.1.a f4 [5]
0	0x42223fb9	40.56223
1	0x4220c061	40.18787
2	0x421f475c	39.819687
3	0x4220d7e0	40.210815
4	0x421f2319	39.784275

consequents.linear.weight f4 [30, 2]
0	0x3da77afd	0.08177755
1	0x3f36f947	0.7147412
2	0x3e961b49	0.29317692
3	0x3f058f67	0.5217194
4	0xbf37ce99	-0.7179962
5	0x3db3f09f	0.08786129
6	0x3e600f16	0.21880755
7	0x3ef0b0a5	0.4700977
8	0xbd156a5f	-0.036478397
9	0xbef1780d	-0.47161904
10	0x3fa320cc	1.2744384
11	0x3dae8117	0.08520716
12	0x3d3df4bf	0.046375986
13	0xbdb25fa6	-0.0870965
14	0x3f5126ee	0.81700027
15	0x3daa0819	0.08302326
16	0x3de48a64	0.111592084
17	0x3c3e7d21	0.011626513
18	0x3dd3c36b	0.103400074
19	0x3e8bd7d6	0.27313107
20	0xbf91b6dd	-1.138393
21	0xbf6fbc83	-0.9364702
22	0x3f068104	0.5254061
23	0x3fa94b8b	1.3226179
24	0xbf8a7f01	-1.0820009
25	0xbf63f9e9	-0.8905321
26	0x3ea5f889	0.3241618
27	0x3e0ebb03	0.13938527
28	0xbf313e2b	-0.69235486
29	0xbfb39478	-1.4029684
30	0x3fb2e76c	1.3976874
31	0x3dd4cf84	0.10391143
32	0x3e08735a	0.13325253
33	0xbe822215	-0.25416628
34	0x3e3b7203	0.18305211
35	0x3f4f0d78	0.80879927
36	0xbe49590d	-0.19662876
37	0x3e7a44cb	0.24440305
38	0x3ec4acfd	0.3841323
39	0x3dd4cf5d	0.10391114
40	0xbf50f3a7	-0.81621784
41	0xbfa839dc	-1.3142657
42	0x3fa6e2ea	1.3037999
43	0x3fe07da4	1.7538342
44	0xbe82715e	-0.25477117
45	0xbf86aad3	-1.0520881
46	0x3f892dbf	1.0717086
47	0x3f5e9642	0.86948025
48	0xbf073b71	-0.52825075
49	0xbfab228a	-1.3369915
50	0x3e3fdeed	0.18737383
51	0x3f21ff7e	0.63280475
52	0xbf82d12e	-1.0220087
53	0x3dd5ba0d	0.10435877
54	0x3f2eed74	0.68331075
55	0x3f44cc7c	0.7687452
56	0xbdf07542	-0.11741115
57	0xbed4e365	-0.41579738
58	0x3f64f953	0.8944294
59	0xbdca92e5	-0.09891299

consequents.linear.bias f4 [30]
0	0x3f132115	0.57472354
1	0xbf81a464	-1.0128293
2	0x3e57a8d3	0.21060495
3	0xbe71bf95	-0.23608239
4	0x3eb267ae	0.34844726
5	0xbe8ee606	-0.2790987
6	0x3ecc8690	0.39946413
7	0xbe6dab0f	-0.23209785
8	0xbf03ec1a	-0.5153214
9	0xbea801e7	-0.3281395
10	0xbe047d34	-0.12938386
11	0x3f8021c8	1.0010309
12	0x3e22b324	0.15888649
13	0xbd7e1442	-0.062031038
14	0xbfba83c6	-1.4571464
15	0x3e4f6e4d	0.2025692
16	0xbf58bcf6	-0.8466333
17	0x3f2849cc	0.65737605
18	0xbd966e23	-0.07345226
19	0x3f6a092e	0.9142026
20	0xbfb4a7fa	-1.4113762
21	0x3f106d03	0.5641634
22	0xbeaf79a5	-0.34272495
23	0x3edd3a2c	0.43208444
24	0xbf06f5f0	-0.5271902
25	0x3f49deae	0.7885541
26	0xbd969973	-0.07353487
27	0xbd92288d	-0.07136641
28	0xbf42af9c	-0.7604921
29	0x3f1e85f2	0.61923134
