protein_crystals/anfis.pth (torch, 3944 bytes, 8 tensors)

memberships.0.c f4 [3]
00000000: 85a1 8cbb 6c3f 1b3f 8e70 803f
-0.0042917156 0.6064365 1.0034349

memberships.0.a f4 [3]
00000000: aea9 173e edfa b33e 0f3c 4e3e
0.14810821 0.3515238 0.20140098

memberships.0.b f4 [3]
00000000: fa08 0640 d8d1 f53f 7de9 0040
2.094298 1.9204664 2.014251

memberships.1.c f4 [7]
00000000: 6f10 61bb 179e ea3d 8d75 963e e289 e93e
00000010: 7b24 303f 2b3c 703f 8e70 803f
-0.003434207 0.114559345 0.2938656 0.4561301 0.68805665 0.9384181 1.0034349

memberships.1.a f4 [7]
00000000: 1488 973c b0cb c03c f90d 873c c73c 1c3d
00000010: 1566 963d c9c3 cc3d 5de1 723c
0.018497504 0.023534626 0.016486155 0.0381439 0.07343689 0.099982806 0.014824239

memberships.1.b f4 [7]
00000000: a32e 0340 92d6 0240 17d6 0540 812c 0540
00000010: 5f62 0840 bfc7 0640 65ad 0440
2.0497215 2.0443463 2.091192 2.0808413 2.131004 2.1059415 2.0730832

consequents.linear.weight f4 [63, 2]
00000000: 2c80 93bc fa24 163f 19d8 cbbe d61f 903e
00000010: 7bc5 df3e b0eb 323f 20be 04bf 6f9e 773e
00000020: 38ca 353e d3bb 96be 2e2b c83e e72a 853e
00000030: eeac 2f3f 2fa1 d9be d544 e93d 72fd 15bf
00000040: 5141 273e 4199 e23e e28c 05bf 1a90 1a3f
00000050: 65de 8a3e ceb1 46be ea99 3c3f d26f ba3d
00000060: 7dac 01bf f35f 0abf 89d6 cd3e aa7f 11bf
00000070: 8410 41be de98 193f f907 ad3e 231a 173f
00000080: eafe 633e 4df7 4a3d 6127 c43e a2c3 95be
00000090: ba55 b33e d97e d6be c808 09be 3bbc dbbd
000000a0: 7a3f eebe 03ea cdbd 452c e8bd 4427 c5bd
000000b0: 1bea d03e 8bb2 fc3e e350 c4be 8075 2c3f
000000c0: 202d 093f dd0c 1ebe e613 eb3e a6e6 8ebe
000000d0: b208 213f e38c 6abd 853c 123f 062f 1d3f
000000e0: 14bb e53e f8ad 753e cb4b 813d d7d8 19bf
000000f0: 1762 533e 4bd0 203f e480 ec3e 388a 4a3d
00000100: 6276 f7be 9034 19bd 43ee 99be f75e 8cbc
00000110: fb51 2bbf 260f 8ebe a0c7 243e ebfb 113f
00000120: 3151 04bf fc5a 3dbf b5e4 2d3e 66f5 623f
00000130: 0c1a 543e 3e55 7b3e 8b64 51bf bf4f 0abe
00000140: 0b08 bdbb 79f3 8a3e 365c c13e 442f 043f
00000150: 6003 a93e 1453 003f e16e 5dbe c191 ebbd
00000160: e1ff 2abf bf07 fcbe 6def 08bf afea e93e
00000170: d5f8 963e 874e 1ebf ad4e 093f 2508 30bf
00000180: ce24 c83d ec71 1dbf a872 0d3f becd b5be
00000190: c087 f6be 2100 9c3e db3f c03b b58a 1c3f
000001a0: d496 fe3e b873 af3e bb70 653c cdcc ddbd
000001b0: cfaf 06bf 93e2 e2be 23dd 15bf 1c3b 883e
000001c0: d4bd 353e 66b1 a4be 28f9 f63e c04b c3be
000001d0: ebfc 5a3f ef5a 573f 7540 513c 3adb 35bf
000001e0: 48ca 183e aec5 8fbd 5b90 80be ab37 a6be
000001f0: bbbb 1bbf 1aa5 f1bb
-0.018005453 0.5865017 -0.39813307 0.2814929 0.43705353 0.6989088 -0.5185261 0.24181531
0.17752922 -0.29440174 0.39095443 0.26009294 0.68623245 -0.42505786 0.11390082 -0.5858985
0.1633351 0.44257548 -0.52168095 0.6037613 0.271228 -0.19403765 0.73672354 0.09103359
-0.5065382 -0.54052657 0.4020274 -0.56835425 -0.18853956 0.5999888 0.33795145 0.59024256
0.22265211 0.04955225 0.38311294 -0.29250818 0.35026342 -0.41893652 -0.13382256 -0.107292615
-0.46532804 -0.100544 -0.11336569 -0.0962663 0.40803608 0.49354967 -0.38342962 0.6736679
0.5358448 -0.15434594 0.4591362 -0.27910346 0.62903893 -0.057263266 0.57123595 0.6139988
0.44869292 0.23992145 0.063132845 -0.60096496 0.20642887 0.6281783 0.46192086 0.049448222
-0.48332506 -0.037403643 -0.30064592 -0.017135127 -0.6692197 -0.27745932 0.16091776 0.5702502
-0.5168639 -0.73966956 0.16981776 0.886557 0.20713061 0.24544236 -0.8179404 -0.13506983
-0.005768781 0.2713888 0.37765664 0.5163462 0.33010387 0.5012677 -0.21624328 -0.1150241
-0.6679669 -0.4922466 -0.53490335 0.45686862 0.2948672 -0.61838573 0.53635675 -0.6876243
0.09772645 -0.61501956 0.55253077 -0.3550853 -0.48150444 0.30468848 0.005866987 0.6114915
0.49724448 0.34267974 0.014003928 -0.10830078 -0.5261201 -0.44313487 -0.5854055 0.26607597
0.17748195 -0.32166594 0.48236966 -0.3814373 0.8554217 0.8412313 0.012771715 -0.7103764
0.14920914 -0.07020126 -0.25110134 -0.32464346 -0.6083333 -0.007374418

consequents.linear.bias f4 [63]
00000000: 92fe aa3e 0198 953d 9e67 cb3e dd3c 56be
00000010: 648f 9ebe 0dda 2a3f df44 e7be 90a1 3abf
00000020: 1437 2a3f 06ce 043f a39b 81be 5fb0 983e
00000030: 8f07 58be 19af 20be 6804 163e 1df2 89be
00000040: dac4 dd3c 2436 58be e95d 28bf aed6 d63e
00000050: f9ff 18bf 41e1 26bf 92e6 bf3d af64 013f
00000060: 6873 923e 03d3 0bbf 195a cc3e 75fb 2bbe
00000070: ad36 febd 403f c53e e2ab f03e da44 eabe
00000080: 957a c53e b3c8 40be 3a66 cfbe d160 253f
00000090: 1489 bcbe d3e4 3e3e 8c91 0b3f 0fb2 0d3f
000000a0: d431 9d3e d820 c33e d8e6 78bd 4c42 bebe
000000b0: 4f45 263f e6c2 d23e af0a e03e e6f9 bcbe
000000c0: c257 cb3e 8059 0d3f a47b 253d 4620 213f
000000d0: 5225 4ebf 859e 583e a18f 48be 5e2a f33e
000000e0: bf57 cf3e c385 0b3f 1f8d a8bd 076e 44bd
000000f0: 0738 d63e fcb4 d3be 10a3 b9be
0.33397347 0.07304383 0.3972749 -0.20921655 -0.30968773 0.6673897 -0.45169732 -0.72902775
0.6649029 0.51876867 -0.25314054 0.2982206 -0.21096633 -0.15691794 0.14650118 -0.2694253
0.027071405 -0.21114403 -0.65768296 0.41960663 -0.59765583 -0.6518746 0.0937015 0.50544256
0.28603673 -0.54618853 0.3991249 -0.16795142 -0.12412772 0.38524818 0.47006136 -0.45755655
0.38570085 -0.1882656 -0.4050768 0.64600855 -0.36823332 0.18641977 0.5451896 0.5534982
0.30702078 0.38110995 -0.060767025 -0.37159956 0.64949507 0.4116432 0.4375815 -0.36909407
0.3971539 0.5521469 0.040401116 0.6293987 -0.80525696 0.2115422 -0.1958604 0.4749326
0.40496632 0.5450098 -0.08230042 -0.047956493 0.4183962 -0.41349018 -0.3625722
