protein_crystals/mlp.pth (torch, 10064 bytes, 8 tensors)

model.0.weight f4 [28, 2]
00000000: 8e33 78bc fc57 babe 33cf f53c 8b05 1cbe
00000010: 2050 f7bd 80b5 fcbe 225b 74bd 10af 663f
00000020: 2de4 c53e d9e2 3abf 9858 cfbe ef61 313f
00000030: fbb7 44be 8b9a 83be 173b aabe 219e ac3e
00000040: 0fd9 f4be df93 2bbf c843 27bf 3fc2 31bf
00000050: 27b1 833d bc5e 653e 1330 65be 620e 963e
00000060: 28d7 873d 91f7 2e3e 9ba5 973e 18c3 823d
00000070: 718a 2b3f c6c1 3b3f c71b dfbe b34c 413f
00000080: 493d 58be b0ce 933d f545 833d 4e64 1ebf
00000090: b582 d53e ea86 353f 76f4 453f a9c9 603d
000000a0: b0a5 45be 880d d5bd e95c 6dbe 6fb1 23bf
000000b0: ec6c 503e c26c 9e3e 2264 2fbe e993 1bbf
000000c0: 1bc8 21be 9e35 483e 55bc 133f fb87 1e3d
000000d0: c706 f23e ea5f 4d3f f10e b2be 691c 71bc
-0.01514901 -0.36395252 0.030006027 -0.1523649 -0.120758295 -0.49357224 -0.059657224 0.90110874
0.38650647 -0.7300239 -0.4049728 0.6929006 -0.19210808 -0.25703844 -0.33248207 0.33714393
-0.47821853 -0.6702251 -0.653378 -0.6943702 0.064302735 0.2239942 -0.2238162 0.29307848
0.06632835 0.17086627 0.29618534 0.063848674 0.6700812 0.7334255 -0.4357588 0.7550766
-0.21117128 0.07217157 0.064098276 -0.618718 0.41701284 0.7090899 0.7732614 0.054879818
-0.19301486 -0.104029715 -0.23179974 -0.6394262 0.2035405 0.3094235 -0.17128041 -0.6077257
-0.1579899 0.19551703 0.57709247 0.0387039 0.47270796 0.8022448 -0.34777024 -0.014716246

model.0.bias f4 [28]
00000000: 3e24 18bf 2747 d0be 41ea 043f 0c0d 623e
00000010: 75b2 dd3e f881 113f 1915 bd3e 2c61 b1be
00000020: c5ac 15be 3873 3f3e f7e4 aa3e f044 babe
00000030: 0b61 97be b600 c63e 88a9 5f3e 9434 243f
00000040: 8dc2 2a3f 2e04 a8be 801d 753e 7e6b e6be
00000050: d216 f5bc 1ef6 74bd c749 2e3e f648 323f
00000060: da9e 0dbf 12f1 3f3f b2f6 dd3e d131 afbe
-0.594303 -0.40679285 0.51919943 0.2207529 0.43300214 0.5683894 0.3693016 -0.3464445
-0.14616688 0.18696296 0.3337781 -0.3638072 -0.29566225 0.38672417 0.21842015 0.6414273
0.6670311 -0.3281569 0.23937035 -0.45003885 -0.029918108 -0.05980503 0.17020331 0.6964258
-0.55320513 0.7497722 0.43352276 -0.34217694

model.2.weight f4 [28, 28]
00000000: b4ff 50bd 2cd3 29bd 8fb0 f23d 96b7 46bd
00000010: fd12 883d f04f 99bd 073f 1c3e 989b f8bc
00000020: c801 393e 0b10 10be 0e1f 67bd 6d26 fa3d
00000030: 59b8 803d a8f9 c3bd 9576 1ebe f219 12be
00000040: 3bb3 21be 98e3 d5bd c482 eabd ab67 5fbd
00000050: ccac 273e a775 4dbd 5639 efbd 6c38 bd3d
00000060: f0cb e3bd 7ab4 c1bd 82d3 ffbc bd8e bebc
00000070: 31ad eebd 2be7 19be f6d0 5c3e 7256 43be
00000080: 56e4 d53e eb35 99bc daca d73e 2341 063d
00000090: de2d 11be ca02 353f e2b1 af3b 8b26 db3d
000000a0: e69b 523d 827b 873e c404 36be 8283 fbbd
000000b0: 08ca 51bd 3ac0 893c f57e 12be 034c 893d
000000c0: 5cba 383e 2cac 81bd 5875 ec3d d3b5 e33e
000000d0: 2259 0c3e bd39 7b3e 5c22 f23d 7a6a 993c
000000e0: b447 233e 8246 3b3e d17d 05be b9a5 213d
000000f0: 4526 053e 9ad4 02be 7be5 973d 68a7 f13d
00000100: 2839 c13b 3fc7 5fbd e408 80bc 6456 283e
00000110: 5339 19be bf8d 993d a380 d1bd 2e98 023e
00000120: 9c11 9fbd 641e 2b3d 3394 f43d 8e24 c9bc
00000130: dbb9 f7bc 03b2 2e3e 9265 383e 8fc5 cd3d
00000140: 5dfd 873b a748 c9ba c467 f1bd 2179 033e
00000150: 6104 ac3d 9152 1a3e 51bd a1be ddd5 273e
00000160: afb4 e6bd 39b3 243d 7069 79bd b610 1b3d
00000170: d8b4 52bd 8058 7ebe fe62 01be ec5f debc
00000180: 3eb1 b6bd 2b70 213e 5e44 86bc 981c 563d
00000190: a145 443e ba14 29be 3aaa 923a 5d87 11bd
000001a0: 7ff8 073e d073 5cbd a313 2b3c f13e 3dbe
000001b0: f92e 193d 54d8 843d 1915 3c3e 35e4 a93d
000001c0: 4039 c33d 3f8b f6bc ae4d 0abe 32b4 d53d
000001d0: 0b1d 57bb a741 fdbd ac84 8a3c 5879 3f3e
000001e0: 8486 82bc c6a7 21be 27be e93d 86e6 0f3e
000001f0: a655 f7bd f741 29be 3776 0abe be21 9f3d
00000200: 8bd7 9ebd 3918 3ebe e930 5ebc aaa4 c4bd
00000210: 6222 65bd e1c0 98bd d1de 81bd 0700 fcbd
00000220: 5b2e 1dbd bbea f3bd 4196 ccbc 4924 f1bd
00000230: ed01 4b3c df37 093e 7906 8cbe 26cd cb3d
00000240: 4aac 7dbe a3ec bc3c 7a70 50be 7a10 443d
00000250: 986d 83bc 7a72 04bf b8a8 3fbd 406b f6bd
00000260: 562f 8dbd 55bc 853d 69e4 163e 2c0b c73c
00000270: 9055 a93d 1cfe ddbd 883e c73c 7d5b ebbe
00000280: b15e d8bc b095 613d 25c7 f73d c607 87bd
00000290: ee97 b63d 5c38 9fbd 814f 553e db85 20be
000002a0: c96a 2ebd 4cf1 f2bc e97c 113f ea11 20bd
000002b0: 1dfc 013f 5c82 04be 6616 c33e 4eb6 22be
000002c0: 0373 753d bc9b 103f c4c9 23bd 090f aa3c
000002d0: 9ddd 993c e4f1 733e 1d20 fa3d b54c 0d3c
000002e0: 4192 2a3e 2950 1f3d fb25 9abd 7db3 b9bd
000002f0: 6474 1bbe 214e 953c 0e50 96bd db5f 083f
00000300: 66c4 a9bd f0f4 f43d 6513 d2bd 01bd 403e
00000310: 6e14 a63d 6394 d43d 5529 98be 5341 a63d
00000320: 2e88 80be 3341 09bd 7fb4 bdbe f9b8 01bd
00000330: 33d7 9bbd da89 1d3e e3dc 5d3e 011b ffbd
00000340: 7b16 653c f0fa e1bd 3006 3f3e 4046 463e
00000350: 47c4 fabd 9bb1 08be b6a1 753d 25e1 463e
00000360: 8d90 083e 544a cabd 2cf7 9d3d fdb4 c9be
00000370: acf1 343e c9be ed3d 80da cc3a 9168 b03d
00000380: b143 5f3c 8939 e6bd 54cf c6be d7d8 8d3e
00000390: 683b b4be cd1b 743e a766 1bbe 6b4e dd3d
000003a0: 52ab 9f3d c1cd 05bf 05eb 41bd dcb8 be3d
000003b0: cd3b 373d 9879 603c 1a19 8c3d 9a7c ed3d
000003c0: 1887 e33d 7546 e63d acb8 803c 984c 4fbe
000003d0: ea96 2dbd c457 8bbd 91ca 083e e046 9a3c
000003e0: 138a c33d cdc2 38bd 4898 3a3e 9278 3b3e
000003f0: e134 4b3d f0b9 2a3e 99f2 793d 2bf5 1abd
-0.051025108 -0.041461155 0.11850082 -0.048514925 0.06644247 -0.0748595 0.15258418 -0.03034763
0.18067086 -0.1406862 -0.0564261 0.122143604 0.062851615 -0.095691025 -0.15474923 -0.1426771
-0.15791027 -0.10443801 -0.11450723 -0.054542225 0.1637451 -0.05016103 -0.11680858 0.09239277
-0.11122882 -0.09458251 -0.031228784 -0.023261422 -0.116541274 -0.1502959 0.21564087 -0.19075945
0.4177577 -0.018702468 0.4214695 0.032776963 -0.14177653 0.7070738 0.0053617815 0.10700711
0.051418208 0.26461416 -0.17775255 -0.122809425 -0.051218063 0.016815294 -0.14306243 0.06703951
0.1803984 -0.06331667 0.11545819 0.44474658 0.13705876 0.24533744 0.1182296 0.01872753
0.15945321 0.18288615 -0.13036276 0.039464686 0.1300288 -0.12776414 0.07416817 0.11799508
0.005896706 -0.054633375 -0.01562924 0.16439205 -0.14963274 0.07497739 -0.10229614 0.12753364
-0.077670306 0.04177703 0.11942329 -0.024553563 -0.03023999 0.17060094 0.18007496 0.10047447
0.0041500763 -0.0015356735 -0.1178737 0.12839176 0.08399273 0.15070559 -0.3158975 0.16390176
-0.112649314 0.040209983 -0.06089157 0.037857734 -0.051441997 -0.24838448 -0.12635419 -0.027145348
-0.08920525 0.15765445 -0.016390022 0.052273363 0.19167186 -0.16511813 0.0011189647 -0.035529483
0.13278387 -0.053821385 0.0104416935 -0.18481041 0.037398312 0.06486574 0.18367423 0.0829548
0.09532404 -0.030095695 -0.13506195 0.1043476 -0.0032823707 -0.12366038 0.016908966 0.18698633
-0.015933283 -0.15786657 0.11413222 0.14052781 -0.12076883 -0.1652907 -0.13521658 0.07770108
-0.07755955 -0.18563928 -0.013561466 -0.0960172 -0.055940993 -0.07458664 -0.06341327 -0.12304693
-0.038374286 -0.11910006 -0.02497399 -0.11774499 0.012390596 0.1340022 -0.27348688 0.09951238
-0.24772754 0.023062056 -0.20355406 0.047867276 -0.01604347 -0.5173718 -0.046791762 -0.12032175
-0.06893794 0.06530062 0.14735569 0.02429732 0.08268273 -0.10839483 0.02432181 -0.45968238
-0.02641234 0.055074394 0.12098531 -0.065932795 0.08915697 -0.077744216 0.2083111 -0.15676062
-0.042582307 -0.029656075 0.5683122 -0.039079584 0.5077532 -0.12940353 0.38103026 -0.15889856
0.059924137 0.5648763 -0.03998734 0.020759122 0.018782431 0.23822743 0.12213156 0.008624245
0.16657354 0.038894806 -0.075267754 -0.09067438 -0.15181118 0.018225731 -0.07339488 0.53271264
-0.08289413 0.119607806 -0.102576055 0.188221 0.081093654 0.10379865 -0.29719034 0.08117928
-0.25103897 -0.033509444 -0.3705177 -0.031670544 -0.07609405 0.15384617 0.21666293 -0.124563225
0.013982411 -0.11034191 0.18654704 0.19362736 -0.12244468 -0.13349001 0.059968673 0.19421823
0.13336392 -0.09877458 0.0771316 -0.39395896 0.17670316 0.11608655 0.0015629083 0.086136945
0.013626979 -0.11241443 -0.38830054 0.27704498 -0.35201573 0.2383873 -0.15175878 0.10805973
0.07796349 -0.5226708 -0.047343273 0.09312603 0.044734765 0.013700865 0.06840725 0.115960315
0.111097515 0.11243907 0.015713058 -0.20244062 -0.04238025 -0.06803849 0.13358523 0.018832624
0.0954782 -0.04510765 0.18222153 0.18307713 0.049610976 0.16672492 0.061022375 -0.037831467

model.2.bias f4 [28]
00000000: 0b9e 84bd 4d32 873e 83a4 fabd d7ae 57bd
00000010: 1910 35bd 2b6c fb3d d964 5a3e 0b5a b7bc
00000020: be67 a93d 7f11 2abe 187c 5bbb 9af1 903e
00000030: 11f4 2bbd 7b02 d7bd 7060 b6bd af1e 973e
00000040: 0494 833c 4ae0 133d 067b e3bd 27b4 9d3d
00000050: 748b 1dbb 485e a63e 4725 723e fe85 27be
00000060: eded 1d3e db01 48bd df5d 34bd 426e 0f3d
-0.06475457 0.26405564 -0.12238409 -0.052656975 -0.044204805 0.12276491 0.21327533 -0.022381803
0.082717404 -0.16608237 -0.0033490714 0.28309327 -0.041980807 -0.1049852 -0.08905113 0.29515597
0.01606179 0.03610257 -0.11107449 0.07700377 -0.002403942 0.32493806 0.23647033 -0.16359708
0.15422793 -0.048829895 -0.044034835 0.03501726

model.4.weight f4 [28, 28]
00000000: 68cb 1abe 5c5d c8bd 984e c9bd e7c3 283d
00000010: e622 8fba 3deb 533d 819b 1abb c73b 243e
00000020: 8fc9 173e b432 06bb 32e1 e13d 8c95 51be
00000030: c6fc 913e a520 22be 0b4d b13c 40e8 f6bb
00000040: 661d 313e 7e6f 663d 9c1d 953e 8fa1 e4bd
00000050: cb30 e6bd 0018 033e e20a 46be 74b6 f7bd
00000060: 857f 493e 0b96 9c3e 1ccc 973e 27b4 2b3e
00000070: c8bc d23d 7af6 1e3e 9d83 abbd 2320 193e
00000080: e54a 513d 5497 023e 6fc8 3bbe 3128 343d
00000090: 14fa 1abc 0f3f 8fbb fffd 0cbe 7fc2 a7bc
000000a0: 0ea0 2ebd 96e2 83bd d1eb 203e 234a 2cbe
000000b0: 1313 9b3c 0d72 ad3d 1f4c 133d a238 053e
000000c0: b185 bf3c d47a f13d 7a2e b63d 5a8c 00be
000000d0: c156 26be 3811 c1bd 5375 e0bd 5ae8 10be
000000e0: de1d 293d 9e56 7abe ec16 0dbe f989 173d
000000f0: 6c7f 36be 48b6 9b3c f5f7 fbbd 0d75 7a3e
00000100: 518f 943e 39e4 2b3e 45b8 6c3e 7a51 33be
00000110: 7ebf cd3d ad0d 0cbe a985 f93d 2850 173d
00000120: 797d 413d 04b9 573e 284e 833e 9c76 ed3d
00000130: 5a61 d83d 0f1d 6a3e 0077 0fbd d96e c23c
00000140: 6525 2c3e 3632 9b3e cfe4 933e b76e 8a3e
00000150: 5149 383e c60a d13e 3a3b 323e 1c76 103e
00000160: 3870 3cbd e515 8abd 6803 9b3e 21ec 7abd
00000170: 751f 4bbe cff2 683d 698c ecbc e8b6 163e
00000180: c645 71be c0c6 b1bd 3d01 3e3e 0f42 953e
00000190: 6d57 c2bd a8af 183b 23a4 34be 8e47 2dbe
000001a0: 6c25 003e 537d f83d 0967 a83e 8b5f de3d
000001b0: a42c b0bd 5d05 9dbc 7bcd 12be a1ae f93d
000001c0: 8311 19bd 9567 9fbd 7205 02be 6063 37ba
000001d0: 37f1 21be 0a12 463e 4eed ad3d 66a6 903e
000001e0: 87c6 2b3e 0d63 b4bd 1ee8 5a3e 8605 1c3d
000001f0: efcc b63e b0b7 1dbe 3e28 e9bd ec1c 60be
00000200: 5e1c 1c3e af93 153e 9a8c 863e ae32 a6bd
00000210: 1f77 e4bc 61d4 d23d 0a09 45be 2619 143e
00000220: 6f83 843e a0d8 9cbc 9d43 b03d 0dc5 4d3e
00000230: 34eb f43d 3064 87bd 8a2e 1d3e e629 8dbc
00000240: 7c08 3bbe 7df6 c4bd a1a6 8b3d 7820 91bd
00000250: 5777 28be 6243 30bd e5b2 00be 97a4 353c
00000260: f105 263d 23b2 b1bd be85 4e3d 0049 673d
00000270: 338f 133e ec6d 8fbb 525e 243d 0b54 a9bd
00000280: 21cd 08be 1c7f f63b dca1 b7bc 2304 1e3e
00000290: 48cb f9bc f518 403d 3c35 b73d 7322 f3bc
000002a0: 0436 e5bd 2df4 d63d f984 043e 7b9a 70be
000002b0: 66a3 ac3d 6637 d2bd f87e 723e 90a8 84bd
000002c0: d703 6fbe 4729 083e d646 b1bd ea05 ae3e
000002d0: 174b d5bd 2441 c43d c0e7 55bd 8709 5e3e
000002e0: 07f4 c43d 158a 92be 6497 51be 3e13 3c3c
000002f0: b6fb 293e 957c 1e3e c248 803e 06a9 de3d
00000300: f31c b13c 660f a73d 82a4 893d b631 1d3e
00000310: 90f7 8c3d 5974 81be aa2b ac3d 4302 633e
00000320: 1265 e3bd 1fce 823e c394 133e e8b5 a23e
00000330: 597b ad3e ec0c e33d ec66 633e 79a6 38be
00000340: 7115 1f3e 2a38 da3d 461b 14be 868b 733d
00000350: 1b4e 123d 6544 f93d b0fa aa3e 521a 2cbe
00000360: be79 5bbc 3514 d2bc 0f18 633d 8a14 cd3c
00000370: 6428 ae3e 67f0 f13d bc96 bd3e 2a47 73bc
00000380: e6f3 203e 88d2 b8bd 0e28 5c3d bb69 2dbd
00000390: 40cb ccbd eee3 b73c 195c 80bd c14d b23e
000003a0: 5fb9 773e 0d58 2c3d ea4f 963d 64c5 87be
000003b0: 3871 3f3e 3a3c d93c 56f9 9bbd f3c8 0abe
000003c0: a789 05be 3829 413e fa1c cd3d 6a2f 16be
000003d0: b7a0 32be 8061 1cbe e753 0fbe 624d 8cbd
000003e0: 8009 153e b669 ba3c c6b7 493e ae50 f0bd
000003f0: ff72 b33d b895 1b3e b595 1bbc a36b 403c
-0.15116656 -0.09783432 -0.09829444 0.041202452 -0.0010920435 0.051738013 -0.0023591223 0.16038428
0.14822982 -0.0020476999 0.11029281 -0.20467204 0.28513163 -0.15832765 0.021643182 -0.0075350106
0.17296371 0.05625867 0.29124153 -0.11163627 -0.11239775 0.12802124 -0.19340089 -0.12095347
0.19677551 0.30583224 0.2964791 0.16767941 0.102899134 0.15523711 -0.083747126 0.14953665
0.051096816 0.1275304 -0.18338178 0.043983642 -0.009459037 -0.004371531 -0.13768767 -0.020478485
-0.04263311 -0.06439702 0.15714957 -0.16825156 0.018929994 0.08469019 0.035961267 0.13009885
0.023379179 0.11791006 0.088955835 -0.1255354 -0.16244031 -0.09427112 -0.10959878 -0.14151135
0.04128825 -0.24447104 -0.13778275 0.036996815 -0.17822045 0.019007817 -0.123031534 0.24458714
0.29015592 0.16786279 0.23117168 -0.1751155 0.1004629 -0.13677092 0.12183697 0.036941677
0.0472388 0.21066672 0.25645566 0.115948886 0.10565443 0.22862647 -0.035025597 0.023734497
0.1681114 0.30311745 0.28885505 0.27037594 0.17996718 0.40828532 0.17405406 0.14107555
-0.046005458 -0.06742457 0.30276036 -0.061260346 -0.19836219 0.056872185 -0.028875547 0.1471821
-0.23561773 -0.08680487 0.1855516 0.2915196 -0.094893314 0.0023298059 -0.17640738 -0.16921827
0.12514275 0.12133279 0.3289111 0.10858067 -0.086022645 -0.019167596 -0.14336197 0.12191511
-0.037370216 -0.077834286 -0.1269739 -0.0006995704 -0.15814672 0.19342819 0.08492528 0.28251952
0.16774951 -0.08807955 0.21377608 0.038091205 0.35703227 -0.15402102 -0.11384629 -0.21886033
0.15245196 0.14607118 0.26279145 -0.08115135 -0.027888833 0.10294414 -0.1924173 0.14462718
0.25881526 -0.019146264 0.08606646 0.200947 0.11958924 -0.06610906 0.15349784 -0.017231893
-0.18264955 -0.096173264 0.06818891 -0.07086271 -0.16451775 -0.04303301 -0.12568243 0.011086605
0.04053301 -0.08676555 0.050420515 0.056466103 0.14410095 -0.0043771174 0.040129013 -0.08267983
-0.133595 0.007522477 -0.022416048 0.15431266 -0.03049244 0.0468988 0.089457005 -0.029679513
-0.11191943 0.104957916 0.1294135 -0.2349643 0.08429603 -0.10264473 0.23681247 -0.06477463
-0.23341309 0.13296996 -0.08656089 0.33988887 -0.10414713 0.09582737 -0.052222967 0.21683322
0.09616857 -0.28620973 -0.20467907 0.011479197 0.16599926 0.15477212 0.2505551 0.108720824
0.02162025 0.08157234 0.067208305 0.15350994 0.06883156 -0.2528408 0.08406766 0.22168832
-0.11103262 0.25547883 0.14412217 0.31779408 0.3388317 0.11086449 0.2220723 -0.18032254
0.15535523 0.10655244 -0.14463529 0.05945923 0.03571902 0.12171248 0.33394384 -0.16806915
-0.013395725 -0.025644401 0.055442866 0.025034208 0.3401519 0.11813431 0.37029064 -0.01484851
0.1571804 -0.09024531 0.053749137 -0.04233716 -0.09999704 0.022447553 -0.06267566 0.34824947
0.24191807 0.04207616 0.07339461 -0.26517785 0.18695533 0.026517976 -0.076159164 -0.13553219
-0.13040791 0.1886338 0.100152925 -0.14666525 -0.1744412 -0.15271568 -0.1399685 -0.06850697
0.14554405 0.022755485 0.1969901 -0.117341384 0.08762168 0.15193832 -0.009496142 0.011744413

model.4.bias f4 [28]
00000000: 41a4 0e3e 1dbb 9abd 3c60 293e 9bf4 5b3e
00000010: 1273 f53d 8013 f6bd 43e4 613e d90e d93d
00000020: 421c f53d f067 b1bd 530f 403e 103f 22be
00000030: 87f8 0abe 1907 623e 7a5a 9f3d 474a 9e3d
00000040: 5ac3 51bd 026e b73e 80ad d03d 33b5 ac3e
00000050: 56b0 823e 34bb aebd abb3 be3d 2be7 0c3e
00000060: 7c4f 783e 32bb 923c 81e0 24bd e1ef f33d
0.13929845 -0.0755522 0.16540617 0.21480028 0.119848385 -0.12015438 0.22059731 0.10598535
0.119682804 -0.08662403 0.18755846 -0.15844369 -0.13571368 0.2207302 0.07780929 0.07729011
-0.051211692 0.35826117 0.101893425 0.33731994 0.2552516 -0.085318 0.09311613 0.13760059
0.24249071 0.017911527 -0.040253166 0.11910988

model.6.weight f4 [3, 28]
00000000: 2def 6ebe 176f 6bbd 6cc3 97be 9ab4 523e
00000010: a14b 50be 8781 96bd 74f3 8b3e 23da bfbd
00000020: d889 8cbe c03b 05bd 460d 37be 5702 d1be
00000030: 850f 04be 4c48 9abe b849 d93d 2dcd 9fbe
00000040: 678b 18be 2d2b 013e ac59 ae3e 5656 2d3e
00000050: 3925 a73e 4d04 8ebe 5e3b 883e 52ce bfbe
00000060: 46ec b53e 818e 64bd 753c 393d 0116 9bbe
00000070: b008 613e d90b 61bd 34c8 f33b dd78 09bf
00000080: 48ac 593e 8b73 61bd 7d0a e5be 6640 9d3e
00000090: e7f5 8e3e da34 8d3c 97ba 19bd 636e 803e
000000a0: acb0 3ebd ed62 893e 8c4b 313e 1467 b83e
000000b0: 4972 4b3e 78de e1be 10eb 17bf c1fa 0abf
000000c0: b048 e6be 9fb3 853e 6849 66be f424 b93e
000000d0: 4761 dabe 711f 323e 2655 803e 9efe aebd
000000e0: 2120 ee3a 122c 4fbc d1b6 88bc 1269 75bd
000000f0: 0a58 0dbd a9db 8b3d 6542 9a3d ed71 3c3e
00000100: 90a5 56be 39a6 bc3b 5e82 283e 8b09 babd
00000110: 95a8 d03d eb6a 443e 3de6 8bbe 5b00 85be
00000120: fbc6 543e 6685 263d 4109 853e c734 f3bc
00000130: e109 c73c 741e 0dbd 33a4 623e 09dc 57be
00000140: fd70 04bd f115 9e3d c818 81be e99d 5d3d
-0.23333426 -0.05747899 -0.29641283 0.20576707 -0.2034135 -0.07348924 0.27334177 -0.09367778
-0.27448916 -0.032527685 -0.17876157 -0.40822098 -0.12896545 -0.30133283 0.10609764 -0.31211224
-0.14896928 0.12614127 0.3405279 0.16927466 0.32645586 -0.27737656 0.26607794 -0.37462097
0.35531825 -0.055799965 0.045223672 -0.30290225 0.2197597 -0.05494294 0.0074396376 -0.5370005
0.21257126 -0.05504183 -0.44734564 0.30713195 0.27921984 0.017237116 -0.03753146 0.25084218
-0.046555206 0.26833287 0.17313975 0.36016142 0.19867815 -0.44115043 -0.5934305 -0.5428887
-0.4497733 0.26113603 -0.2248894 0.36161005 -0.42652342 0.17394806 0.25064963 -0.08544658
0.0018167534 -0.0126447845 -0.016688736 -0.059914656 -0.03450779 0.06829006 0.07532195 0.18402834
-0.20961595 0.00575712 0.16455981 -0.090838514 0.101884045 0.19181411 -0.27324095 -0.25976834
0.2077903 0.040654562 0.25983623 -0.029688252 0.024296703 -0.03445287 0.2213295 -0.2108003
-0.032334317 0.07719029 -0.2521422 0.054105673

model.6.bias f4 [3]
00000000: cc77 033e 467b 99bd a4c7 1b3e
0.12838668 -0.07494216 0.15212876
