protein_crystals/mlp.pth (torch, 15872 bytes, 10 tensors)

model.0.weight f4 [31, 2]
000000 57 cb 22 3e 9a f7 ad 3e 79 b8 b5 3d fb 98 cd 3c
       0.1589788 0.33977968 0.08873076 0.02509736
000010 07 8a 21 bf f1 36 32 3f 1c 83 2c 3f 36 fa 5e bd
       -0.6310124 0.69615084 0.6738756 -0.05443784
000020 4b 24 eb 3d e0 e2 39 3e 2b 7e 32 3f de eb 5f 3d
       0.11481532 0.18152952 0.6972377 0.0546683
000030 7e 74 c7 bd 2b d0 aa be af 4e 37 3e 97 e9 c6 3e
       -0.09739016 -0.33361945 0.17901109 0.3885009
000040 0b 8a 15 bf b9 e5 9d 3e a6 83 31 3e c1 79 aa 3e
       -0.5841376 0.30839327 0.17335376 0.33296016
000050 1a 96 a6 3e e8 0c 7e be e2 4b e4 3d 8a ea 0b bf
       0.32536393 -0.24809611 0.11147286 -0.54654753
000060 74 5a d7 3e 6c 80 22 bf 55 9b 27 bf 76 b0 0c bf
       0.42061198 -0.63477206 -0.6547139 -0.5495676
000070 21 07 cd be 4b cf b6 3d 51 d2 e2 3e d8 59 28 be
       -0.400445 0.08926257 0.44301084 -0.16440523
000080 3c de ff 3e 0e f9 08 be 99 ab 12 3f 59 e0 06 3f
       0.4997424 -0.13376257 0.5729309 0.5268608
000090 f0 c3 db 3e 43 d0 a9 3e a8 7d ef be f7 1a 43 3f
       0.42922926 0.33166704 -0.46775556 0.7621302
0000a0 ee 39 25 bf d7 61 07 bf c3 96 ce be 98 f4 64 be
       -0.6454152 -0.52883667 -0.40349397 -0.2235893
0000b0 55 63 a2 3e 25 16 57 3e 09 6e 22 bf c1 26 39 3f
       0.3171641 0.21004541 -0.6344915 0.7232476
0000c0 cc f2 23 3f 22 f4 c2 3e 5a f3 31 bf 49 2f e5 3e
       0.64042354 0.38076884 -0.6951195 0.44762638
0000d0 ee 3a 52 3e 58 01 f1 bc b0 7f 1b bf 3e cc 1d 3f
       0.20530292 -0.029419586 -0.6074171 0.61639774
0000e0 bf a5 7e be f1 e4 1a bf e7 8d 08 3f 99 cb a0 3e
       -0.24867915 -0.60505587 0.53341526 0.31405333
0000f0 a5 33 24 3e 46 fa ee 3e
       0.16035326 0.46675318

model.0.bias f4 [31]
000000 de bc 59 3e 42 01 29 be 74 c5 fe bd c4 8c 16 3f
       0.21263453 -0.16504386 -0.12440005 0.5880854
000010 ae d7 3e bd 28 33 1b bf cd d0 f7 be fa 55 0c bf
       -0.046592407 -0.60624933 -0.4840149 -0.5481869
000020 8b a1 93 3d 61 09 07 3f be ef da 3e ba 99 5b 3e
       0.07208546 0.52748686 0.42761034 0.21445361
000030 52 37 77 3e 45 e6 c4 be ac 13 27 3f e1 dd 83 3e
       0.24142197 -0.38456932 0.6526439 0.25755218
000040 fa 51 e8 be 81 89 01 bf ec a6 29 bf c3 df 50 be
       -0.45375043 -0.5060044 -0.6627033 -0.20397858
000050 f2 3c 0e 3f 7c 13 98 3d 2d 82 ab be 16 5c 24 3e
       0.55561745 0.07425591 -0.33497754 0.16050753
000060 6c 5c 05 bf 65 a9 4a 3e b2 66 fb 3e e3 5b a2 3e
       -0.5209415 0.19791181 0.49101788 0.3171073
000070 10 e3 88 be 6a ae 86 be 03 a9 6f 3e
       -0.26735735 -0.26304942 0.23404317

model.2.weight f4 [31, 31]
000000 d5 26 f2 3d 2e eb d2 bc 06 11 ad 3d 98 5e f0 bc
       0.11823813 -0.025746908 0.084505126 -0.02934198
000010 46 78 33 3c 46 e4 c7 bd ce f4 1b be 45 e0 82 3e
       0.010953968 -0.097603366 -0.15230104 0.2556173
000020 34 f9 41 bd 94 41 09 3e e5 ef b5 3d 0d 51 23 be
       -0.0473568 0.13403922 0.08883647 -0.15948887
000030 e7 ba 36 be 98 26 de 3b 2a 69 2b bd 5d 97 f6 bd
       -0.17844735 0.006779503 -0.04184834 -0.12040589
000040 54 0d 26 3e e5 90 27 3d 19 50 ec 3d 78 cb 04 bc
       0.16216022 0.040909667 0.11538715 -0.008105151
000050 bf 7e b8 bc dd a5 39 3c ae 4e 8f 3e bd 29 4f 3d
       -0.022521375 0.011331049 0.27989715 0.050576914
000060 e5 f9 1d 3e 99 10 b1 3d 3a ea a8 3d 9b 18 9c 3d
       0.15427358 0.08645744 0.082478 0.076218806
000070 86 c7 36 bd f9 63 c3 3d 42 c9 8d bd bf d0 04 3e
       -0.044623874 0.09540553 -0.069231525 0.12970255
000080 70 cd 22 be 93 e4 89 bd e1 df 33 3e b2 06 02 bd
       -0.1589868 -0.0673305 0.17565872 -0.031744666
000090 6a ab 13 be 51 60 17 be e5 42 68 3e c8 35 a1 3b
       -0.14420858 -0.14782836 0.22681768 0.0049197413
0000a0 c9 63 0c be 2e 33 07 bd dc 58 65 be 91 cf 3b be
       -0.1370994 -0.033007793 -0.22397178 -0.18340899
0000b0 2b cb cc bd a6 0b 18 3e 99 58 8e 3d 46 f7 3e 3d
       -0.09999689 0.14848194 0.069504924 0.046622537
0000c0 97 14 88 3d 83 13 00 bc 84 57 4a 3c 2d 41 2c be
       0.06644552 -0.007817152 0.012349967 -0.16821738
0000d0 29 08 18 be 97 4c 8c bd 00 fb 29 3e 99 69 0e 3e
       -0.14846863 -0.06850546 0.16599655 0.1390747
0000e0 96 fd 5e 3e da 80 71 bb 9c 23 9a 3d a0 a2 22 bd
       0.21776423 -0.0036850483 0.07526323 -0.039705873
0000f0 03 c0 c6 3d 0d 5c ea bb c9 35 3a bd 19 b6 ce bd
       0.09704592 -0.0071520866 -0.04546145 -0.10093326
000100 45 9b 79 be 1b 89 dd bd e7 77 9b bd 5c 6f 8f bd
       -0.24375637 -0.108171664 -0.07591229 -0.07003662
000110 a3 19 0b be 54 73 32 bd 18 47 09 be c6 15 4b 3e
       -0.13583998 -0.043567017 -0.13406026 0.19832525
000120 d7 c1 f7 bd 85 f9 31 3e ed d5 79 bc a8 69 b7 bd
       -0.12097519 0.1738034 -0.015248758 -0.08955699
000130 34 39 05 be 27 69 0a be bf 51 55 be b9 ba 9e bc
       -0.13010103 -0.13516675 -0.20831965 -0.019376146
000140 f2 f1 83 3b 63 e7 d7 bb 12 80 01 3e a2 ef e5 3c
       0.004026645 -0.0065888627 0.12646511 0.028068367
000150 26 e0 fe bd dd e7 e5 bd 9b 7a 93 bd 79 34 53 be
       -0.12445097 -0.11225865 -0.072011195 -0.20625485
000160 d4 0d 06 3e 1e 1a 89 bd 68 70 f4 bd fd 1b 47 3d
       0.13091213 -0.066944346 -0.11935502 0.048610676
000170 9a 63 94 3c 51 3c d2 3d 84 88 cb bd 95 74 83 3e
       0.0181139 0.10265411 -0.09938148 0.25674883
000180 7e 45 ad bd 6f 65 bd 3d 7e 61 53 3e 00 03 1b bc
       -0.0846052 0.092478625 0.20642659 -0.0094611645
000190 ef c6 8d bd 58 2e 08 be 87 40 31 3e 59 fb 45 be
       -0.06922709 -0.13298929 0.17309771 -0.19334163
0001a0 d8 c6 4a be a3 33 20 3d 01 6a 09 be 68 90 1e 3e
       -0.19802415 0.039111745 -0.13419344 0.15484774
0001b0 2f 78 b8 ba 25 e6 29 3d 3b bc 99 3d 9f 78 10 3e
       -0.0014073903 0.04147925 0.07506605 0.14108513
0001c0 7b 7d 51 3e b6 9c 4b be b4 90 03 3d 96 55 50 3c
       0.20458023 -0.19883999 0.03212042 0.012715718
0001d0 56 cd 8e 3e 1e 13 45 3e d0 fb 97 3b d5 7c a8 3d
       0.27891034 0.19245574 0.0046381727 0.08226935
0001e0 4e a2 31 3d fa 7c b1 3d a3 fc 09 bd db a5 cc bd
       0.043367676 0.086664155 -0.0336882 -0.09992572
0001f0 6c 78 a8 3d 5c 4e e7 3d ae 49 82 3e 05 55 2d 3d
       0.08226094 0.11294243 0.25446838 0.04231741
000200 8d c1 51 bd 07 0b e6 3d 36 41 39 3c e0 17 8a 3e
       -0.051209975 0.11232572 0.011307051 0.2697134
000210 ed f9 f4 3d 76 37 19 3e b4 95 80 bc 86 e1 89 be
       0.11961732 0.14962563 -0.015696384 -0.26929873
000220 87 e8 5b be f5 00 2c 3e 80 d2 13 3e b9 5f 08 3d
       -0.21475421 0.1679724 0.14435768 0.033294413
000230 5c 99 0e be a0 4b 3c 3e a4 94 6d 3e 23 0d ae bc
       -0.1392569 0.18388224 0.23201233 -0.021246498
000240 38 71 4e 3b 2b 8d 27 3e ff 58 75 bc a6 10 f7 3d
       0.003150059 0.16362445 -0.014974832 0.12063722
000250 ed f2 d0 3d 63 53 98 3c 26 75 c9 3d 16 1f 6e 3e
       0.102025844 0.01859445 0.098367974 0.23254046
000260 db 2e 29 3e 3b af 0e be 17 1b 87 3c c1 a2 21 3e
       0.1652178 -0.13934033 0.01649241 0.15784742
000270 94 5d 35 3e 15 98 5d 3d ba 99 dc 3d 90 31 2d 3e
       0.17711478 0.054100115 0.107715085 0.16913438
000280 88 55 90 3d da cc f4 3d fd 8e 6c 3e db e1 96 3c
       0.07047564 0.11953135 0.2310142 0.018418243
000290 87 c2 98 bd fe 60 fa bd 62 db 90 be 5b cd 5d be
       -0.07458978 -0.12225531 -0.28292376 -0.21660368
0002a0 6b d6 47 3d db f5 4b 3d 4e 52 8b bd fb c9 d1 bc
       0.04878847 0.049795013 -0.06802808 -0.025609007
0002b0 3c 82 3c 3e 53 06 54 3e fe 4f e7 3b 67 37 c4 3d
       0.18409055 0.20705537 0.0070590964 0.0958088
0002c0 08 01 bf 3d 40 06 07 3e b0 3b 47 3e 90 95 be bd
       0.093263686 0.13185978 0.19456363 -0.093058705
0002d0 08 ec 43 3e f0 f8 e4 3c e2 d2 70 3d b2 1d 93 bd
       0.19133008 0.027950734 0.058794864 -0.07183398
0002e0 fb 12 31 3e ed 5d 4c 3d 33 f6 ae bd 7b 8a 00 3d
       0.17292397 0.049894262 -0.085430525 0.031382065
0002f0 98 c8 a1 bd 68 bb dc bc f5 6b ef 3d 13 fc d0 3d
       -0.07899588 -0.026944831 0.11690513 0.10204329
000300 0d ef f7 bc eb 8a 5a be e7 21 23 be dd 1c 8c bd
       -0.030265355 -0.21342055 -0.15930901 -0.06841443
000310 0f 2b 11 3e 9f 0b 75 3e 88 04 30 3c 4f 46 93 3d
       0.14176582 0.23930214 0.010743268 0.07191145
000320 59 76 42 3d c2 20 0c 3d 59 b7 99 bd 4a 04 4d be
       0.047476146 0.034210928 -0.07505674 -0.20021167
000330 0d c1 ac be 65 0a b1 bb 03 3d 00 3b 4d 67 95 bc
       -0.33741036 -0.0054028505 0.0019567616 -0.018237734
000340 c0 c8 4b be cc ff 01 be 31 02 d6 bd 06 80 9f bd
       -0.19900799 -0.12695235 -0.10449637 -0.077880904
000350 ff 52 06 be 5a fd 07 bd c5 c5 2f be 4c f5 05 be
       -0.13117598 -0.0332006 -0.17165287 -0.13081855
000360 b9 6e 38 3c 0a 2e 02 3d 79 6c be bd b6 0d fc 3d
       0.011256867 0.031782188 -0.09298033 0.12307303
000370 4e 9b 5b 3d ec 02 c5 3d 72 42 81 3d 7f c7 1c bd
       0.053614907 0.09619698 0.063115016 -0.03827619
000380 b5 ce 21 be 2c 5a 9d bd 8c cd 23 3e 81 5d 0b 3e
       -0.15801509 -0.076832145 0.15996379 0.13609888
000390 8d 82 06 bd e1 02 0f 3e b5 ef 0e be 92 ae af bb
       -0.032839347 0.13965942 -0.13958628 -0.0053613866
0003a0 c4 1e 0c 3c 59 2c f5 bd 4a 1f 61 3e 3e 46 30 be
       0.008552257 -0.11971349 0.21984592 -0.17214295
0003b0 69 7b 9e 3d 67 5e e8 3d f2 ba 17 be e9 45 61 3e
       0.07738382 0.11346131 -0.14817408 0.21999325
0003c0 66 94 5e bd f0 db b7 3d f9 11 89 bd 17 cd c4 3d
       -0.054340743 0.089774966 -0.06692881 0.0960943
0003d0 f4 bd 05 3e 66 d8 75 bc 22 47 42 3c 64 57 92 bb
       0.13060743 -0.015005207 0.01185778 -0.004465984
0003e0 1f 06 22 be 68 9d 42 3d ed 8c 75 3e 90 22 0d be
       -0.15822648 0.047513396 0.2397954 -0.13782716
0003f0 98 96 06 bd 7b 28 fe 3d 0e 4e a9 3d c5 d4 27 3e
       -0.03285846 0.12410065 0.08266841 0.16389759

model.2.bias f4 [31]
000000 47 0f 71 bd a9 67 23 3e 1c 45 ca 3d 18 4f 98 3d
       -0.05885246 0.15957512 0.09876463 0.07436961
000010 da 0f 25 3e b2 6b 69 bd 3b dc 64 bb 98 7f 1e 3e
       0.16119328 -0.056987472 -0.0034921307 0.1547836
000020 30 88 c3 bd 62 df 0f be b5 54 83 3d 50 d7 0e be
       -0.0954746 -0.14050058 0.06412641 -0.13949323
000030 0a 5f b9 bd 26 51 8f 3d 65 e9 00 3d 47 ac eb bd
       -0.090513304 0.069979 0.031472582 -0.11507469
000040 08 6b 89 bd 98 2b 0b 3e bd 93 ee bd 01 08 97 3d
       -0.06709868 0.13590848 -0.116492726 0.073745735
000050 ea fe 03 bc 2e 8c 85 bd 15 a2 06 be dd b7 74 bd
       -0.008056382 -0.06520878 -0.13147767 -0.05974566
000060 b9 25 0b 3e 1d cd c4 bd 7f c9 07 be 6d 60 0a 3c
       0.13588609 -0.09609435 -0.13260458 0.008445841
000070 07 11 d6 3d a5 6c 89 bd 7d bb 36 3e
       0.104524665 -0.067101754 0.17844959

model.4.weight f4 [31, 31]
000000 dd e1 43 3e ac 98 18 3e a6 e9 4a be f7 bc ea bd
       0.19129129 0.1490199 -0.19815692 -0.114618234
000010 f8 99 c2 bd 6c a5 e0 3d 44 b1 1b be 67 fe 01 3d
       -0.095020235 0.10969052 -0.1520434 0.031736758
000020 f1 b2 2d 3e 28 e5 b6 3d b2 47 e9 bd 78 dc 30 be
       0.16962792 0.08930427 -0.11390628 -0.17271602
000030 5d 9b 5c 3d 8c 32 d7 bd 89 bc 1c 3c ed c8 10 3e
       0.053859103 -0.10507688 0.009566435 0.14139147
000040 a1 1d 7a 3e 45 3e a1 bd de 90 43 3d 5b e7 c8 3d
       0.24425365 -0.07873205 0.047745578 0.098097526
000050 03 ff e1 bd 8d af 46 be cd 7b 11 be 5b 14 15 3e
       -0.11034968 -0.19402905 -0.14207383 0.14558546
000060 ce 16 aa bd 98 56 39 be 1a 05 fb bd 76 4d a7 be
       -0.08305131 -0.18099439 -0.122568324 -0.32676286
000070 28 fb bb 3d 48 d5 b8 bc b9 f1 12 3d 54 1c af bd
       0.09178764 -0.022562638 0.035875056 -0.08550325
000080 0c 72 21 3d 9b 9b 82 bd 98 47 86 bc 70 6e 87 be
       0.039415404 -0.06377336 -0.01639156 -0.26451445
000090 33 fe 62 bd 07 7e 04 3e 29 27 18 be ba 1d 27 bd
       -0.055418205 0.129387 -0.14858688 -0.040799834
0000a0 8d 22 c3 3d d3 26 0c be 8c 4c b7 bd 8f d5 03 3e
       0.095280744 -0.13686685 -0.08950147 0.12874435
0000b0 4c 51 1e 3d 9c a1 99 3e bd 94 c5 bd c8 a4 9d bb
       0.03865175 0.3000611 -0.0964751 -0.004810903
0000c0 4e 77 54 bd 11 3c 93 3c 4b fc a7 bd 00 61 4d 3e
       -0.05187159 0.017972978 -0.08202418 0.20056534
0000d0 38 ea 2f bd ec 52 64 bd 23 53 fa bd 2e 46 03 be
       -0.042947978 -0.055743143 -0.12222888 -0.1281974
0000e0 00 8e f9 3d 8b 2c 0a 3e 68 fa 62 3e 71 dd 3e be
       0.121852875 0.13493554 0.22165835 -0.1863916
0000f0 7b f6 b6 bc ff 11 2d bd cc 93 30 3e ff 2e ed bd
       -0.022334328 -0.04225349 0.1724388 -0.115812294
000100 74 8f 4f be 0b f0 f4 3d c5 b6 bb 3d 7f e9 35 3e
       -0.20269567 0.11959847 0.0916572 0.17764853
000110 87 89 c6 3d af 27 2f 3e 3f 52 5f 3e 4c e7 5b be
       0.096942 0.17104982 0.21808718 -0.21474952
000120 0f d3 ff bc be dc 39 3d e4 58 0e be 8c 79 10 3b
       -0.03122857 0.04537653 -0.13901097 0.0022045104
000130 f1 94 d5 bc 86 f9 59 3d d3 dc a2 3d e3 35 05 be
       -0.026071997 0.05321648 0.07952275 -0.13008837
000140 be 5b bc 3d 2e da 17 3e ff 70 0f be 7b fb 2c bd
       0.09197186 0.14829323 -0.14007948 -0.042232018
000150 e6 77 8c bd e6 65 17 3e 53 e5 15 3e 97 04 47 be
       -0.06858806 0.14784965 0.14638261 -0.19435345
000160 9b 9c 4e be e0 62 49 3a d9 60 2e bd fa ff 1b 3e
       -0.20176928 0.0007682275 -0.04257283 0.15234366
000170 51 42 07 be e1 5a db 3d b0 9f 69 3c 10 b6 d5 3c
       -0.13208891 0.10710693 0.014259264 0.02608779
000180 6a f4 09 be 99 4d 54 3d 36 bd 85 be b3 1a ae 3d
       -0.13472143 0.051831815 -0.2612092 0.08501186
000190 c9 5b 48 3e 0e f9 9f be 1c 31 d8 bd 2a 2b 2a bd
       0.19566263 -0.312447 -0.10556242 -0.04154507
0001a0 df 24 35 bd b9 72 68 be 0e 91 97 3e af 49 e1 bc
       -0.044224616 -0.22700013 0.29602855 -0.027500955
0001b0 ba 62 7e be 40 5e 79 be 63 96 a7 3d fa 67 84 bd
       -0.24842349 -0.2435236 0.08182981 -0.064651445
0001c0 28 1f e5 bd e1 b8 d4 3d 5e 76 f2 3d 8e 8f 91 bd
       -0.11187583 0.10386825 0.11838983 -0.07107459
0001d0 a4 ae ef bc 4e 37 09 3d 05 57 cc 3d 1f 10 27 be
       -0.02925808 0.03350001 0.09977535 -0.16314743
0001e0 b4 aa eb ba cc eb 71 be a0 7a 71 be e8 6a 43 3e
       -0.0017979951 -0.23625106 -0.23581934 0.1908375
0001f0 cb 18 00 be c6 23 4b bb 24 be 51 3e fa d9 c6 bd
       -0.12509458 -0.0030996664 0.20482689 -0.097095445
000200 2c 65 40 bd 46 6f ea bd c8 39 2a 3e 3c 69 b3 3d
       -0.046971485 -0.11447005 0.16623604 0.08760306
000210 16 d1 e0 bd 98 7d 16 3e 4d 6b 37 bc 44 48 55 bd
       -0.1097738 0.14696348 -0.011195016 -0.05207087
000220 2f 2e cb bd 99 45 a1 bc 86 47 8e 3e 5c f6 6f be
       -0.09920918 -0.019686507 0.27788943 -0.23433822
000230 17 06 85 be e1 0f 73 bd f7 e2 69 3c 7c d4 f3 bd
       -0.2598121 -0.059341315 0.014275304 -0.119057626
000240 b2 28 13 3e 6a b5 68 3e df 5c fe 3d 93 6f 85 be
       0.14370993 0.22725454 0.124200575 -0.26061687
000250 43 94 7e 3d 06 52 3c 3e c2 b0 93 bd 94 b8 b3 3d
       0.062153112 0.18390664 -0.07211448 0.0877544
000260 9f e0 2e bd fb 1e 4d bd 10 80 24 3e 8a c0 67 3e
       -0.042694684 -0.050078373 0.16064477 0.22632042
000270 b1 ff 62 3e 02 0f e3 3c f8 7d 36 3e 89 f5 58 3e
       0.22167851 0.027717117 0.17821491 0.21187414
000280 0e fa 9c 3c 1e aa 41 3d ba 64 f8 3b 59 8a 1e 3e
       0.019162204 0.047281377 0.007580367 0.15482463
000290 92 82 4d be c8 a2 f0 3d 56 af b7 3d c4 12 3c 3d
       -0.2006934 0.11749798 0.089689896 0.045916334
0002a0 70 ca 8d be 9d 4e 1f be 1f 90 3c 3d b7 72 8a 3e
       -0.2769351 -0.15557332 0.046035882 0.27040645
0002b0 ca 7b 4e be ae 41 41 bd 1e 7e 5b bc 41 76 6c be
       -0.2016441 -0.047181778 -0.013396768 -0.23091985
0002c0 53 35 aa bd 78 5f 2f be 3f d9 30 3e ab 5b 6f 3d
       -0.08310952 -0.17126262 0.17270373 0.05843703
0002d0 50 59 73 be dd 66 ae bd bc 91 35 bd 91 1e 1a bd
       -0.23764539 -0.08515713 -0.044328436 -0.037626807
0002e0 9a 9d 72 bd 94 15 17 be 54 76 8e 3d 1b 25 2a be
       -0.05923233 -0.14754325 0.06956163 -0.16615717
0002f0 80 a4 b4 3c bb 6d 0e 3e eb 11 79 3e 5e 8e 96 3e
       0.022051096 0.13909046 0.24323241 0.29405493
000300 82 27 14 be 37 ec fb bd 01 7e 94 3e 79 a7 83 bd
       -0.14468196 -0.12300914 0.29002383 -0.06428427
000310 79 1c b6 bd 64 67 ca bd f6 66 55 3e e2 6a 91 be
       -0.088921495 -0.098830014 0.20840058 -0.28401858
000320 01 b8 9b bd ee fa 3b 3c a2 fb 63 3e 30 e3 b6 3c
       -0.07603455 0.0114734005 0.22263959 0.022325128
000330 6a 3d 44 3e ee 13 39 3e 8c fe 4b 3d 7b c4 d2 3c
       0.19164053 0.18074009 0.0498033 0.025728455
000340 0b da 84 bc d0 19 39 3d 60 8d 10 be 2a eb 0e 3d
       -0.016217252 0.045190632 -0.1411643 0.03489224
000350 a5 16 e3 bd f8 da a0 be 22 fd a7 bc 07 23 3e 3d
       -0.110883035 -0.3141706 -0.020506445 0.046420123
000360 e3 51 bb bd fe e3 59 be 35 96 ca bd f3 36 75 3e
       -0.09146478 -0.21278378 -0.09891931 0.23946743
000370 13 8e 9e bd 14 f1 29 be 09 80 82 bd 48 f3 a8 bd
       -0.07741942 -0.1659587 -0.06372077 -0.08249527
000380 6e d7 e9 bd e0 41 05 be b4 42 f4 3d e0 97 48 be
       -0.11418043 -0.1301341 0.11926785 -0.19589186
000390 b8 7e 16 3e 18 3e 0d be 09 da 4d 3e 0f b0 8e 3e
       0.14696777 -0.13793218 0.20102705 0.27868697
0003a0 07 23 c3 bd cb 35 83 bd b5 ea fa bd e9 47 5f be
       -0.09528165 -0.064067446 -0.12251798 -0.21804775
0003b0 99 b6 c0 bd 8d b9 99 3d 66 56 81 3e 43 70 d7 3d
       -0.09409828 0.07506094 0.2526123 0.10519459
0003c0 0a 62 9f be df 32 e2 3c 74 15 2c bd 3c ec 9f bd
       -0.31129485 0.027612148 -0.042012647 -0.0780873
0003d0 32 e7 3e 3e d1 13 01 be 60 b1 6e be 95 df 33 3e
       0.18642882 -0.12605216 -0.2330985 0.17565759
0003e0 15 84 08 3e 85 d8 4e be 22 b1 ae 3d 07 df c6 3d
       0.13331635 -0.20199783 0.08529879 0.09710508
0003f0 65 bc ed 3c af f4 8d bd b3 0d dd bd 74 d3 3e 3c
       0.029020498 -0.06931435 -0.107936285 0.011647094

model.4.bias f4 [31]
000000 28 a5 35 be 30 19 18 be 33 4f 1c be cc 8b b8 3d
       -0.17738783 -0.14853358 -0.15264587 0.09011039
000010 46 4d fc bd e7 5d 6e bc 6e 9e 00 be 48 4e 0a bd
       -0.12319426 -0.014548755 -0.12560436 -0.03376606
000020 65 29 f7 bd fa db da 3d b5 b8 c9 bd 25 8b 02 be
       -0.12068442 0.106864884 -0.09849683 -0.12748392
000030 2e 9e f7 3d aa d9 0f 3e b4 12 0a 3e 3b a1 26 3c
       0.12090717 0.14047876 0.13483697 0.010170276
000040 ed 95 13 3d fd 69 de bd c4 3b 97 b9 7a 1e 33 3d
       0.036031652 -0.108600594 -0.00028845493 0.043730237
000050 a8 47 23 be 6a 50 55 bd ce 0f 01 3e e4 40 7c 3d
       -0.15945303 -0.052078642 0.12603685 0.061585322
000060 b7 8a 4e 3e 43 72 c5 bd 5a dc d3 bd fd 7d 50 be
       0.20170103 -0.09640934 -0.10344763 -0.2036056
000070 9a aa c5 3d 7d 63 c7 bd ec 68 19 be
       0.0965168 -0.09735773 -0.14981431

model.6.weight f4 [31, 31]
000000 a4 4c 7d bd c9 40 c2 bd 63 10 20 be 0a 0e 4d 3e
       -0.06184067 -0.09485013 -0.15631251 0.20024887
000010 10 2f cf bd f8 7f e1 3d 3f 20 78 3d 5c a5 4c 3e
       -0.10116398 0.11010736 0.060577627 0.19984955
000020 d0 d3 33 be b3 c8 0c 3e 00 5d 4c be 9f 6c 19 3d
       -0.17561269 0.13748436 -0.19957352 0.037457105
000030 51 16 3f 3d 14 aa 01 be 2c aa be 3d ad 6a 5d 3e
       0.046652142 -0.12662536 0.093098015 0.21622725
000040 d0 f6 16 bd 47 cf be 3d bb e9 5f 3c e2 1a 4a 3b
       -0.036856472 0.09316879 0.0136665655 0.0030838777
000050 97 a1 2c be 5c 08 0f 3e bf 87 56 3e 1f ae 17 3e
       -0.16858517 0.13968033 0.2095022 0.14812516
000060 af 93 5c 3e 3c 5a 53 be 60 45 33 be 61 1a e4 bd
       0.21540712 -0.2063989 -0.17506933 -0.11137844
000070 70 b1 c4 bd 99 eb fd bd 84 9e 8d 3d 06 ff 99 3d
       -0.09604156 -0.12398452 0.06915 0.07519345
000080 e2 4a 7b 3d 56 e9 44 3d 85 5e 10 3e f9 6a 86 bd
       0.06135071 0.04807409 0.14098556 -0.06563372
000090 4e ec 4a 3e 7d d0 0d 3e 2c e7 b3 bd 93 cc 47 3e
       0.19816706 0.13849063 -0.08784327 0.19511633
0000a0 d7 d9 e2 3b 3c 06 e9 bd fe 4e 09 3d d0 c1 2c be
       0.006922941 -0.11378142 0.0335226 -0.16870809
0000b0 0a 57 d6 3d f6 68 f7 bd b6 88 0b be 4d bb c3 bc
       0.1046582 -0.120805666 -0.1362637 -0.023893023
0000c0 96 5f 7d be 6e 77 80 3e 9a 63 c6 bd ea b2 ae bd
       -0.24743494 0.25091118 -0.09686966 -0.08530219
0000d0 98 63 d3 bd eb d4 84 3d 74 3b 7e be 1a 13 ea 3d
       -0.103217304 0.064859234 -0.24827367 0.114294246
0000e0 bf 1a c0 bd b3 56 7c bd 42 a5 28 be a1 7f 39 be
       -0.093801014 -0.06160612 -0.16469291 -0.18115093
0000f0 83 cd 47 3e bc 65 3d 3e de b6 5c 3e 74 54 dd bd
       0.1951199 0.1849584 0.21554133 -0.10807124
000100 60 4c d7 bd d3 67 fa bc 92 b9 d7 bd 8c 56 a0 bd
       -0.10512614 -0.030567085 -0.105334416 -0.078290075
000110 b5 70 6f bc 4e 95 83 be 32 22 6f 3b b6 2e e9 bd
       -0.014614274 -0.25699848 0.0036488888 -0.113858625
000120 65 66 32 3e 9e d9 ce 3d 7e 2b ab 3b 83 a5 46 3e
       0.17421873 0.10100101 0.0052236905 0.19399075
000130 72 b7 29 3d 30 0c 42 be 0a 98 a3 3d 99 a4 18 3e
       0.041434713 -0.18949962 0.079879835 0.14906539
000140 3c f8 47 bd 1d 1f 1e be e5 68 f2 3d 3e 2c 1b bc
       -0.04882072 -0.15441556 0.11836413 -0.009470997
000150 9b 9b 27 be 10 09 b3 bd 0b c1 c3 bd 91 c3 54 3e
       -0.16367953 -0.08741963 -0.095583044 0.20777728
000160 a4 41 40 3e b8 31 28 3e a1 db ad 3b 99 7a 93 bd
       0.1877504 0.16425216 0.005305723 -0.07201118
000170 2c 62 2a 3e 65 3e 0d bd d0 24 a9 3d 9f e3 31 be
       0.16639012 -0.034483332 0.082589746 -0.17371987
000180 6a e6 2e 3d ce 12 ef 3d 90 e7 e0 bd 47 13 09 be
       0.04270021 0.116735086 -0.10981667 -0.1338626
000190 ef 57 0f 3e e7 65 a9 3d 2f 8f 40 3e 13 9d f1 3c
       0.13998388 0.082713895 0.1880462 0.029493844
0001a0 d6 5f 19 bd b8 47 3b 3e 14 d1 db bd 32 af 32 3e
       -0.037444912 0.18289077 -0.10733238 0.17449644
0001b0 3f 36 16 3e 38 78 43 be ad 6a 3a 3e 0c 0c 41 bd
       0.1466913 -0.19088829 0.18204756 -0.04713063
0001c0 00 d3 97 bd 35 40 b0 bd 81 a8 67 3e bf cb 26 be
       -0.07413292 -0.086059965 0.22622873 -0.1628866
0001d0 b7 a9 01 3e fa 3e a0 bd 14 cb 4f be 24 c7 f8 bc
       0.12662397 -0.07824512 -0.20292312 -0.030368395
0001e0 bc 47 e6 3d 16 a0 3b 3e 6e 3f 5e be 58 aa ea 3c
       0.11244151 0.18322787 -0.21703884 0.02864568
0001f0 ab 8e 57 3e 0f ff af 3c 01 74 55 3e 63 f4 07 3d
       0.21050517 0.021483926 0.20845033 0.03319205
000200 83 dc 41 be 9b 5f b8 3d ed f9 21 3e 81 c1 ed bd
       -0.18931775 0.0900261 0.15817995 -0.116091736
000210 cb 8b 8d 3e 87 c9 75 bc 28 7c 04 3d 5f d7 96 3e
       0.27645716 -0.015001661 0.032344967 0.2946119
000220 a0 27 23 bd 33 08 15 3e 76 4e 19 be e4 21 5c be
       -0.03983271 0.14553909 -0.14971337 -0.21497303
000230 42 6b 19 bd 47 64 6b bb fa d9 d4 3c d9 5f 80 be
       -0.037455805 -0.0035917924 0.025982846 -0.25073126
000240 4b e1 37 3e 4b 8d 3a bd 85 d3 5c be 1f f5 48 be
       0.17957036 -0.045544904 -0.21565063 -0.19624756
000250 cd cd 55 be bf 09 67 3e 87 55 02 3e c7 75 57 bd
       -0.20879288 0.22562312 0.12727939 -0.052602556
000260 2f 69 0c be 3a 1f 57 3e 48 fa 07 be 07 66 a2 bd
       -0.13712 0.21008006 -0.13279068 -0.079296164
000270 52 8a 06 bd 1b aa 4f 3e 32 7c 76 be 90 e6 54 be
       -0.032846756 0.20279734 -0.24070814 -0.20791078
000280 c0 f7 d7 3d 9b ef d3 bd 50 24 37 bc f6 d9 5a 3e
       0.105453014 -0.103484355 -0.011178091 0.21372208
000290 c7 79 a6 3c 7f dd 57 3e 6e b4 85 3e 07 1a 6f be
       0.02032174 0.21080588 0.2611422 -0.23349772
0002a0 05 fb 3c 3e 3d 99 19 3d f1 14 dd bb c6 13 ce bc
       0.18455131 0.037499655 -0.006746881 -0.025155913
0002b0 e8 70 fd bd 2e c3 2a bd 19 b0 ae bd bb fc cf 3c
       -0.12375051 -0.041690044 -0.08529682 0.025389066
0002c0 50 0b 69 bd 49 ee 31 3e 5c 30 83 be 81 45 83 3d
       -0.056895554 0.17376055 -0.25622833 0.06409741
0002d0 76 79 03 3e bf a0 12 3e f2 4d dd 3d 74 20 be 3d
       0.12839302 0.14319132 0.108058825 0.09283534
0002e0 c9 41 78 bc 2b a5 d7 3d 97 b4 3a be 93 85 bb bd
       -0.015152403 0.1052955 -0.18232952 -0.09156337
0002f0 9b 5a 6a be 77 44 2b 3e fe f8 7d 3d d6 c3 19 be
       -0.22886126 0.16725336 0.062005036 -0.15016112
000300 2d a2 db bd 2a 47 df 3d 2d 76 47 bd 7f fe 54 3e
       -0.10724292 0.10902245 -0.048696686 0.20800208
000310 5f 42 37 be 64 17 eb bd 8d 98 a3 3e 1e 2a 3b 3d
       -0.17896412 -0.11479071 0.31952325 0.045694463
000320 d1 10 10 3e 02 89 b7 3c a7 fa 88 3c c3 f0 c9 3c
       0.14068915 0.022404198 0.016721083 0.024650937
000330 15 56 6d bd 71 9f 72 3e 87 f9 d2 bd c9 7a 1d 3c
       -0.057943422 0.23693635 -0.103015 0.009611794
000340 a4 80 fb 3d c3 74 14 3e 02 c7 3b be f0 21 07 be
       0.122803956 0.14497666 -0.18337634 -0.1319654
000350 94 5b c9 bc 92 7d e0 3d f1 87 08 3e 11 7e 51 be
       -0.0245798 0.10961451 0.13333108 -0.20458247
000360 90 3a 45 be 59 c4 1e bb 58 f1 45 3e 0d da f9 3c
       -0.19260621 -0.002422592 0.19330347 0.030499483
000370 4d a4 a7 3d b3 32 62 3e 75 f3 62 be d7 42 2b 3d
       0.08185635 0.22089653 -0.22163184 0.04181179
000380 8c 5c 86 3d 42 32 ed bc ac 1d 41 3e 95 fc 04 be
       0.06560621 -0.028954629 0.18858975 -0.12986977
000390 8d a5 a8 bb 7d bf b3 3c 66 c5 ec 3b da 8f 15 be
       -0.0051466883 0.021941895 0.00722568 -0.14605656
0003a0 df 11 8e bc 7b 86 40 be af cb 5d 3e 13 2e 48 3c
       -0.017342506 -0.188013 0.2165973 0.012218016
0003b0 a8 31 40 3e b1 2b 53 3e 7d 92 2d 3e 50 34 27 bd
       0.18768942 0.20622136 0.16950412 -0.040821373
0003c0 c3 9b 22 3e ac a7 28 bd ce da 55 3b cf 35 61 be
       0.15879731 -0.04117553 0.0032631638 -0.21993183
0003d0 f3 82 4b 3e 07 88 89 bd d6 78 89 3d 74 3c 55 bd
       0.19874172 -0.06715398 0.06712501 -0.052059606
0003e0 f0 15 5f ba 8c f5 12 3e 8d 0d 80 bd d8 1c da bd
       -0.0008510044 0.14351481 -0.062525846 -0.10650033
0003f0 98 df ba 3c b5 b0 50 be c3 dc aa bd b7 0c 0b 3e
       0.022811696 -0.20379908 -0.08342888 0.13579069

model.6.bias f4 [31]
000000 d3 8e df bd e8 5a e8 3d 5c ec 95 3d a7 c6 70 bd
       -0.109159134 0.11345464 0.073204726 -0.0587832
000010 09 6e 4b bd 3c 7e f5 bd 74 c3 f4 3d 23 67 17 be
       -0.049665485 -0.11986968 0.11951342 -0.14785437
000020 83 fb 19 be 90 3a f5 bd a8 c8 9c bd 62 a2 7b 3c
       -0.1503735 -0.119740605 -0.0765546 0.015358539
000030 b7 69 f8 bd cf c4 a8 bc 22 94 4c bd 15 79 91 bc
       -0.121295385 -0.020601658 -0.049945958 -0.017757932
000040 37 19 5a bd a3 e7 83 3d c7 1b 96 3d 50 2c 70 bd
       -0.053246703 0.064406656 0.07329517 -0.05863601
000050 75 c7 e8 3c ea 30 3b 3e 33 50 87 3d 01 9e c7 bd
       0.028415421 0.18280378 0.06607094 -0.09746934
000060 57 0c d1 3d 97 c7 56 be b8 8c 4f 3d 4f 84 ee 3d
       0.10207432 -0.20974575 0.05067131 0.116463296
000070 05 51 3b 3c 2e 55 89 3d bb c9 34 3e
       0.011432891 0.067057 0.17655079

model.8.weight f4 [3, 31]
000000 f2 9f 00 3e ff bd 34 be 1f 06 b2 3b e4 22 6f 3e
       0.12561014 -0.17650603 0.0054328586 0.23353153
000010 3f 3f 1d bd 79 af 48 be cb f7 59 3e ee 54 81 3e
       -0.038390394 -0.19598188 0.21285932 0.2526011
000020 0b 0a 2a 3e bd 6b 3b 3e 7a 30 4a 3d 18 48 22 be
       0.16605394 0.18302818 0.049362637 -0.15847814
000030 c2 91 b2 bd fd 99 f3 3d 7b 3e 00 3e 19 d7 14 3e
       -0.08719207 0.11894605 0.12523834 0.14535178
000040 ab e1 d3 3d c7 23 8d be 83 65 9c bc 20 56 84 be
       0.10345777 -0.27566358 -0.019091373 -0.25846958
000050 2e 4b 90 be 8f d5 2b 3e 94 b0 1f 3e af 47 27 3e
       -0.28182358 0.16780685 0.15594703 0.16335939
000060 c3 96 44 be 46 1e 2f 3e 84 52 d8 3d 28 9d 3f 3e
       -0.19198136 0.17101392 0.105626136 0.18712294
000070 51 2c ab bd 07 71 61 3e 6d d8 b1 bd 4d 54 0b bc
       -0.08358062 0.22015773 -0.08683858 -0.008503986
000080 3e 23 74 3e 20 62 c6 3d 1d 82 42 be 88 e4 56 3e
       0.23841569 0.096866846 -0.18994947 0.20985615
000090 87 22 9c 3e a7 e9 8a be c5 13 aa bd 2f fc 87 3d
       0.30495092 -0.27131388 -0.08304552 0.06639897
0000a0 54 ae c8 3c d2 95 ad 3e 08 5f 38 3e d8 ea 3f 3d
       0.024497189 0.33903366 0.18005002 0.046854824
0000b0 38 b4 08 be c4 36 bd bd e4 cf 54 be b6 6d d0 bd
       -0.13349998 -0.09238961 -0.20782429 -0.10177176
0000c0 4f 97 05 be e3 2b 94 3e 24 26 a1 3d 6b 38 ef 3d
       -0.13046001 0.28939733 0.07868603 0.11680683
0000d0 2e 4a cb bd ac fa 87 be bf 15 87 be aa bc 14 3e
       -0.09926258 -0.26558435 -0.26383778 0.14525095
0000e0 ba 29 d2 3c 4a ab 83 be 35 2f 69 be ae 25 6f 3e
       0.025654662 -0.2571662 -0.22771914 0.23354217
0000f0 36 94 2c be 0b 80 a2 3d b3 e4 89 3e c1 a2 4a 3e
       -0.16853413 0.079345785 0.26932296 0.19788648
000100 7e a1 30 be 80 59 29 3a 65 2f 84 be 17 57 b0 bd
       -0.17249104 0.0006460175 -0.2581741 -0.08610361
000110 05 25 f1 3d 58 70 01 be 4f e5 42 bb 2c ba e8 bd
       0.11774639 -0.12640512 -0.002973873 -0.113636345
000120 8e 59 c8 bb 60 c2 b7 bd 05 d7 cd 3d 9a c2 4b 3e
       -0.0061141914 -0.08972621 0.10050777 0.19898453
000130 fc 42 f0 3c 8c ba 6e 3c b2 8e 00 be 75 2f 96 bd
       0.029328816 0.014570843 -0.12554434 -0.073332705
000140 49 28 32 3d 5b 6b 18 3e 17 78 7b 3c 99 ce 6a 3e
       0.04349545 0.14884703 0.015348456 0.22930373
000150 53 04 4d 3e af 67 40 3e 6f 93 ff bd 59 be dc bc
       0.20021181 0.18789552 -0.124792926 -0.026946234
000160 9e 47 a9 bd 92 db cb bd c3 1a 23 3d 8c 16 5a bd
       -0.08265613 -0.09953989 0.039820444 -0.05324416
000170 0f a9 4c 3e
       0.19986366

model.8.bias f4 [3]
000000 3d 8b 2e be 40 d0 30 be 5b 7d c4 bd
       -0.17045303 -0.17266941 -0.09594222
